models/GRU32x32_b512_l20_PROPER.pth (torch, 42439 bytes, 9 tensors)

gru1.weight_ih_l0 f4 [96, 1]
000000 9d ab 5c 3c 7c ac 13 3e d5 98 91 3d 7a 2e e8 3c
       0.01346865 0.14421266 0.071092285 0.028342474
000010 89 97 15 bd 2c a4 ab bc 14 80 ed 3d 9a 3c 6b 3d
       -0.03652147 -0.020952307 0.115966946 0.05743084
000020 29 76 fd 3d b7 9a d9 3d 7e 03 e2 3d 6b 21 40 3d
       0.12376053 0.10625213 0.11035822 0.04690687
000030 fa d5 fa 3d c2 c8 95 3c 2c 75 34 3e d7 83 02 3c
       0.12247844 0.018284205 0.17622823 0.007966003
000040 88 2f ce bd ab 43 b5 3c 29 e1 67 bd aa 35 ec bd
       -0.100676596 0.022126993 -0.056611214 -0.11533673
000050 a1 a9 98 bd a9 b9 c0 bc 13 e2 3d 3d 72 62 27 3e
       -0.07454229 -0.02352603 0.04635818 0.16346148
000060 b8 fe 90 3c 20 aa 0c 3e d7 27 b6 bd 95 53 c0 bd
       0.017699584 0.13736773 -0.088943176 -0.09390942
000070 1d 32 80 3e e3 9a c1 3b 48 23 0c 3e c7 21 25 3d
       0.25038233 0.0059083565 0.13685334 0.040315416
000080 bd 86 85 bd d4 63 82 be b4 7e 95 bc 39 5a 2d be
       -0.0651984 -0.25466788 -0.018248893 -0.16928948
000090 67 75 75 3c f1 cf e7 bc 5a fb 2b 3c 84 1b 9b 3d
       0.014981604 -0.028297396 0.010496939 0.075736076
0000a0 2c be 4d be 09 2b 2c 3d 8d e8 54 be 0e c8 d5 bd
       -0.20092076 0.04203323 -0.20791836 -0.10438548
0000b0 be b8 29 be a3 15 8d bd be a7 c7 bd a7 1b b5 3b
       -0.1657438 -0.068888925 -0.09748791 0.005526978
0000c0 7e 96 64 3c f9 6b 20 3e b2 14 41 be f1 54 4f bd
       0.013951896 0.15666188 -0.18855551 -0.050618116
0000d0 b9 ae da bc 9d 05 08 be cd 2c 7c be 35 50 29 3e
       -0.026694642 -0.13283391 -0.24626465 0.16534503
0000e0 79 2f 67 be 68 ff 12 be 70 da 64 bd c1 9e 23 be
       -0.22576703 -0.14355242 -0.05587238 -0.15978529
0000f0 f9 2b 99 be 8b e6 1d be bc 1f be bd 4c 76 32 be
       -0.2991636 -0.15419976 -0.092833966 -0.17427939
000100 97 7f 08 3e ad 17 43 be 2a 0b 06 3c 71 62 61 be
       0.13329922 -0.19052 0.008181373 -0.22010209
000110 21 15 24 3e 44 e8 ab 3d d0 c8 04 3e 9e 56 bb 3c
       0.16023685 0.083939105 0.12967229 0.02286845
000120 3c c4 e1 bd 2d 15 20 3b 4a 96 33 3e d5 51 25 3e
       -0.11023757 0.0024426684 0.175378 0.16144498
000130 31 cb 43 be f5 99 2b be 2d 22 07 be d1 c1 14 3e
       -0.1912048 -0.16757949 -0.13196631 0.1452706
000140 f5 fb 98 3d c9 39 26 3d 60 e9 57 3e 47 c5 43 be
       0.07469932 0.040582452 0.21085119 -0.19118224
000150 84 66 39 3e 4f 18 57 3e 4c ec 42 be 9d da bb 3d
       0.18105513 0.21005367 -0.19035453 0.091725565
000160 38 6a 65 be a5 01 25 be f6 24 35 3c a2 4b 78 3e
       -0.224038 -0.16113909 0.011056175 0.24247602
000170 9a 0d 17 be 3b 01 60 be 72 ae 4d 3e f6 20 55 be
       -0.14751282 -0.2187547 0.20086077 -0.20813355

gru1.weight_hh_l0 f4 [96, 32]
000000 74 69 ec 3d 65 23 8f bd d0 78 f5 3c f4 7c 04 3d
       0.11543551 -0.06989173 0.029964834 0.032345727
000010 20 a6 ff bd a8 c2 db 3c 0e b6 d5 3d 78 6b fe 3c
       -0.12482858 0.026826218 0.10435115 0.031057104
000020 15 e4 61 3c 26 c2 f8 bd 63 3f 86 3d f4 36 d1 bd
       0.013787289 -0.12146406 0.06555059 -0.102155596
000030 ab 45 12 bd 5b 49 8d 3d e7 58 2a be 69 b3 dc bc
       -0.03571097 0.06898757 -0.16635476 -0.026941018
000040 5e 98 19 bd d8 ab ad 39 56 05 fe ba b2 b9 29 3d
       -0.037498824 0.00033125165 -0.0019380252 0.04143686
000050 ba f7 d4 bd e2 ef bc bd db cf c0 bb 45 4a d4 3d
       -0.103988126 -0.092254415 -0.0058841533 0.10365728
000060 8d 4c 77 bc af 54 43 3d d5 e7 c0 3d 94 85 83 3d
       -0.015093935 0.047688182 0.094192185 0.064219624
000070 c2 12 ca 3d 08 16 76 3d ea 7d ef bd 4a 4a ef 3c
       0.09866859 0.060079604 -0.11693938 0.029210228
000080 ad 96 ea 3a f3 bb 2d 3c d3 d7 94 bb 27 e7 ad 3a
       0.0017897688 0.010603893 -0.00454233 0.0013267741
000090 0d 42 09 3d 48 ef a1 3b c6 fc 8f bc 91 8d 4c 3b
       0.033510257 0.0049418546 -0.017576586 0.003121231
0000a0 97 2d 49 bb e6 6d 5c bb e7 7a 84 3a 1d 98 a7 3a
       -0.003069734 -0.003363484 0.0010107429 0.0012786422
0000b0 0c 28 9c ba e0 e6 4c 3b af 26 e3 3c 86 6c f3 3b
       -0.001191379 0.0031265542 0.027728407 0.0074287085
0000c0 e7 24 98 ba ab e8 70 3c 1e fb c1 3b ef 41 19 3c
       -0.0011607677 0.01470391 0.005919828 0.009354099
0000d0 07 c5 43 3c 6e 37 d4 bb fe 56 3c 37 d4 44 61 3b
       0.01194883 -0.0064763343 1.1225928e-05 0.00343733
0000e0 6b bb b6 bb 55 e2 2e ba 05 56 40 bc a5 e9 12 3c
       -0.005576541 -0.00066712993 -0.011739259 0.008966838
0000f0 6f 95 41 bb 96 73 a3 3b 4d 92 f6 3b 90 78 68 3a
       -0.0029538532 0.004988144 0.0075247646 0.0008868063
000100 08 a8 c2 3c ca 25 29 3d 5f c1 75 bd 52 5a 39 bc
       0.023761764 0.041295804 -0.059998866 -0.011313038
000110 5c 7e 5b 3d d2 e5 69 3b 00 5e 0a 3d 10 b5 54 bd
       0.053587303 0.0035689962 0.03378105 -0.051930487
000120 c5 ee d7 bb 58 33 7a bd 44 04 34 bc db 0d 4d bd
       -0.006589743 -0.06108412 -0.010987345 -0.05006204
000130 5b 66 08 3b 41 f0 6c bd f9 8d 4b 3d 28 23 58 bd
       0.0020812962 -0.05784631 0.049695943 -0.052767903
000140 0e c4 65 bc bb ac 30 bc a6 1e 17 3b 40 03 67 3d
       -0.014023794 -0.01078337 0.002305904 0.056399584
000150 77 1e af 3c cd 2d 75 3c 05 09 26 3c 31 2a 36 3c
       0.021376831 0.014964533 0.010133986 0.011118458
000160 d7 ae 5e bc 40 f8 69 3c b3 ee 1f bd 1d d9 3e 3b
       -0.01359149 0.014280379 -0.039046 0.0029121109
000170 d3 53 99 bd 6d e3 1c 3d bb 14 c3 3b 88 7b 2f 3c
       -0.07486691 0.038302828 0.005953399 0.0107106045
000180 46 59 27 3d a1 b4 69 bd 6a f9 bd 3c 3e e7 58 bc
       0.040856622 -0.057057027 0.023190219 -0.013238726
000190 d8 e2 a1 3d 44 03 62 3d f5 1c 91 3d eb 94 b1 3d
       0.07904595 0.055178896 0.07085601 0.08670982
0001a0 2b b1 a0 bc b4 80 8c bd d9 72 ec 3b d5 62 64 3c
       -0.01961573 -0.06860486 0.0072158393 0.013939579
0001b0 f4 21 02 3d a6 2a 45 bd 21 3b 3a 3d ea 1e a3 3d
       0.03177066 -0.048136376 0.045466546 0.07964881
0001c0 84 b8 45 bd e4 3f a4 3d e3 48 7a bb 76 b5 fc 3c
       -0.04827167 0.08019999 -0.0038190417 0.030848246
0001d0 e9 ac 6d 3a 66 a1 de bc 93 93 e5 3b 60 20 e8 bc
       0.0009066598 -0.02717657 0.0070061176 -0.02833575
0001e0 30 7e 3c bc 94 4e 06 3d ed cb f9 3c 59 76 58 3d
       -0.011504695 0.03278978 0.030492747 0.05284724
0001f0 2e ba 1e 39 29 37 a4 3c c9 8b cd bc b1 ab 24 3d
       0.00015137412 0.020045834 -0.025091069 0.0402028
000200 81 a6 17 3d 28 7d 80 bd 04 cf a0 3d fc 09 0d bd
       0.037024025 -0.06273872 0.07851985 -0.03443335
000210 74 c2 0e be d0 af 59 bd 91 32 bb 3d 1a a8 be bd
       -0.13941365 -0.053146183 0.09140504 -0.093094066
000220 3e 10 21 bc 75 46 94 bd ba e4 8f ba 70 1b af 3d
       -0.009830533 -0.07240001 -0.00109782 0.08550155
000230 2e f4 f1 bb fe 25 5f bd 59 fd 28 be 79 f5 ab 3d
       -0.007383845 -0.05447959 -0.16502894 0.083964296
000240 2a a1 f2 3d 8f 77 95 bd 2d c3 71 bc 6e ba 9e bd
       0.11847146 -0.072981946 -0.014756006 -0.077504024
000250 ad 9e 51 3d 48 2a 46 3d 56 45 9d bc d0 37 87 bd
       0.051176716 0.048380166 -0.019198101 -0.06602442
000260 f5 7c 1d bd bb 0b 2f bc db 69 93 3d 78 54 c8 bc
       -0.038449246 -0.010683949 0.07197925 -0.02445434
000270 8d 3f b8 bd 1a 9a 86 bd e9 eb 86 3d 1d 9b 54 bc
       -0.08996496 -0.06572361 0.06587965 -0.012976435
000280 06 5d ce bc f5 97 76 bc 9f a5 eb 3c d8 08 ba 3c
       -0.025190841 -0.015050878 0.028765498 0.022709295
000290 7b b4 a7 bd 97 1d 0b bd d2 4a 64 bd 52 02 ac bb
       -0.08188721 -0.033963766 -0.055735417 -0.0052493
0002a0 a6 07 1e 3c 50 bc 9c bd 14 8c 3b bc 0e c8 e1 bc
       0.009645378 -0.07653105 -0.011446971 -0.027561214
0002b0 b7 00 20 3d d6 cc 18 bd ff 6a d0 bd 0c 7a 8b 3c
       0.03906318 -0.03730472 -0.10176658 0.01702597
0002c0 8e 1c fb bb 43 5f d0 bc b5 d2 03 bd 3c 02 29 bd
       -0.007663316 -0.02543605 -0.032183368 -0.041261896
0002d0 d3 15 b7 3c 10 55 8f 3c 99 ae c2 3b 7b 5d 6a bb
       0.022349274 0.017496616 0.005941224 -0.0035761285
0002e0 53 40 3b bc 31 4d e7 3c 8b 30 41 3d 44 a4 7d bc
       -0.01142891 0.02823505 0.047165435 -0.0154810585
0002f0 78 22 48 bc 3c 3c 0c 3d a6 e3 b8 3c 8c 15 86 3c
       -0.012215249 0.03423713 0.022569489 0.016367696
000300 b5 3b 2b 3b 09 30 5f bc 35 f3 60 3c ed e3 ab bb
       0.0026128117 -0.013622292 0.01372986 -0.0052456767
000310 99 df 27 bd 27 06 75 bb 91 9c d3 3c 88 90 c7 bb
       -0.040984724 -0.00373877 0.025831493 -0.0060902275
000320 bf d0 cd bb c2 9c e8 bc 46 6c 0c 3c e5 7d c9 3c
       -0.006280988 -0.02839506 0.008570736 0.024596164
000330 ab 8e 90 bb a9 46 00 bc 21 00 69 bd c0 71 c6 3c
       -0.0044115386 -0.007829347 -0.05688489 0.024224162
000340 ed 77 36 3d dc ab 8f 3b 8e 48 5b 3b 37 7a 65 bc
       0.044547964 0.004384501 0.0033459994 -0.014006189
000350 27 42 6a 3c e0 0a 03 3c 62 b1 38 b9 b8 63 33 3c
       0.0142979985 0.007998198 -0.00017613688 0.010949068
000360 9f 75 38 bc 58 5a b1 bb f2 a8 6a 3c a7 2f bf 3b
       -0.011258512 -0.005412381 0.014322506 0.005834538
000370 00 95 de bc 09 d1 80 bc f6 9c 87 3c 45 3f 4d bb
       -0.027170658 -0.015724676 0.016554337 -0.003131823
000380 15 f6 e6 3c 9e bb 73 3b 42 aa a8 bd 7d 68 df bc
       0.028193513 0.0037190686 -0.08235599 -0.027271504
000390 01 9b b7 bd c7 75 38 3d 6a 3d ef 3c 0a 29 9f bd
       -0.089651115 0.045034196 0.02920409 -0.077714995
0003a0 8e 53 f4 bc 93 7f 46 bd 3a 66 5c 3d bb 25 12 3d
       -0.029824998 -0.048461508 0.05380843 0.035680514
0003b0 7b 06 2d bd 9e a3 b4 3c 80 85 1a 3d 01 3d b7 bd
       -0.04224251 0.022050675 0.03772497 -0.089471824
0003c0 d8 7c d3 3d b5 de 96 bb a1 42 06 3c 67 cf 1e bc
       0.103265464 -0.0046041855 0.0081945965 -0.009693003
0003d0 25 ec 19 bc 0a 6b c6 3d e6 31 82 3c fc 39 78 3b
       -0.00939468 0.09688385 0.015892934 0.0037876358
0003e0 6d d2 9b bd ff 08 23 bd ae d1 da 3d 24 e9 e2 3c
       -0.07608495 -0.0398035 0.106845245 0.02769906
0003f0 d6 68 25 bd 67 61 31 bd 2c 1d b7 3d 66 be 93 3b
       -0.040383182 -0.04330578 0.08941111 0.0045087812

gru1.bias_ih_l0 f4 [96]
000000 61 db 22 3c 43 21 76 3d f1 3e 3d 3d 92 99 a3 bd
       0.009939999 0.060090315 0.046202604 -0.079882756
000010 bd 13 08 3e 25 92 15 3e 05 66 18 3d f8 10 f8 3d
       0.1328878 0.14606531 0.03720667 0.121126115
000020 d8 76 43 3d 97 2a 54 3e c8 a9 e1 3d 9e 9c 19 3d
       0.04772076 0.20719372 0.11018711 0.037502877
000030 89 3c 15 bd df 10 8a 3c 22 a6 10 bd f2 77 1b bd
       -0.036434684 0.016853748 -0.035314687 -0.037956186
000040 24 bc 25 3d 6d 38 fc 3c 53 5a 65 3c 5c 15 d7 3d
       0.040462628 0.030788625 0.013998586 0.10502121
000050 f9 31 01 be 21 8b ee bc 81 03 4b 3d 8f 43 86 3d
       -0.1261672 -0.029119076 0.04956389 0.065558545
000060 67 cf db bc 28 92 ed bc 79 c7 c2 3d 0f 32 0b 3e
       -0.026832296 -0.029000357 0.09510703 0.13593315
000070 21 ab c8 3d 1c 8a c9 3d ac a5 19 3e 33 f6 12 be
       0.09798265 0.098407954 0.15004605 -0.1435173
000080 f7 de 71 bd 43 4a 42 be f9 54 43 bd 64 8d 79 be
       -0.059050526 -0.18973641 -0.047688458 -0.24370342
000090 7b 55 e5 bd 35 7f 85 bd de bb cf 3d 22 f9 36 3e
       -0.11197945 -0.065184034 0.10143255 0.17868474
0000a0 ec 88 1b be 81 95 11 3d 12 0e f8 bd f8 f7 67 bd
       -0.1518895 0.03554297 -0.12112059 -0.056632966
0000b0 51 7f e9 bd b7 54 a2 bd fa d1 4a be 40 96 8b bd
       -0.11401237 -0.07926314 -0.19806662 -0.06815767
0000c0 a3 a8 12 bd b2 fd 13 3e 63 6d 63 be 71 93 5d 3c
       -0.035805356 0.14452246 -0.22209696 0.013523922
0000d0 d1 53 67 bd b4 87 d2 bd bc b5 72 be e4 95 94 3d
       -0.056476418 -0.102797896 -0.23702139 0.07255152
0000e0 8c 90 46 be 6e ee d5 bd 5d b1 fe bc 40 04 57 be
       -0.19391078 -0.104458675 -0.031090433 -0.20997715
0000f0 b0 bb 16 be 62 44 4e be b5 f3 d4 bd cd 2a 9a bd
       -0.14720035 -0.20143273 -0.10398046 -0.07527695
000100 86 71 f7 bd b0 2f e6 3c d1 7a 00 3e 97 65 0f 3e
       -0.120822 0.028098911 0.1254685 0.14003597
000110 a1 2d 70 be 36 b7 82 bd 23 42 3e 3e 53 c9 21 be
       -0.23454906 -0.06382601 0.18579917 -0.15799455
000120 76 09 b4 bb c0 bb 8d bd 04 21 06 be af aa 3a 3e
       -0.005494292 -0.06920576 -0.13098532 0.18229173
000130 28 96 27 3e f9 c5 65 bd 00 d7 8a be 23 65 11 3e
       0.16365874 -0.056097005 -0.27117157 0.14198737
000140 98 9b 4a 3e dd 6d 0e be 96 77 cc bd c7 e3 2c be
       0.19785917 -0.13909097 -0.09983747 -0.16883765
000150 fb ea 1d 3c f5 c2 a3 bc 1e e1 8e 3d 0c 81 05 be
       0.009638543 -0.019990424 0.069765314 -0.13037509
000160 89 59 80 3d 39 d4 9a 3d e8 41 e1 3b d5 75 99 bd
       0.062670775 0.075600095 0.0068743117 -0.07493178
000170 b1 e2 b0 bd 97 fd c6 bc b8 72 60 bd f9 82 21 3e
       -0.08636988 -0.024290843 -0.054796904 0.15772618

gru1.bias_hh_l0 f4 [96]
000000 5b ba 1c 3e bd 20 a8 3d 06 9a dc bb d6 ea fe bd
       0.15305464 0.08209369 -0.006732228 -0.12447135
000010 32 a3 18 3e 3b d1 1c 3e 54 d9 e1 3c f4 73 af 3d
       0.14906004 0.1531419 0.02756945 0.08567038
000020 9a 26 bb 3c 0e f3 3d 3e 31 11 c1 bd c0 21 9d 3c
       0.022845555 0.1854975 -0.09427107 0.019181132
000030 9e ed c8 bd f1 7b 42 3d 63 ac 40 3e f8 9c 9a b9
       -0.09810947 0.04748148 0.1881576 -0.0002949012
000040 a3 ed 1f 3d cc 6e d2 bd 45 d3 bf 3b 72 e1 c2 bd
       0.039044987 -0.10275039 0.0058540427 -0.095156565
000050 60 cf d8 3d 47 75 86 bd b2 d3 ab bd 28 8d 7a 3c
       0.10586429 -0.06565338 -0.08389987 0.015292443
000060 ac 33 b3 3d af 35 06 3d 42 29 2d 3e 72 77 2e 3e
       0.0875009 0.03276604 0.1691027 0.17037752
000070 97 8c 03 3e 87 78 83 3d dd 41 47 bd 85 09 18 3d
       0.128466 0.06419473 -0.048646796 0.037118454
000080 c8 f2 0d be 53 9c 34 be 75 c2 39 bd 76 8e 13 be
       -0.13862145 -0.17637758 -0.045351464 -0.14409813
000090 4e 45 58 be 8b 41 07 be 88 22 e5 3c 15 b2 65 3e
       -0.21120188 -0.13208596 0.027970567 0.22431214
0000a0 48 3c 05 be bf 45 79 3c d1 8e 03 be bc 12 7b bd
       -0.13011277 0.015214383 -0.12847449 -0.061297163
0000b0 28 ba f4 bd 6d b0 ab bd b2 b7 4a be c3 aa 94 bc
       -0.11949569 -0.0838326 -0.19796637 -0.018147832
0000c0 3f f3 14 3b 4b ed 1e 3e ac 75 82 be 2f 26 80 3c
       0.0022727994 0.15520208 -0.25480402 0.015643207
0000d0 8a 03 25 bc c9 70 0d be 00 98 46 be fd 60 83 3e
       -0.010071645 -0.13812555 -0.19393921 0.25659934
0000e0 52 a9 48 bd 43 5c c2 bd 94 a2 89 bd e8 48 6a be
       -0.0489896 -0.09490254 -0.067204624 -0.22879374
0000f0 d3 f5 10 be 90 7c 7c bd 4e 2e 59 bd bd ea c7 bd
       -0.14156274 -0.06164223 -0.053022675 -0.0976157
000100 32 0f 39 3e 08 88 2d be ff af 25 3e f5 74 c2 bd
       0.18072203 -0.16946423 0.16180418 -0.09494964
000110 e5 ea 9f bd 9d 78 30 be ea f7 98 bc 5d 1a 86 bd
       -0.078084745 -0.1723351 -0.018672902 -0.06547997
000120 a1 1c d2 3d f7 8d 8b 3d 7c d1 30 3d b3 ed b7 3c
       0.10259367 0.06814187 0.04316853 0.022452211
000130 33 43 d0 bd 4f 84 88 3d 23 be 54 be 6e e0 bc 3d
       -0.10169067 0.06665861 -0.20775656 0.09222494
000140 a0 08 4c 3e 43 65 23 3d 80 31 dd bd 9c e6 1f 3e
       0.19925165 0.039891493 -0.10800457 0.15615314
000150 5c b2 e3 3d e3 00 7a bd 43 cd b8 3c 4d 1c 3f be
       0.11118004 -0.061036002 0.022558814 -0.1866314
000160 e9 83 77 3d 05 35 03 3e 17 8e 4a 3e 47 23 27 be
       0.060428534 0.12813194 0.19780765 -0.16322051
000170 8a da 36 bd 4b 6f d1 bc 19 af ed 3d 65 e7 ea bd
       -0.04464201 -0.025565764 0.11605663 -0.11469916

gru2.weight_ih_l0 f4 [96, 32]
000000 4a 8b 41 3d 8d 13 99 bd d7 7f e0 3d 5b fb 49 bd
       0.047251977 -0.07474432 0.109618835 -0.049311977
000010 78 99 b9 bd aa a0 be bd 78 18 a4 bc 72 18 ef bb
       -0.09062475 -0.09307988 -0.020031199 -0.0072966153
000020 27 14 1d bd d8 27 18 be 41 cc 2b 3d 2c 6f 00 3d
       -0.038349297 -0.14858949 0.04194284 0.03135602
000030 f4 d0 bb bb 31 c0 12 be fb 47 8c bd 2d 1a 18 bc
       -0.0057316963 -0.14331128 -0.06849667 -0.009283585
000040 07 82 2a 3e c4 ab a6 bd 3d 24 81 bc 89 48 4a be
       0.16651164 -0.081382304 -0.01576435 -0.19754232
000050 d2 67 3d 3d cc 7e e2 bb ec 9b 10 bd 9d 07 0d bd
       0.04624159 -0.006912088 -0.03530495 -0.03443109
000060 21 22 df bc 3a 8c af bd 2e dc 2c 3e 11 d7 a8 bb
       -0.027237954 -0.08571668 0.16880867 -0.005152591
000070 f6 da 00 bd b5 88 d4 bd f7 bf f8 3d 36 74 70 bd
       -0.031458817 -0.10377637 0.121459894 -0.058704577
000080 cd cf a9 3b 82 ac f6 ba 51 11 42 3c 78 b3 32 bc
       0.0051822425 -0.0018819722 0.011844949 -0.0109070465
000090 ea 76 65 bc 0d 1f b5 bb 09 e7 7a 3c c8 ca 58 bb
       -0.014005402 -0.005527383 0.015313872 -0.0033079851
0000a0 a4 f6 8d ba 24 58 40 ba 88 6a 07 3b 20 6f 4a 3b
       -0.0010830951 -0.0007337353 0.0020662863 0.003088899
0000b0 a2 f8 83 bb bc cc 29 bb 04 c5 5c bd bd 0d 16 3a
       -0.004027442 -0.0025909385 -0.053898826 0.0005724093
0000c0 f4 9a 4f bc 13 42 01 bb 31 75 6d b9 ad d1 8c ba
       -0.012671221 -0.0019723221 -0.00022645738 -0.0010743641
0000d0 d7 0a 2f bc eb ce a1 bb a0 4c 22 bb a8 81 32 3a
       -0.010683737 -0.0049379966 -0.002476491 0.00068094814
0000e0 b8 03 a2 bb dd 16 a3 bb 1b e5 eb 38 2a a7 0b 39
       -0.004944291 -0.0049770907 0.000112483474 0.00013318346
0000f0 19 ad aa bc 16 74 f3 bb 3a 91 5c bc 95 74 75 bb
       -0.020834493 -0.00742961 -0.013462359 -0.0037453522
000100 e8 3c aa 3c 4e 3a 92 bc 80 87 14 3c 08 8e 4b bc
       0.020780995 -0.017850067 0.009065509 -0.012424
000110 3d d6 36 bd 00 e3 8a bc b4 b1 ee 3c 5f 22 05 bd
       -0.044637907 -0.016953945 0.02913747 -0.032503482
000120 34 9b d7 bb b0 29 19 bd 98 81 2a 3c 66 98 8b 3d
       -0.006579781 -0.037393272 0.010406874 0.06816177
000130 4a 5d 61 bc 3d b4 13 3b ae d4 1d bd 5e 3d 05 3d
       -0.013755152 0.002253785 -0.038532905 0.032529227
000140 73 06 a0 3d fb 6c d6 bc 8f 8b cc bb e8 63 47 3c
       0.0781373 -0.026175013 -0.0062422226 0.012169816
000150 04 16 af 3b f5 36 f2 3c 60 38 0d bc e6 46 94 3c
       0.0053432006 0.029567221 -0.008619398 0.018100213
000160 7d 70 2e bd 80 bb 95 bc 95 15 dc 3c a7 b7 70 bb
       -0.042587746 -0.018277884 0.02686576 -0.003673056
000170 67 c8 be bb be 80 64 bc 68 a2 50 3d 43 01 81 bc
       -0.0058222297 -0.01394671 0.050936133 -0.015747672
000180 26 20 c9 3c 36 ef 41 bc 02 9e a4 3d b6 a4 77 bd
       0.024551462 -0.0118368175 0.0803795 -0.060459815
000190 dc 69 88 bd b0 37 49 bc e8 40 7f 3d 5e 9f ac bd
       -0.06660816 -0.012281343 0.06231776 -0.084288344
0001a0 43 12 00 3c f8 34 aa bc 13 30 e4 3a 10 70 50 3d
       0.007816854 -0.02077721 0.0017409347 0.05088812
0001b0 13 4a 8a 3c 27 e6 dd 3c 4d d6 61 3d 3b 0b 53 3c
       0.016881024 0.027087284 0.055136014 0.0128810955
0001c0 af c9 21 3d 79 8f 06 bd fb 4c a5 bb 0a ef a2 bd
       0.03949898 -0.03285167 -0.005044577 -0.07955749
0001d0 ad a5 73 3d 75 3b 93 bb cf 2a 42 ba 45 ad eb 3b
       0.059484173 -0.004493172 -0.00074068917 0.007192286
0001e0 15 58 aa ba 68 0e cd 3b 27 12 b6 bc 45 3d 28 ba
       -0.0012996221 0.006257821 -0.022225453 -0.0006417821
0001f0 44 02 c4 bc cb 67 8c bd 5d f2 8f 3d b5 f1 d5 bc
       -0.023926862 -0.068557344 0.07028649 -0.026116231
000200 d7 df eb 3c ff a0 8a bd 59 8f c4 3d 7b 18 57 bd
       0.028793259 -0.06768989 0.09597654 -0.05251358
000210 e7 b7 99 bd eb 82 e4 bc e7 ba a1 3c f2 ba 32 bd
       -0.0750578 -0.027894458 0.019742442 -0.043635316
000220 9c e0 3f bc 36 78 c8 bd 36 71 ab 3c 6a 94 02 3e
       -0.011711266 -0.097885534 0.020928007 0.12751928
000230 1c 6b 0e bd e6 11 31 bc 5c 11 85 bd bd c2 ea 3d
       -0.034770116 -0.01080749 -0.06497452 0.11462925
000240 01 3c 04 3e 56 10 de bc 89 d7 86 bc 4d a7 b2 bd
       0.12913515 -0.027107399 -0.016460197 -0.08723316
000250 02 e3 98 3d 62 f6 74 3c e6 0a 11 bc b2 55 59 3d
       0.07465173 0.01495132 -0.008852696 0.05306024
000260 b9 52 bb bd 4d 6f 0c bd 90 98 5f 3d 6c 65 c8 ba
       -0.091466375 -0.034285832 0.054588854 -0.0015289015
000270 38 13 2a bd e1 40 e5 bd 9b 3c 3e 3d 9a bd 34 bd
       -0.041522235 -0.11194015 0.046444517 -0.04412613
000280 de b6 9b bc e5 57 00 3d 9b 04 90 3c 0d ec 15 bd
       -0.019008096 0.031333823 0.017580321 -0.03660207
000290 a8 19 99 bd 8d e0 ec 3c 2e d9 57 bd a1 4c 9e bd
       -0.07475597 0.028915668 -0.052697353 -0.077294596
0002a0 0b 9c ad bb 1a e4 35 bd 32 f4 b6 3c 5f 42 62 bd
       -0.005298143 -0.044406988 0.022333238 -0.055239078
0002b0 75 80 83 bc e1 74 cd bc c3 17 00 3d 73 09 bc 3d
       -0.016052464 -0.025080146 0.03127266 0.0918149
0002c0 4e 5e c3 3d 8f 93 8e bb 9a b0 13 3c f1 d5 27 bc
       0.095394716 -0.0043510864 0.009014273 -0.010243879
0002d0 4d e9 17 bd 13 79 98 3d f7 43 6d bc 64 c6 2f 3d
       -0.037087727 0.07444968 -0.014481536 0.04291381
0002e0 69 d0 16 3c 2f a1 a5 bb 01 7c 6e 3d 51 96 22 3c
       0.009204962 -0.005054615 0.058223728 0.009923534
0002f0 73 04 cd b9 66 7d d6 bd 24 c3 9f 3c ac 78 d8 bb
       -0.00039103962 -0.104731366 0.01950223 -0.006606182
000300 70 6c f6 3c 92 b8 08 3d e6 5e 67 3d 79 42 56 bd
       0.030081004 0.033379145 0.056486987 -0.052309487
000310 af 8e a7 bd 52 76 74 bc 1d cf a5 3c 33 b2 d8 bd
       -0.081815116 -0.014920788 0.02024036 -0.10580864
000320 44 00 d5 3b d8 91 60 bd bb ab ae 3c b8 91 a9 3c
       0.006500276 -0.054826587 0.021322122 0.020699367
000330 4e 2e 38 3b 17 15 65 bd 10 22 63 3b 28 8d 7b 3c
       0.0028103772 -0.055928316 0.0034657754 0.0153534785
000340 9e f8 6a bd b2 85 96 bd b6 9b 0e bc cc 08 dd 3a
       -0.057366006 -0.07349719 -0.008704117 0.0016863584
000350 78 32 e5 3d 1b e6 31 bd e8 46 13 3c 2b 29 bb bc
       0.11191267 -0.043432336 0.008989073 -0.022846779
000360 6d 15 69 bd 24 36 17 bd 97 68 05 bd b0 1e 36 bb
       -0.0569052 -0.036916867 -0.032570448 -0.0027789287
000370 fb a9 a8 bd 58 7a a6 bc 5a a7 b2 bc 0d 2d 16 bd
       -0.08235546 -0.02032201 -0.021808315 -0.036664058
000380 89 24 5c bd 75 75 d0 bd bf e8 80 3d 2c c8 05 bd
       -0.05374578 -0.10178653 0.06294393 -0.032661602
000390 81 40 4a 39 a9 fc 15 3d 87 d3 a6 3d 27 f8 e7 bd
       0.00019288251 0.03661791 0.081458144 -0.11326628
0003a0 4a 41 52 3b b5 33 31 bd a0 e5 29 3d dc 7b cc bc
       0.0032082372 -0.043262202 0.041478753 -0.024961405
0003b0 3d 9c af bd 76 0b 95 3d 62 e5 32 bd f0 e8 b5 3d
       -0.08574722 0.072775766 -0.043675788 0.0888232
0003c0 75 56 da 3c 55 f7 ba bc fe 9b 16 3d 97 46 66 bd
       0.026652554 -0.022823015 0.03676986 -0.056219663
0003d0 02 cc 3d 3d 23 4e 86 3d 97 fc 69 bd d9 b6 03 bd
       0.046337135 0.06557872 -0.057125654 -0.0321568
0003e0 db 7e 65 bd 2a 36 bd bd e2 26 db 3c 9b a7 78 3d
       -0.056029182 -0.092388466 0.02675194 0.060706716
0003f0 9a dc e8 3c 03 b8 56 3d c6 0d ec 3d 3b 41 42 bd
       0.028425504 0.05242158 0.115260646 -0.04742549

gru2.weight_hh_l0 f4 [96, 32]
000000 45 8e 23 3e 22 d0 fd bd 56 78 e2 bd 6f 7b 0a be
       0.1597224 -0.12393214 -0.110581085 -0.13523649
000010 01 a8 17 3c f6 38 24 be 94 16 f5 bb a9 63 01 3d
       0.009256364 -0.16037354 -0.007479498 0.031589184
000020 ea 94 14 bc 12 55 2a be c2 29 a4 3c e7 a7 07 be
       -0.009068707 -0.16634014 0.020039443 -0.13247643
000030 7f 0a 29 be 03 8f ee bc da 75 eb bd ff 2d d8 3d
       -0.1650791 -0.029120928 -0.11497088 0.10555648
000040 f9 6f 01 bd 5b 77 c5 3c 45 7c 62 bd 66 5e 9b bc
       -0.031600926 0.024104765 -0.055294294 -0.018965911
000050 5d 58 cd 3c 8a 0d 80 bc be e0 c1 3c 6e b3 3d 3c
       0.025066549 -0.015631456 0.023666736 0.011578424
000060 6f 8f 55 be 37 0b 54 bd 8f b5 96 bc 75 2b d5 bd
       -0.20855497 -0.051768508 -0.01839712 -0.104086794
000070 3a 76 dc 3d 4e d7 3b bd f7 34 03 be 45 93 0d be
       0.107647374 -0.045859627 -0.12813173 -0.1382571
000080 14 e1 12 3c 58 08 6f bc 54 6f a5 39 61 40 0d bd
       0.008964796 -0.014589392 0.00031554198 -0.034485225
000090 3b 91 be bc 85 0c a2 3c 66 ef f1 3c d6 f7 00 bc
       -0.02326261 0.01978136 0.0295331 -0.007871589
0000a0 47 95 0e bc 33 23 50 3d d0 46 cc 3b 8e 0e 4b bc
       -0.008702583 0.05081482 0.0062340274 -0.012393607
0000b0 1d 32 51 bc c9 22 ff 3b 56 03 e3 3c b4 13 12 3b
       -0.012768296 0.007786129 0.027711552 0.0022289576
0000c0 66 64 89 3c eb d2 80 3a 90 68 93 3c 86 f2 c1 bc
       0.016771507 0.0009828483 0.017994195 -0.023675214
0000d0 f7 26 d4 ba ed f6 96 3c 34 08 0f bc f6 54 b4 3c
       -0.0016185929 0.01842829 -0.008729983 0.022013169
0000e0 de 0a ee bc 85 3c d0 bb 05 c7 10 bc a6 dd 27 3a
       -0.029057916 -0.0063548707 -0.008836512 0.00064035726
0000f0 d9 73 c1 3c 1f 1d 34 3d 43 86 25 bd b9 27 ec bc
       0.02361481 0.043973085 -0.040411245 -0.028827535
000100 09 53 0c 3e 80 95 99 bd 9c c1 57 bd 4c 29 d0 bc
       0.1370355 -0.07499218 -0.052674875 -0.025410317
000110 20 0a 0b bd 8c aa 92 bd 9d b4 f5 bc 06 e2 b5 bc
       -0.033945203 -0.071614355 -0.02999335 -0.022202503
000120 3a a9 3a 3d d8 82 aa bc ca aa 20 3d 9f 86 09 bc
       0.045571543 -0.020814344 0.039225377 -0.008393913
000130 0c b6 31 bd 23 07 b1 3d 3c 0e 1d bd 5f bb 81 3d
       -0.043386504 0.08643939 -0.038343653 0.06334566
000140 35 5f 9f bc 2d 9a 52 bd 25 74 59 3c 53 6c af bd
       -0.019454578 -0.051416565 0.01327232 -0.08565583
000150 92 0d d0 bc 72 12 f8 3c 2d cb c3 3c 8a 68 10 3d
       -0.025397096 0.030282233 0.023900593 0.035255946
000160 40 82 b8 bc ff 51 04 bd f1 7c 90 bc 78 54 2f bd
       -0.022523046 -0.03230476 -0.017637702 -0.042805165
000170 f3 a6 7d 3c 69 43 47 bd d1 cf 0b bd 54 3f 83 bd
       0.015481698 -0.04864827 -0.034133736 -0.06408563
000180 7d ca c5 3d 60 e4 2e bd 3f 27 07 bc 23 26 3e 3d
       0.09657762 -0.042698264 -0.008249103 0.04642309
000190 d0 02 93 38 dc e3 2c 3d 72 da 71 3d b8 e1 f0 3b
       7.01003e-05 0.04220949 0.059046216 0.0073511265
0001a0 6d d0 8d 3d cd c3 d3 3d 58 88 94 3d 0b 66 09 3d
       0.0692452 0.103400804 0.07252568 0.03354458
0001b0 90 93 c4 bd 79 27 ee 36 b8 2a 73 bc 21 ac 95 3d
       -0.09598458 7.097548e-06 -0.014841728 0.073082216
0001c0 00 52 2e bd fe e8 85 3c 30 45 7f bd 87 b4 d7 bd
       -0.04255867 0.01634645 -0.06232184 -0.1053248
0001d0 c7 d0 98 bd e8 88 9c 3c 7d b4 b5 3b f1 ac c3 3a
       -0.07461696 0.01910825 0.0055451975 0.001492886
0001e0 4c 2d 98 bc 54 d7 1b 3c ce 64 ea 3c a0 21 ce bc
       -0.018576287 0.009511787 0.02861252 -0.025162518
0001f0 35 6d e0 3d 7e eb e4 3c 73 58 a5 3c 7e 7a 2d 3d
       0.109583296 0.027944323 0.020183777 0.042353146
000200 fe 30 87 bd 31 56 b0 bd 40 f9 a7 bd bb 5f c2 bd
       -0.066011414 -0.0861019 -0.082018375 -0.094909154
000210 01 1b 8c 3b 04 db 0c bd 72 f6 2c be 80 38 49 bd
       0.00427568 -0.034388557 -0.16890886 -0.04912615
000220 27 03 ff 39 ab f0 ff bd 66 65 82 3d 1e a5 d7 bc
       0.0004863974 -0.12497076 0.063669965 -0.026323851
000230 2f 54 23 be 7c e0 03 bd 49 62 49 bd da d8 25 3d
       -0.15950082 -0.032196507 -0.049165998 0.04049001
000240 50 9f 2c bd 0d 67 79 bd 52 e9 fd bd 26 0a 8f bd
       -0.04214412 -0.060889293 -0.12398018 -0.069843575
000250 ff f1 ec bd 62 2d c0 3c 9e 33 00 3e e6 96 69 3d
       -0.115695946 0.02345914 0.1251969 0.057028674
000260 91 a6 67 bd 4e 15 55 bd f8 4d 07 be 39 de 7f bd
       -0.056555334 -0.05202227 -0.13213336 -0.062467787
000270 7e 4f 87 3d ce 1e 01 bc ae 48 c0 bd 25 9c 25 be
       0.06606959 -0.00788088 -0.093888626 -0.16172846
000280 3a 55 a0 3c 7d 53 71 bd c3 e3 8f 3c 50 b7 b4 bd
       0.01957189 -0.05891751 0.01756466 -0.088240266
000290 13 1f 0b bd 95 6f 5b 3d 3c 60 ff bd 8e e8 0f bc
       -0.03396518 0.05357321 -0.12469527 -0.008783473
0002a0 f2 7f cb 3c 5d 7d 8b bd 46 ca 4b 3d 16 2b 01 3e
       0.024841283 -0.068110205 0.04975345 0.12614092
0002b0 08 83 6a 3d b0 04 42 bb 97 6e f8 3c 1c 3f 44 3d
       0.057253867 -0.0029604845 0.03032617 0.04791175
0002c0 4c 17 b5 3b 7e f7 99 bd 0e 03 d6 bd af 0b ad bd
       0.005526459 -0.075179085 -0.104498014 -0.08449494
0002d0 c3 d6 8e bd 38 ec 0a 3d ca 2f 90 3d bd 4b be bc
       -0.06974556 0.033916682 0.07040365 -0.023229474
0002e0 c7 dd 8a bd 2b 05 1a bd 06 14 36 3d 34 59 35 bd
       -0.06780582 -0.037602585 0.04445269 -0.044274524
0002f0 17 db cb 3c 9d b0 03 be bd 15 75 bd 77 1d 0f be
       0.024884744 -0.12860341 -0.059835184 -0.13976084
000300 da b8 97 3d 73 f0 b9 3d 01 bd 4e bc 6c 42 48 3d
       0.074083045 0.09079065 -0.012618304 0.04889147
000310 25 fd cf 3c 1a 08 fb 3c 9a 01 9a 3d 0d 15 94 ba
       0.025389263 0.030643512 0.07519837 -0.0011297778
000320 e5 55 b8 3d d0 d7 23 bc 12 95 e0 bb 54 23 b6 3d
       0.09000758 -0.010000184 -0.006853708 0.08893457
000330 58 c4 97 3c 94 67 a7 3d 0f be 2b 3d 71 94 9a 3d
       0.018526241 0.08174053 0.0419293 0.07547844
000340 a5 03 8d bd f4 41 aa 3c 53 fa 80 bd 62 f2 ee 3b
       -0.06885461 0.020783402 -0.062977456 0.007292078
000350 be 07 6c 3d d1 f9 bd 3b ff ae 9a bd 8f ee 0e 3d
       0.05762457 0.0057976027 -0.07552909 0.034895476
000360 24 c4 e4 bd e2 b2 20 bd 3d b5 01 3b 88 ae b9 bd
       -0.11170223 -0.039233096 0.0019791864 -0.09066492
000370 0e 62 4b 3c a6 cf 5e 3d 16 ad 9c bc 17 ca d1 bd
       0.012413515 0.054397248 -0.019125503 -0.10243624
000380 66 7c 67 3e 67 29 be 3d e1 f7 98 bd 3f e4 22 bc
       0.22606048 0.092852406 -0.07469154 -0.009942113
000390 89 3a 36 bb 5e 5d af bb 69 6b 54 3d df 9a f3 bc
       -0.0027805886 -0.0053517064 0.051860247 -0.029736934
0003a0 b1 ce be 3d ac 58 44 3e 45 b7 ab 3d 78 7b 3c bd
       0.09316767 0.1917445 0.08384565 -0.046016186
0003b0 0b 4c d2 3d f8 ad c2 bd b9 49 89 bd be 5e 35 bd
       0.1026841 -0.09505838 -0.067035146 -0.044279806
0003c0 94 3e 99 3d 4f 7a 51 bd 13 cc b8 bd 48 b8 65 3d
       0.07482639 -0.051142033 -0.09023299 0.056083947
0003d0 bf 1c 96 3d 6b 39 0a 3e 4f c5 84 ba b6 cd b6 3d
       0.07329702 0.13498466 -0.0010129603 0.08925955
0003e0 08 32 bd 3d 31 67 dd bd b6 2c 9d bd 46 dc 9a bd
       0.09238058 -0.10810698 -0.076745436 -0.07561545
0003f0 8a aa 72 bc d0 57 d3 3d 8c 7b 09 be cb b2 71 bd
       -0.0148111675 0.10319483 -0.13426036 -0.0590084

gru2.bias_ih_l0 f4 [96]
000000 46 8d 41 3e 6e fc ea 3d c5 ee 9f bd 6f 7d 19 3e
       0.18901548 0.114739284 -0.078092135 0.14989255
000010 51 ad 6d bd f7 01 07 3e 99 f3 00 bd ea 62 b0 bd
       -0.058026616 0.13184343 -0.031482313 -0.08612616
000020 27 38 b9 3d 18 50 3e 3e ac a0 5e bd 7c c2 65 3e
       0.09043913 0.18585241 -0.054352447 0.22437471
000030 c1 1f 4b bd 6f b7 a9 3d 6f 2f a1 3d be 10 0d be
       -0.04959083 0.0828694 0.07870375 -0.13775918
000040 f3 9a d0 3d 86 4c 09 3e be ae 9e bc 84 1e ff 3d
       0.10185804 0.13408098 -0.019370433 0.12456992
000050 ad 3d 35 3e dd 72 33 3e 61 ef e8 3d 84 3a 3e bd
       0.17699309 0.17524286 0.11373783 -0.046442524
000060 cd 26 07 3d 47 66 98 bd 5a 95 56 bc 0b 98 aa 3d
       0.032995988 -0.07441383 -0.013097132 0.08329781
000070 97 e0 98 3d 1f 8e dc 3d 63 08 4f 3d 57 e0 4a 3e
       0.07464712 0.10769295 0.050545108 0.19812141
000080 b8 bc 21 3d 4d 87 44 3d 39 34 66 3d 9b 4a 26 3d
       0.039486617 0.047980595 0.056202147 0.040598493
000090 54 76 d2 bd 21 95 95 bd 73 ef 4a 3d d2 54 47 bd
       -0.102764755 -0.07303835 0.049544763 -0.048664875
0000a0 a0 41 54 bc 21 6a fa 3d 2c 96 1d be 3d ab 28 bd
       -0.012955099 0.12227274 -0.15389317 -0.04117893
0000b0 73 52 ae 3c 24 7d a2 3c fa 0f 63 3d 9b d7 41 3c
       0.02127955 0.019835062 0.05543516 0.0118311895
0000c0 a2 2f 78 bd 97 45 9e 3d ab d8 f0 3b 41 f3 df ba
       -0.0605923 0.07728117 0.0073500476 -0.0017086045
0000d0 50 1e dc 3c 46 56 c8 bd 6c 89 23 bd fa 7d c8 bd
       0.026869923 -0.0978208 -0.039925978 -0.09789653
0000e0 b3 dc 91 3c 25 47 7a bd c0 3f 6d bd 2d 64 ae bc
       0.017805433 -0.061103005 -0.057922125 -0.021288002
0000f0 82 e1 87 3b 66 e0 71 3c 8f ce 46 bd d6 f0 f3 3c
       0.0041467557 0.014762973 -0.048536833 0.029777925
000100 03 e6 38 3e 0e c1 c0 bd d3 93 33 3d 6a 9f 8e bd
       0.18056493 -0.09411822 0.043842148 -0.069639996
000110 77 6c 30 bc e2 75 f2 bd cc 98 c8 bd 95 75 b8 3d
       -0.0107680475 -0.118388906 -0.09794769 0.09006802
000120 9b 11 97 3d dc 32 13 be e7 ed a2 3c 99 ad 31 be
       0.07376405 -0.1437487 0.019888831 -0.17351379
000130 cf a7 f9 bd 89 74 18 be 72 0f 44 bd af f0 c0 3d
       -0.1219021 -0.14888205 -0.047866292 0.09420907
000140 12 6f 20 be 17 ca 1e bc 20 17 0a be e6 cb 3c be
       -0.1566737 -0.009691737 -0.13485384 -0.18437156
000150 0d 6c 8b bd 31 11 4e bc f2 b8 25 bd 81 93 0c 3e
       -0.068077184 -0.012577341 -0.04045958 0.13728143
000160 6c 2d 16 be 74 81 23 3c 26 f5 80 3d 9f 62 0a be
       -0.14665765 0.0099795945 0.06296758 -0.13514183
000170 53 48 0c 3e 60 aa 21 be a9 6d ae 3d 07 05 0a be
       0.13699464 -0.15787649 0.0851701 -0.1347848

gru2.bias_hh_l0 f4 [96]
000000 59 b9 58 3e d3 eb ad 3d b6 c5 31 3d dc 9d 42 bc
       0.21164455 0.084922455 0.043401442 -0.011878457
000010 17 68 5d 3c c3 78 31 bd cc c0 0e 3e f8 64 8e bd
       0.0135135865 -0.043328058 0.13940734 -0.06952852
000020 95 6d 8e 3d 18 32 f1 3d e4 84 29 3e 9b 33 4d 3e
       0.06954495 0.11777133 0.165546 0.20039217
000030 fb da d7 bb b7 dc ac bd d6 38 ac 3d 58 36 17 3c
       -0.006587384 -0.084405355 0.08409278 0.009229265
000040 b8 88 ee 3c 34 7a b6 bc 10 92 02 bd 4e b8 68 3b
       0.029117927 -0.022275068 -0.031877577 0.0035510245
000050 84 be 2c 3d d5 ee 7c bd f3 e0 b0 3d b6 a6 45 3d
       0.042173877 -0.061751205 0.08636656 0.04825469
000060 3f 3a b7 3b 23 76 14 3d 8d 99 4a bd 11 8b 88 bd
       0.0055916603 0.036245476 -0.049462844 -0.0666715
000070 93 c7 bd bc 73 b1 29 3d 18 ee 4a 3d 54 44 93 3d
       -0.023166453 0.041428994 0.04954347 0.07190767
000080 36 ac 80 bd a3 c7 19 3d 66 04 65 3d 84 61 ea 3b
       -0.06282847 0.037543904 0.055912398 0.007152738
000090 f9 56 f3 bd 5e d8 c8 bd b2 b1 2a 3d 54 11 81 bd
       -0.11881823 -0.09806894 0.04167337 -0.06302133
0000a0 f0 4f 2f 3c 74 05 23 3e 73 a4 27 be 98 21 b3 bc
       0.010700211 0.15920049 -0.16371326 -0.021866605
0000b0 78 33 d2 3d 80 6e 4f bd 8c 17 0e 3c 18 12 75 bd
       0.10263723 -0.05064249 0.008672606 -0.05983171
0000c0 24 00 71 bd 81 c2 6f 3d 38 55 ef 3b a9 94 bd bb
       -0.058838025 0.058535103 0.00730386 -0.005785544
0000d0 d2 d3 0e bc 71 9b 9d bd 32 90 d1 bc a3 ec 90 bd
       -0.008717494 -0.07695664 -0.025581453 -0.07076385
0000e0 2a 1e a3 bd 85 be ce 3d 69 fe 3f bd f3 01 26 bc
       -0.07964738 0.100949325 -0.046873484 -0.010132301
0000f0 18 c3 04 bc c4 5b 03 3d 2b da 42 bd d8 79 cc bc
       -0.008103155 0.032069936 -0.047571342 -0.024960443
000100 52 ff 07 bd d0 fe eb bd da 9c 19 be ae bd 02 be
       -0.033202477 -0.11523211 -0.1500124 -0.1276767
000110 20 82 e8 3d 16 ee 12 3e 1e 32 1b bd 24 e3 b6 bd
       0.113529444 0.14348635 -0.037889592 -0.089300424
000120 76 5b 14 bd c1 75 a7 3d 87 cb 4e 3e ea 69 d7 bd
       -0.036220036 0.08176757 0.20194827 -0.105182484
000130 e4 78 0e be 14 11 1e be e8 ef c7 bd 9f 0c a7 bb
       -0.13913304 -0.15436202 -0.09762555 -0.00509794
000140 aa 71 fb 3d af 12 01 3e 72 43 dc 3c 88 53 03 3e
       0.12277539 0.12604783 0.02688763 0.12824833
000150 e8 33 fb bd b5 8b 2e be 44 78 72 bc 5d 35 a3 bc
       -0.1226576 -0.17045482 -0.014799181 -0.019922907
000160 dc 0d 03 3e 5f cf b2 3d 61 cf 8f 3d 08 0d ec 3d
       0.12798256 0.08730959 0.07021976 0.11525923
000170 49 c5 67 3b ef b5 2d 3d 6b 2f b6 bd df ab 60 bd
       0.0035365394 0.042409834 -0.08895763 -0.05485141

fc.weight f4 [1, 32]
000000 6c 3f fe 3d 9a f1 f8 bc 2e 7f 11 3c 22 0c de 3c
       0.124144405 -0.030388642 0.00888042 0.027105395
000010 0b 9d 48 be d4 03 0c be ce 78 24 be 4a ad 93 bd
       -0.19591157 -0.13673335 -0.16061708 -0.07210787
000020 d2 e7 b4 3d 4e 8b f3 3b 22 90 1b be 3f 82 a5 3c
       0.08833279 0.007432378 -0.15191701 0.020203708
000030 1d 3a e4 3d 5b c1 2e 3e a9 a0 44 be 56 29 33 3e
       0.11143897 0.17065947 -0.19201912 0.17496237
000040 62 47 70 3d e4 90 f4 bc 27 80 f4 bc 54 e8 0d be
       0.058661826 -0.029854245 -0.029846264 -0.13858157
000050 c9 b9 47 bd 27 63 6a 3e 9b 1f 7d 3d fe e1 38 3e
       -0.048761163 0.22889386 0.06179772 0.18054959
000060 cb 85 b7 bd ca 5b 4e be fd a7 c2 bd 6d 44 10 be
       -0.08961066 -0.20152202 -0.095046975 -0.14088602
000070 6b 16 13 3e e7 d9 b0 bd 31 b7 42 bd 88 73 cd bc
       0.1436402 -0.086353116 -0.047537986 -0.025079504
