models/LSTM32x32_b512_l20_PROPER.pth (torch, 55391 bytes, 9 tensors)

lstm1.weight_ih_l0 f4 [128, 1]
000000 b7 17 70 3d 9c 7f 66 3e 5a aa 14 3e b5 e8 1b bc
       0.058616366 0.22509617 0.14518109 -0.009515931
000010 6f 28 b2 bd 2c bc d6 bb c9 e7 4a 3e 4f 2b 98 3d
       -0.08699118 -0.0065531936 0.19814982 0.074301355
000020 1c 32 33 3e dd 0a eb 3d 65 28 c1 3d cf 6c 7a 3d
       0.17499584 0.114766814 0.09431533 0.061138924
000030 e9 4c 09 3e e7 61 f3 3d ff 62 38 3e 91 bc 53 3d
       0.13408245 0.11883908 0.18006514 0.051693503
000040 3b 81 ce bd ed 22 82 3d 08 8a c2 3d 04 88 0c bd
       -0.100832425 0.06354318 0.094989836 -0.034309402
000050 0d 15 73 bd d5 a4 fd 3c c0 ba f9 3d 06 e5 48 3e
       -0.059346247 0.030962387 0.12193823 0.19618616
000060 2d fa 93 3c 87 8f 07 3e c3 1e de bd c7 10 36 3e
       0.018063629 0.13238345 -0.10845711 0.17779838
000070 ac d9 12 3e d1 c4 fc 3c a0 af 13 3e e7 45 bd 3d
       0.14340848 0.030855568 0.14422464 0.092418484
000080 b0 6e 64 3e 82 bf fc bc d9 9b 5e 3e b4 bf 9b 3b
       0.22307849 -0.030853037 0.21739139 0.0047530774
000090 f9 37 74 3d 5d 9e 5f bc 45 0b 90 bc a0 df a5 bd
       0.059623692 -0.013648597 -0.017583499 -0.08099294
0000a0 a4 26 6c bd 05 ce 8e 3e ae 00 e2 bd 28 8b cd 3d
       -0.057654038 0.27891555 -0.11035286 0.100363076
0000b0 54 5c 0f bd bf 53 59 3e d5 f1 51 3e 2b ad 5a 3e
       -0.03500016 0.21223353 0.20502408 0.21355121
0000c0 14 8e e2 3c ee 1e cc 3c d5 5b 45 3d ae b3 08 3d
       0.027655639 0.024917092 0.04818328 0.03337448
0000d0 ea 90 0e 3e 5e 51 87 3e fd 17 d5 bd 65 a1 03 3e
       0.13922468 0.26429266 -0.10404966 0.12854536
0000e0 ca db 59 bd 88 a6 0a 3c c3 8a 87 bc bb b6 b0 3e
       -0.053188123 0.008462556 -0.016545659 0.34514412
0000f0 36 30 bd bd 2b f8 2d 3e 57 1f 42 3e 49 f1 05 bd
       -0.09237711 0.169892 0.18957268 -0.03270081
000100 e2 7a 2a 3e 2a 47 88 bd 77 60 7b 3d b7 c3 44 be
       0.16648439 -0.066541985 0.061371293 -0.19215284
000110 24 70 83 3e d3 2f 34 3e 15 e8 23 3e c2 66 b7 3d
       0.25671494 0.17596368 0.16006501 0.08955146
000120 36 9e 2f 3c 89 71 94 3d 1b b3 2b 3e 87 1c 3c 3e
       0.010718873 0.072482176 0.16767542 0.18370257
000130 36 2a 44 bd 43 56 3a be a9 ea 75 3c cb 60 31 3e
       -0.047891818 -0.18196969 0.015009561 0.1732208
000140 ad b2 cc 3d 98 e4 fe 3b cb e5 62 3e 81 28 e5 bd
       0.09995017 0.0077787153 0.22157972 -0.11189366
000150 ee dd bb 3d 33 57 19 3e fb f8 24 be e9 72 f8 3d
       0.09173189 0.1497467 -0.16110604 0.121312924
000160 03 56 79 be b1 88 8e bd 49 c4 ac bd 9a 76 8d 3e
       -0.24349217 -0.069596656 -0.08435876 0.27629548
000170 d1 3d da bd 2f 77 6c be cf 3a 79 3e 98 d4 fb bd
       -0.10656322 -0.2309234 0.2433884 -0.122964084
000180 97 cc 90 3e a4 32 45 3c 9d b7 10 3e 5c 77 58 3d
       0.2828109 0.012035999 0.14132543 0.052848205
000190 08 48 8e bd 66 61 11 3e 4f 3b 4c 3e 6d 98 d9 3d
       -0.069473326 0.14197311 0.199445 0.10624776
0001a0 c8 ef f1 3d 54 85 71 3d d4 b5 55 3e c5 b8 7c bd
       0.11813313 0.058965042 0.20870143 -0.061699647
0001b0 1e 7e 06 3e d7 85 45 3e de c8 91 bd f2 f0 2a 3d
       0.13134047 0.19289337 -0.071183905 0.04173369
0001c0 05 c9 bf b9 5c d0 03 3e 50 9e 04 3e 89 00 1a 3e
       -0.0003658013 0.12872452 0.12951016 0.15039267
0001d0 ce bc 14 bd 4c ab 1a bd 42 19 ef bd de 77 81 3e
       -0.03631287 -0.037761018 -0.116747394 0.25286764
0001e0 e9 88 f0 3d 55 68 59 3e e7 11 2a 3e ab e5 ca 3e
       0.117448635 0.21231206 0.16608392 0.39628348
0001f0 d2 37 de 3d 56 93 6a 3e 9b ef a5 bd 6f 9f f4 3d
       0.10850491 0.22907767 -0.08102342 0.11944472

lstm1.weight_hh_l0 f4 [128, 32]
000000 f6 b9 20 3e 54 5d 34 3e 8f e4 97 3c f3 c3 0f 3d
       0.15695938 0.17613727 0.018541602 0.03509898
000010 12 fc 74 3d b3 53 7d bd d3 09 c6 bc cd d2 cd bb
       0.059810705 -0.0618474 -0.024174606 -0.006281233
000020 3d d0 8a bc d0 9d 80 bb 9e 70 b5 bd 8c 69 3d 3d
       -0.016944999 -0.0039250627 -0.08859371 0.046243235
000030 7b 77 ac 3b f8 53 e8 bc bc 51 db 3d 69 34 cf 3d
       0.0052632666 -0.028360352 0.10708949 0.10117418
000040 dc 68 2e 3d a3 f5 4d 3c 07 8d 42 3c 01 d5 0e 3e
       0.04258047 0.012570771 0.011874444 0.13948442
000050 3d 5d 8e 3d b6 58 04 be 5f ed 15 bd 04 68 e1 3c
       0.069513775 -0.12924466 -0.036603328 0.027515419
000060 5c c0 a6 bd 59 1f c9 bb 69 9d 1d be 62 03 c8 3d
       -0.081421584 -0.00613777 -0.15392078 0.0976627
000070 a3 4b 7c 3d da fe 6e 3c b5 79 c7 3d 45 7b ad 3d
       0.06159557 0.014587129 0.09740011 0.084707774
000080 07 65 02 3e 46 99 ff 3d c9 8c dd bd ce 7c 9b bd
       0.12733851 0.124804065 -0.10817868 -0.07592164
000090 11 8e 18 3e f5 d6 12 3d dd 6b 9f 3d 9c a3 92 bd
       0.14897944 0.03584953 0.07784245 -0.07160112
0000a0 3c 75 ac bd 74 f1 19 be 29 0c 43 bd 2e 86 83 bd
       -0.08420798 -0.15033513 -0.04761902 -0.06422077
0000b0 6c 98 f0 3c 78 76 3d be da be 88 3d e1 62 8c bd
       0.029369555 -0.18502223 0.06677027 -0.06854797
0000c0 9c a9 7e 3c 2f 50 84 bd bc 28 bc 3b 67 ec 07 3e
       0.015543368 -0.06460606 0.0057421606 0.13273774
0000d0 c8 d5 bb 3c 64 c1 4a 3d a5 07 5f bc 1e 0a 2c 3e
       0.022929087 0.049500838 -0.013612662 0.16800734
0000e0 90 68 89 bd ed 06 7a 3d e2 26 f9 bd 77 61 76 3d
       -0.06709397 0.06104176 -0.121656194 0.060151543
0000f0 7f 2e a4 bd 31 7c 02 3d 47 a5 24 3d 81 1f 42 3d
       -0.08016681 0.03185672 0.040196683 0.047393326
000100 c3 55 c9 3d 92 ff a7 bd fa 92 97 3d ec a5 08 bd
       0.09830811 -0.08203043 0.074010804 -0.03336136
000110 a1 30 8b 3d 12 b7 a8 3d de b2 2a 3d 74 e8 0a 3e
       0.067963846 0.08238043 0.041674487 0.13565236
000120 03 09 f9 bd 4a 9c 0b be 8e c0 c8 3c ff 58 33 3d
       -0.12159922 -0.13633838 0.02450588 0.043786045
000130 c3 5d 12 3e 0d 9d da bd 81 23 82 3d ca 06 04 3e
       0.1429358 -0.10674486 0.06354428 0.12893215
000140 48 34 e4 bc b7 eb c2 3d ce 9c 59 bd 64 6d a3 3d
       -0.02785696 0.09517615 -0.053128056 0.07979849
000150 f8 8d 05 bd e0 6d 43 bd 35 a2 0c 3b 14 b4 77 bd
       -0.032606095 -0.047712207 0.0021458988 -0.06047447
000160 0f e2 49 bc 3e 9e 05 3e 40 43 19 3c 6a fe 0c 3e
       -0.012321963 0.13048646 0.009354413 0.13768926
000170 fe 57 53 3d 33 f7 1d 3c bf ad 40 bc 37 71 22 3e
       0.051597588 0.009641456 -0.011760174 0.158635
000180 45 7e 8d 3d 2c 24 00 3d 1b 2a 30 bc af 94 30 bd
       0.069088496 0.031284496 -0.010752226 -0.043110546
000190 b0 ea 21 3c b3 aa 84 3d c3 e4 3e 3d c8 38 99 bd
       0.009882614 0.06477871 0.046604883 -0.07481533
0001a0 25 ba c2 3b a2 a8 83 3c ad 8f 29 bb a6 35 b3 3d
       0.0059426003 0.016071621 -0.002587299 0.08750467
0001b0 d9 f4 35 3d 81 06 ed 3c f7 58 1f 3c 83 18 60 3c
       0.044422958 0.028933765 0.009725801 0.013677719
0001c0 d5 31 39 3c 3f e1 ca 3c aa 3e 53 3d c2 29 b3 3c
       0.011303385 0.024765609 0.051573433 0.021870498
0001d0 95 54 ef bd 31 d9 88 3c 5f 27 03 3e 1f 36 37 3c
       -0.116860546 0.016705127 0.12807988 0.011182337
0001e0 23 2c d3 bc b7 ac 6a 3c 02 9f d7 bb 4e fb 81 bc
       -0.025777882 0.014323405 -0.0065802345 -0.015866902
0001f0 23 0f 86 3c 2f 67 46 bd d0 fb 7b 3d ab 9e e2 3c
       0.01636464 -0.048438247 0.061519444 0.02766355
000200 15 65 96 bd a1 2c 21 bb a1 08 88 bc 01 3f 14 3d
       -0.073434986 -0.0024593251 -0.016605677 0.036192898
000210 1e f5 66 bd 09 7a 1a 3d d3 ef a1 bd f6 63 82 3d
       -0.056386106 0.037714038 -0.07907071 0.06366722
000220 28 69 a2 bd 8a 27 22 3c a8 9e ec 3d 81 6a 8c bd
       -0.07930213 0.009897122 0.11553699 -0.068562515
000230 e7 d5 2a 3e 71 4b 20 be cb a6 8b bc 3c 2f 66 bd
       0.1668316 -0.15653779 -0.017047307 -0.05619739
000240 da cc 9e bd 9a 70 c4 bd fa 27 69 3d 01 a9 fe bb
       -0.07753916 -0.095917895 0.05692289 -0.0077716117
000250 3a b0 a9 bc 77 1f b2 3d 72 e6 be 3d a4 df 0c 3e
       -0.020713914 0.08697408 0.09321298 0.13757187
000260 e9 49 9a bd a8 60 b0 3d 3a f6 87 3d 9f 04 5f 3e
       -0.075336285 0.08612186 0.06638761 0.21779107
000270 4b 94 8f 3c 8d 96 5d 3d 98 61 ab 3d cf 81 d0 3d
       0.017526766 0.054098655 0.08368224 0.10181009
000280 36 c1 88 bd ae 4b ec bc 69 cf 15 3e 28 b4 96 3d
       -0.06677477 -0.02884468 0.14629902 0.07358581
000290 d0 bb e9 bd 77 0b 56 3d 1c 2f 71 bd 65 03 73 bd
       -0.114127755 0.052257027 -0.058882818 -0.05932941
0002a0 ea e9 68 bd 79 6a 41 3e 7d b6 0c bd ce 27 c1 bc
       -0.056863703 0.18888272 -0.034353722 -0.02357855
0002b0 15 96 01 be 96 2d 6d 3d 70 ac 43 3d 75 b0 ac 3d
       -0.12654908 0.057904802 0.04777187 0.08432094
0002c0 a5 d9 04 3d c3 44 e4 3d 01 9e 76 bd 64 76 55 bd
       0.032434124 0.11145928 -0.060209278 -0.05211486
0002d0 77 d5 e6 bd 74 8c 5a bd 50 1c 0b be b6 20 ca bd
       -0.11271184 -0.053356603 -0.13585019 -0.0986952
0002e0 d6 3c 58 3d 58 77 c5 3c 8c e5 d4 bd 51 e2 d0 3b
       0.052792393 0.02410476 -0.10395345 0.0063746353
0002f0 db d6 ba 3d 39 0b 49 3d da d4 6f bd b6 55 60 bc
       0.09123012 0.04908297 -0.0585526 -0.01369231
000300 b5 b6 00 3d c3 e5 ed 3c df ac bf bd 09 04 92 bc
       0.031424243 0.029040223 -0.093591444 -0.01782419
000310 fb 87 a3 bd 3d 2a 0d 3e ec 1c a9 3c 31 07 e8 bd
       -0.079849206 0.13785644 0.020643674 -0.11329497
000320 b3 76 04 bd 4a 68 8b 3d 2a ae b3 3d d0 e5 36 3d
       -0.032339763 0.06807001 0.087734535 0.04465276
000330 d4 c6 c2 bb eb e1 5a 3d af db 78 3d 02 8c 02 be
       -0.0059441123 0.05343811 0.06075638 -0.12748721
000340 4d 41 c9 3d 67 4a 0d bd ab ce b7 bc 86 5d 13 3d
       0.09826908 -0.034494784 -0.022437414 0.035977863
000350 cc f8 49 bd d0 c5 da 3d 78 e1 bf 3d ef 80 be bd
       -0.049309537 0.10682261 0.093691766 -0.09301936
000360 2e 45 84 bd 5e 2f 89 3d 82 9a c3 3d 50 bd fa 3d
       -0.064585075 0.06698488 0.095509544 0.1224314
000370 69 b3 2c 3d 7b d8 14 bd 1e 2c bc 3d 1b e6 93 3d
       0.042163286 -0.036339264 0.09188102 0.072216235
000380 1b a8 04 3e c1 f7 47 bd 48 44 16 3e 6e a6 33 bc
       0.12954752 -0.04882026 0.14674485 -0.010964973
000390 c9 73 c0 3c d0 ca 3b bd b3 52 a7 3c 24 e7 a0 3b
       0.02349271 -0.045847714 0.020425176 0.0049103666
0003a0 46 ca 23 3e 0d 70 ba bd d4 f6 f0 bc 1a be 56 3d
       0.1599513 -0.09103403 -0.029414572 0.05242739
0003b0 54 88 ba 3d 86 8e a3 3c df c0 f3 3d d7 4e 2f 3d
       0.09108034 0.019965421 0.119020216 0.042799797
0003c0 bb 6b c2 3c 7b 47 5d 3d d7 81 8c 3d 7a fc 9d 3d
       0.02373301 0.054023247 0.068607025 0.07714172
0003d0 30 c8 fe bd a6 f2 65 3c 3c df ff 3d 2b 26 8b bd
       -0.124405265 0.014034903 0.124937505 -0.06794389
0003e0 1c e0 c3 bd e7 8e 9f 3c cf cf 57 bd fb 78 2e bd
       -0.0956423 0.01947732 -0.052688416 -0.042595845
0003f0 ae 1b 2d 3c 5f 0f a9 bd b4 e9 84 3d c7 08 b4 bd
       0.010565681 -0.08254885 0.06489888 -0.08790737

lstm1.bias_ih_l0 f4 [128]
000000 7b 7d 06 3d 8d 86 08 be 31 d8 77 bd c3 7d a3 3d
       0.03283451 -0.13332577 -0.06050891 0.079829715
000010 12 79 0a 3e f8 de 11 bd 0c 87 15 bc 90 98 e5 3d
       0.13522747 -0.03561303 -0.009126436 0.112107396
000020 9e 2f a2 3c 43 c7 c1 3d 91 a6 20 3b 1a f0 b3 3d
       0.019798096 0.09461834 0.0024513344 0.0878603
000030 b6 df 10 3d 03 00 38 3e 28 6b 09 be cf 4c de 3d
       0.035369597 0.17968754 -0.13419783 0.10854494
000040 81 c3 f8 3d 9e 1e 64 3e 8c 9d 40 3c f1 dc a1 3d
       0.121466644 0.22277305 0.011756312 0.07903469
000050 32 91 df bd ec 51 2f 3e 2a 3f 33 3e ac e6 43 3e
       -0.10916366 0.17121094 0.17504564 0.19130963
000060 19 20 cc 3d 7b ba 36 bb 6a 8f 02 3e cd 6d 8f 3e
       0.0996706 -0.0027882147 0.1275002 0.2801346
000070 2f df 6d bc 80 4f 65 bd 53 ac 87 bd 10 81 43 3e
       -0.014518543 -0.05598402 -0.06624665 0.19092202
000080 5a 58 c4 bd 49 e1 a8 3c f6 e3 03 be c7 9e de 3d
       -0.09587164 0.020615237 -0.12879929 0.10870128
000090 1a ff ee bd 31 97 a7 bd 4d 39 a9 3d c8 05 f5 bc
       -0.116697505 -0.08183134 0.082628824 -0.029909983
0000a0 da 22 2f 3e 5a 01 2d 3e dc 0f 96 bd 42 60 33 3d
       0.17103139 0.16895047 -0.07327244 0.04379297
0000b0 d9 77 99 3d 46 4d 5c bd 39 bc 8a 3d ef d3 30 bd
       0.07493562 -0.05378463 0.06774182 -0.043170866
0000c0 a4 4e bb bc 4a 25 9b 3d 82 ac 43 bc 61 a1 9d bc
       -0.022864647 0.07575472 -0.011942985 -0.01924199
0000d0 f9 b5 0c 3e 90 57 9e 3d 79 56 60 3e f2 b2 74 bd
       0.13741292 0.07731545 0.21907987 -0.059740968
0000e0 f7 5c 4d bd 9d 11 44 3e ee 7d 17 3e f7 d5 8a 3e
       -0.050137486 0.19147344 0.14794132 0.27116367
0000f0 bc c6 8b bc a3 ee 3d 3d 2a 0d 84 3d 5e fb d5 3c
       -0.017062537 0.04637016 0.06447823 0.026120838
000100 13 14 58 ba 4d 91 99 3d 4f 54 23 3e 1e 41 1d be
       -0.00082427374 0.07498417 0.1595013 -0.15356871
000110 c8 ce ea 3d 8c 3a 90 bd 69 50 ea 3d 71 49 fc 3d
       0.11465222 -0.07042417 0.11441118 0.12318695
000120 2c ed 1b 3e 1a f2 13 be e0 3e 36 3e 19 72 5d bc
       0.15227193 -0.14447823 0.17797422 -0.0135159725
000130 45 32 13 3e ab c7 0d be 6a ad 2d 3d b8 7c 1c 3d
       0.14374645 -0.13845699 0.04240171 0.03820488
000140 f9 48 b4 3d f0 a5 71 be 1d b9 b3 bd 44 36 36 3e
       0.08802981 -0.23598456 -0.08775542 0.17794138
000150 ea 40 09 bd fc 3d 34 be 68 b6 df 3c 4e 54 1e 3e
       -0.033509172 -0.1760177 0.027308658 0.15461847
000160 a0 90 81 3d e2 41 b7 3c 2c 57 27 3d ea b8 c7 3d
       0.06326413 0.022370283 0.040854618 0.097520664
000170 e5 e0 fc 3d a9 27 4f bd ae 23 99 bd 6c 9d ce 3d
       0.12347583 -0.050574932 -0.074775085 0.100886196
000180 7e a5 94 3d 36 0a 13 bd 31 b5 c9 3d 3d 2c 70 3d
       0.07258128 -0.03589841 0.09849013 0.05863594
000190 de f4 8e bb 6b 8a 92 3d 00 ec 58 3a 30 c2 ab bc
       -0.0043626865 0.071553074 0.0008274913 -0.02096662
0001a0 ac 5b 3d 3e 7d f6 be 3d a4 89 8a 3d 76 2f bc 3d
       0.18492001 0.09324358 0.06764534 0.0918874
0001b0 a4 30 e9 3d 4f bb 20 3e c5 02 7f bd ce c1 9b 3d
       0.113862306 0.15696453 -0.0622585 0.07605325
0001c0 13 8c 1b 3e 8d 48 4c 3e 37 8a fe 3d 53 e0 35 3e
       0.15190153 0.19949551 0.12428706 0.17761354
0001d0 61 21 10 3d 31 85 16 3e e7 1b 81 3e e4 70 2b 3e
       0.035188083 0.14699246 0.252166 0.16742283
0001e0 4d 4c 04 3d 4a ee 28 bd f5 93 30 3e 3b e5 33 3d
       0.03229933 -0.041242875 0.17243941 0.043919783
0001f0 cc 81 63 bc be 1a 30 bc 84 26 33 bd af 43 15 3d
       -0.013885926 -0.010748563 -0.043737903 0.0364415

lstm1.bias_hh_l0 f4 [128]
000000 0a 2c a1 bd d1 14 09 be af 9f da bd 1c 07 76 bd
       -0.07869728 -0.13386847 -0.106749885 -0.060065374
000010 f4 d1 33 3e 85 eb 48 3c 12 82 61 bd 20 91 c7 3d
       0.1756056 0.0122631835 -0.055055685 0.09744477
000020 7d a8 9e 3d c8 95 ae 3d 4e 99 91 3b 5b d5 57 3e
       0.0774698 0.08524662 0.004443324 0.21077482
000030 86 04 37 3d 7b a8 b3 3d c9 9e c8 bd 50 2b b8 3c
       0.04468205 0.087723695 -0.09795911 0.02248159
000040 4d 22 a2 3d e4 e7 dc 3d 56 ba 47 3d 30 46 ec bd
       0.079166986 0.10786417 0.04876169 -0.11536825
000050 3c 87 23 3e 4d 1d 19 3e 48 a6 9e bd 04 8c f1 3d
       0.15969557 0.14952584 -0.077465594 0.11794284
000060 4a 3d 48 bd d2 6f c1 bd b8 4d 96 3d 29 c0 19 3d
       -0.048886575 -0.09445156 0.073390424 0.037536774
000070 6d f9 ec 3c e3 ed 86 bd ac 56 22 3e c9 50 21 bd
       0.02892753 -0.06588342 0.15853375 -0.039383683
000080 b2 ae 18 3e dc 59 d5 bd 66 45 72 bd fa 5d a8 bd
       0.14910391 -0.1041753 -0.059148215 -0.082210496
000090 e0 ef 74 bd 6e 0c a9 bd 5a d5 81 3d 60 28 55 bd
       -0.059799075 -0.08254324 0.06339522 -0.052040458
0000a0 48 86 a8 3d d2 2e 69 3e d3 58 5e bd ac 2c 24 bd
       0.08228737 0.22771767 -0.054283928 -0.040081665
0000b0 88 19 44 3e d3 86 fe 3d 9a 5f 19 39 6a e3 a2 bd
       0.19150364 0.124280594 0.00014626831 -0.07953532
0000c0 15 65 2f 3e b4 bd 39 3e 1a 65 1c 3e 65 ea fc 3d
       0.17128403 0.18138772 0.15272942 0.12349395
0000d0 00 39 de bc 70 a0 e4 bc b5 1d b0 3c d7 bc 21 3e
       -0.02712679 -0.027908534 0.02149854 0.15794693
0000e0 6b cf 13 3e 52 4c d7 bc 1e a8 8e bd 75 6c 56 3e
       0.14434592 -0.02628151 -0.069656596 0.2093981
0000f0 58 ed a2 3d 63 4b 0d be d6 51 3b bd 53 c9 27 3d
       0.07955426 -0.13798289 -0.04573234 0.040963482
000100 cd b4 3f 3e 30 a5 1e 3d c1 d2 30 3e 25 8f 2a be
       0.18721314 0.038731754 0.17267896 -0.16656168
000110 dc 66 d7 bc ad 8a 4d 3e 6b 35 a4 bd 15 73 4c 3e
       -0.026294164 0.20072432 -0.08018001 0.19965775
000120 eb a2 47 3e b2 ff 7e 3c e9 66 17 3e f6 5a 5d 3b
       0.19495742 0.015563892 0.14785351 0.003377614
000130 c0 99 ea 3d 9a e6 1f be 34 1c 19 3e a4 86 12 3e
       0.11455107 -0.15615311 0.14952165 0.14309174
000140 0d dd 50 3d ca dd 4e 3d ec 4c 36 3e c7 a6 ae 3d
       0.05099206 0.050504483 0.17802781 0.08527904
000150 4d 7e 5a be 2b 6e 4d 3d 86 36 b9 3d ff 34 28 bb
       -0.21337242 0.050153892 0.09043603 -0.0025666354
000160 69 7f c1 bc 54 49 0c 3e e6 b8 2c be bc 77 1d be
       -0.023620324 0.13699847 -0.16867408 -0.15377706
000170 ab e0 81 bd 7c d3 b9 bd 73 cc 45 3e 8b 7b 3c 3e
       -0.0634168 -0.090735406 0.19316272 0.18406503
000180 d8 fd e8 3c 2f 30 05 3e 55 08 2f 3e 66 64 24 bd
       0.028441355 0.13006662 0.17093022 -0.04013481
000190 a2 5a eb 3d 42 98 f2 bd 8e 56 97 3d 53 cf 42 3e
       0.11491896 -0.11845447 0.07389556 0.190244
0001a0 23 2b 33 3e af 5a 84 3e 29 db 88 bb 01 1f 03 bd
       0.17496924 0.25850436 -0.0041765166 -0.03201199
0001b0 dd 60 2a 3e 30 d5 bb bd 7c f6 d2 3d 50 a8 e6 bd
       0.16638513 -0.09171522 0.103009194 -0.11262572
0001c0 0b 53 c1 3c b8 78 4a 3d 4d 00 ed 3d 18 54 60 3d
       0.023599168 0.049431533 0.11572323 0.054767698
0001d0 59 e4 be bc 07 9f 4b 3e 05 0c 6f 3e 1e 96 f1 3c
       -0.023302244 0.19884883 0.23344429 0.029490527
0001e0 64 28 64 3e f2 3f b2 bb fc 6b 8f bc 99 0f 37 3d
       0.22281033 -0.005439752 -0.017507546 0.04469261
0001f0 70 6f 05 3e a4 1d 56 3d 0e 00 8d 3d 55 58 99 3d
       0.13030791 0.05227436 0.06884776 0.07487551

lstm2.weight_ih_l0 f4 [128, 32]
000000 e4 ec d3 3d 22 1c c2 bc b2 2f c4 3d 28 8d 4d bc
       0.10347918 -0.023695055 0.0957941 -0.012545861
000010 16 65 ba 3c 21 7c f3 bc 05 d7 23 3d 01 e4 31 bd
       0.02275328 -0.029722275 0.03999998 -0.043430332
000020 dd 5e e6 3d b3 33 e7 bd 0f 3a bc bd 4a 69 8e 3d
       0.112485625 -0.11289158 -0.09190761 0.06953676
000030 58 1e 1f 3e 47 92 de bd 6e 90 00 3d 9e 86 f9 3d
       0.15538919 -0.10867744 0.03138774 0.12183879
000040 7f 55 9d 3d 11 e3 85 3d d3 09 4d bd 26 4f 8c 3d
       0.07682323 0.0653745 -0.050058197 0.06851034
000050 3b 4b d6 bd 01 48 0a be 7b 50 4a bd 37 8a 9b bd
       -0.10463568 -0.1350403 -0.04939316 -0.07594722
000060 94 f5 3a 3d 5a af 66 3c 9e b8 89 3c 85 02 b9 3c
       0.045644358 0.014079893 0.016811665 0.02258421
000070 fa 71 4b 3d 12 5a 9e 3d 81 d4 d6 3d 86 93 cb bc
       0.049669243 0.07732023 0.10489751 -0.024850618
000080 c1 01 e3 bc c9 44 31 bc 74 d3 00 bd 82 20 01 bc
       -0.027710797 -0.010819622 -0.031451657 -0.007881286
000090 30 ab da 3c 07 16 7a 3d 3f 20 2b 3d 02 16 5a 3d
       0.026692957 0.061056163 0.0417788 0.053243645
0000a0 fe 9a e6 3d 0e 7a 06 3e 37 8d 45 bb 88 40 17 3d
       0.11260031 0.13132498 -0.0030143985 0.036926776
0000b0 0a 31 c9 3d 89 d1 76 3c e6 a6 7b 3d 4f 82 3d 3d
       0.098238066 0.0150646055 0.061438464 0.04626685
0000c0 32 3b a4 bc 66 b9 79 3d 48 53 ed 3c 9d 96 f2 bc
       -0.020047758 0.060967825 0.028970376 -0.029612834
0000d0 60 57 c1 39 96 80 0f bc 88 f2 8d 3c 6c fb 2f 3c
       0.00036876928 -0.008758685 0.017327562 0.010741096
0000e0 4d 14 84 bd a1 1f 6e bd c3 64 e3 3c c7 99 ad 3c
       -0.064491846 -0.058135632 0.027758008 0.02119149
0000f0 7c 5f 0b bd 46 f7 13 bd 02 23 95 3d c6 a8 36 3d
       -0.034026608 -0.03612449 0.07282068 0.04459455
000100 32 0e 11 3e 2d 39 c3 3d 9b 46 83 bc 68 74 13 bc
       0.14165571 0.0953239 -0.016024878 -0.008999921
000110 f4 5f 0c bd d5 43 af 3d 38 d0 f1 3d 25 e4 f3 3d
       -0.034271196 0.0855786 0.11807293 0.119087495
000120 74 dc c3 3d 96 50 ab bd e3 1d 74 3d 60 15 ec 3d
       0.095635325 -0.0836498 0.059598815 0.115275145
000130 5e 02 a8 3d 52 54 ae bd a9 e1 03 3e e7 47 27 3e
       0.082035765 -0.085121766 0.12879051 0.16336022
000140 66 e4 05 3d fa ff 2c be 24 64 1b 3c ad 87 bf bd
       0.03268852 -0.16894522 0.009484325 -0.0935205
000150 5f 70 ca bc 79 29 f0 3c 57 ac 96 bd d0 2d 43 3d
       -0.024711786 0.02931665 -0.0735709 0.047651112
000160 aa 58 dc bc 55 11 3d 3c 40 81 04 3d 1c ed 3c 3e
       -0.026897747 0.011539777 0.032349825 0.18449825
000170 9f 19 71 bd 85 11 54 3d c2 b2 aa 3d 9c ce 92 bd
       -0.058862325 0.05177452 0.083348766 -0.07168314
000180 57 a6 42 3d 65 04 50 3d 65 40 01 3e e1 e2 ba ba
       0.047521915 0.05078544 0.12622221 -0.0014258289
000190 5c 83 36 3d 52 dc 69 bd 72 09 84 3d ba 6b 37 3c
       0.044558868 -0.05709488 0.06447114 0.011195118
0001a0 51 6d 9d bc c5 92 34 bd 96 bd 6a 3d e6 3e aa 3d
       -0.019217165 -0.044085283 0.05730971 0.08312778
0001b0 0b f3 41 3d e2 28 ec 3c b1 d0 d4 3c 2e d0 4e 3d
       0.047350924 0.028828088 0.025978418 0.050491504
0001c0 4b 13 e5 3b ef 0d 17 3d 49 5f 9d 3c 95 ff 45 bd
       0.0069908253 0.036878522 0.019210475 -0.048339445
0001d0 06 57 b0 bd d0 d8 32 bd 18 60 4b 3c 30 e6 50 bd
       -0.086103484 -0.0436638 0.012413047 -0.051000774
0001e0 af cd 16 3d 24 5c ab 3b 1d b6 50 3d 4f 66 8a 3d
       0.03681725 0.00522949 0.050954927 0.06757795
0001f0 7b 73 25 3d 03 61 8e bd d9 fd b8 3d a4 f7 6d bd
       0.040393334 -0.06952097 0.090327926 -0.058097497
000200 3b fd 11 3e 62 8e a6 bd 8d 17 a6 3d 28 3d f4 ba
       0.14256756 -0.08132626 0.08109961 -0.0018633949
000210 73 21 2c bc 28 65 1c 3d e6 c9 b6 3d 35 b7 f8 3d
       -0.010506022 0.038182408 0.08925228 0.12144319
000220 75 d2 9d 3d c3 d8 7d 3d 55 c7 8c bd b6 92 ab bd
       0.07706157 0.0619743 -0.06873957 -0.08377592
000230 dd 20 f9 bd b0 f3 9b bd 95 5d 14 3e b1 32 fb 3d
       -0.12164471 -0.07614839 0.14488824 0.12265528
000240 c1 28 db 3d 99 e3 a5 3c 34 da df 3d b5 9f 37 bc
       0.107011326 0.020250129 0.10930291 -0.011207511
000250 7d f1 e5 3d 02 27 94 bd 24 08 d8 bb 09 72 bb bd
       0.11227701 -0.07234003 -0.0065927673 -0.0915261
000260 44 d7 b7 3d ae 47 f2 bd 26 d3 12 be 76 b8 c1 3c
       0.089766055 -0.11830078 -0.14338359 0.023647528
000270 1f 69 b7 bd 05 d4 23 3d ba 7d d2 3d 1e 2d 1e 3d
       -0.08955597 0.03999712 0.10277887 0.038617246
000280 98 64 2d bd cb 05 f3 bc d8 d7 ec 3d ec a7 3b bd
       -0.04233226 -0.029665848 0.115646064 -0.04581444
000290 77 8a b2 3d 90 14 4f 3c 43 31 bc 3d d2 5b b5 3d
       0.08717816 0.01263918 0.091890834 0.08855404
0002a0 d9 7f bf bd 0d da e8 3d 46 a7 62 3c d2 71 39 bd
       -0.09350557 0.11369715 0.013833826 -0.045274563
0002b0 b4 af 9f 3d e0 80 df bd 7e f3 9c bd bc 1d 1f bd
       0.077971846 -0.10913253 -0.0766363 -0.038846716
0002c0 81 29 01 3e e8 e2 a7 bd 60 73 23 3d 30 ff 93 bd
       0.12613489 -0.08197576 0.039904952 -0.072264075
0002d0 0d 50 5b 3d 80 6b 50 3d 33 64 e5 3d 2b 29 0f 3c
       0.05354314 0.05088377 0.11200752 0.008737843
0002e0 fe 97 87 3c 5d 5a 15 3e e6 08 22 3d e8 96 1d bd
       0.016551968 0.14585252 0.039559267 -0.038473994
0002f0 66 a0 a3 3d b6 01 40 be 69 d1 21 3e ae df 6b 3d
       0.07989578 -0.18750653 0.1580254 0.057586364
000300 40 b7 44 3d d0 04 2f bd 5a 16 95 3d 4d 56 37 bb
       0.048026323 -0.0427292 0.07279654 -0.0027975023
000310 5d 44 39 bd a4 7b d3 3d 8f a9 dc 3d 8c df f1 3c
       -0.045231212 0.10326317 0.10774528 0.02952554
000320 e7 c7 a9 3c 95 86 36 3e 3e 03 98 bc 8f f2 c6 bc
       0.020725204 0.17824776 -0.018556233 -0.024285583
000330 79 37 21 3d aa 4f af bd 38 16 67 3d a0 32 e5 bc
       0.039359543 -0.085601166 0.056417674 -0.027978241
000340 fa 8e 41 3d c2 03 ab bd c6 11 62 3d 24 d2 a5 bd
       0.047255494 -0.08350326 0.05519273 -0.08096722
000350 3f 25 98 3d f6 97 09 3d 87 48 57 bd 49 1a ed bc
       0.07428979 0.033592187 -0.0525594 -0.028943198
000360 e2 59 54 bd fe 08 b4 3d 8f d0 3e 3c ac 50 ab 3c
       -0.05184353 0.087907776 0.011646404 0.02091249
000370 af 6f b9 3d ad e4 fe bc e9 19 e3 3c 3c 9c b8 bd
       0.09054505 -0.0311149 0.027722316 -0.09014174
000380 81 21 1c 3d cd 46 e2 bd 53 21 6a 3d a5 39 f5 3b
       0.03811789 -0.110486604 0.057160687 0.0074836784
000390 03 3d 02 bd 7c 7e 7f 3c 2b ca 91 bd 56 5c 8f 3d
       -0.031796467 0.015594121 -0.071186386 0.070000336
0003a0 3c 17 c2 bc 32 aa b7 bd c1 f2 b2 bd f6 d1 ac bd
       -0.02369272 -0.08968009 -0.08737708 -0.08438484
0003b0 a6 3e 8d bc 72 43 99 bc 36 0e c5 3c 00 47 c3 bc
       -0.017241787 -0.018708918 0.024054628 -0.023837566
0003c0 9f 02 84 bd 28 43 88 3d bb 2a cb 3d 8a b9 a1 3d
       -0.064458124 0.06653434 0.099202596 0.07896717
0003d0 ae f7 ee bd 48 f3 62 3d 1f 9b 02 bb 3f bc f6 3b
       -0.11668335 0.055407792 -0.0019928885 0.007529765
0003e0 60 d8 04 bd 41 25 b9 3d a3 d9 bd bd 7f 8e c7 3d
       -0.032432914 0.09040309 -0.092700265 0.09743976
0003f0 ee e7 52 bd 42 eb 2f 3c f8 5b f2 3d cc cb e9 bd
       -0.051490717 0.010737242 0.11833948 -0.11415824

lstm2.weight_hh_l0 f4 [128, 32]
000000 40 04 39 3d e6 09 8f bd 43 0f 4b bc eb d0 3a 3d
       0.04517007 -0.0698431 -0.012393775 0.045609396
000010 7f f8 b6 3d c6 5f 20 3d 9d 99 29 bd 03 1f 90 3d
       0.089341156 0.039153837 -0.041406263 0.07037165
000020 09 b2 5d bd 1c a1 f5 bc fa 55 d2 bd 7b 6b 8b 3d
       -0.054124866 -0.02998405 -0.10270305 0.0680761
000030 df b6 10 3b 0f 0f 4f 3d 7f d3 1a be ba 69 1f 3e
       0.0022081656 0.05055147 -0.15119742 0.15567675
000040 47 d8 93 bd cd 5c 3b 3c f2 b5 5f bd 8f 31 73 bc
       -0.07218986 0.0114357 -0.054616876 -0.014843359
000050 b0 8e cd 3d 9e 56 9b 3d b9 7f 0f bc 3e 4c 98 bb
       0.10036981 0.0758488 -0.008758479 -0.0046477607
000060 41 6f 4a 3d 0b 8d 75 3c 76 41 a8 3c a5 d3 9d 3c
       0.049422506 0.014987241 0.020539027 0.019265959
000070 08 ac 1e 3e c0 81 9a 3d dd 92 4f bd f5 f4 b0 3d
       0.15495312 0.07544279 -0.05067717 0.08640472
000080 e8 a7 22 bd a6 ab e4 bb 54 fd 8a 3c ff 38 ca 3c
       -0.03971091 -0.00697847 0.0169665 0.024685381
000090 df 8f e1 3c 6a ec 9a 3d cf 96 96 bb 36 ce e0 3b
       0.027534423 0.07564624 -0.0045956145 0.0068605198
0000a0 05 ff f4 3b 4a 3b c2 3c 7b 27 d7 3c f9 96 a7 bc
       0.0074766898 0.023709912 0.026263943 -0.020457732
0000b0 3d b8 03 3b 90 cf 1e bd 91 ed 05 bd fd 0b 0a 3c
       0.0020098828 -0.038772166 -0.032697264 0.00842571
0000c0 76 82 0b bd d4 1f d8 bb 1f d8 15 bc ac 76 19 3d
       -0.034059964 -0.006595591 -0.009145766 0.03746669
0000d0 15 44 1f be f6 5f fa 3b 08 72 e5 3c 54 9f 9e bd
       -0.15553315 0.007640834 0.028008476 -0.07745233
0000e0 d2 25 1e bd 48 f6 b2 bd 93 3f 40 3b 58 6e ce bb
       -0.038610287 -0.08738381 0.0029334768 -0.006299775
0000f0 40 84 df 3c 18 0e f5 bc a6 42 aa 3b 01 53 7c bc
       0.027284741 -0.029913947 0.0051959334 -0.015400649
000100 a2 f9 03 be 21 47 d7 bd 67 95 a2 bd d2 6a 99 3d
       -0.12888196 -0.10511614 -0.079386525 0.074910775
000110 3e 67 aa 3d c4 25 53 3d e1 38 99 3d c5 fd 44 bc
       0.08320473 0.051549688 0.07481552 -0.012023394
000120 64 79 c6 bd b0 a2 4d bd 28 4a f0 bd 88 94 af 3d
       -0.09691122 -0.05020398 -0.11732894 0.08573252
000130 07 8b 1c 3d 6b a7 b4 bd 6f a2 c8 bc 6d 22 e6 bd
       0.038218524 -0.08820995 -0.024491517 -0.11237035
000140 e8 a7 f8 3d 6e 00 93 ba 0c 87 ab bd 8b 16 62 3b
       0.121414006 -0.0011215338 -0.083753675 0.00344983
000150 4d 73 97 bd 31 ee 8e 3c be 6e 96 3c 4c bc c8 bd
       -0.07395039 0.017447563 0.018363353 -0.0980154
000160 89 0c 97 bc 24 09 08 be 8e 7c 90 bc 07 18 80 3c
       -0.018438594 -0.13284737 -0.017637517 0.015636457
000170 77 28 44 bd c6 e7 93 bd 02 70 11 bd e2 89 53 3d
       -0.047890153 -0.07221942 -0.03550721 0.051645167
000180 f6 db 8d bd 33 bf d1 bd 5d 9e 2a 3d ac ef b2 bc
       -0.0692672 -0.102415465 0.041654933 -0.0218428
000190 8d bc 85 bd 14 69 b0 b8 37 44 08 bb 9c 32 5a 3c
       -0.06530104 -8.411906e-05 -0.0020792612 0.01331773
0001a0 3c 28 92 bc 62 95 e4 bd 36 b8 8c bd a8 e2 33 3d
       -0.01784145 -0.11161305 -0.06871073 0.043917328
0001b0 05 b4 c4 3c 6b ee 84 bd d5 58 22 bd 5a 59 47 bd
       0.024011621 -0.06490787 -0.039635498 -0.048669197
0001c0 4b c5 27 3d 6a d9 f0 3b 4e d0 da 3c 54 8b 8b bb
       0.040959638 0.0073501365 0.026710656 -0.0042585526
0001d0 44 75 8e bd d6 4f 8b 3d 82 ea ca bc 28 2f 81 3c
       -0.069559604 0.06802337 -0.024770025 0.015769556
0001e0 7b 53 3b bc cc bb 9f bd bc 81 2f 3c ad 90 30 3b
       -0.0114334775 -0.07799491 0.010712083 0.0026941702
0001f0 6e 84 89 bd 2f cb 2a 3d 55 19 23 3d ac 68 b3 3c
       -0.06714712 0.041697677 0.03981908 0.021900497
000200 90 ef ae bc 2d 42 f8 3c f0 85 a2 3d b9 ef 38 3d
       -0.021354467 0.030304993 0.07935703 0.045150492
000210 ef 62 c2 bd de 5f 8a 3d 37 33 b6 3d 9e b6 8f bd
       -0.09491526 0.067565665 0.08896487 -0.07017253
000220 c6 13 0e be ab e6 0a be 61 f4 e9 bc 85 8a 95 bc
       -0.1387473 -0.13564555 -0.028558912 -0.018254528
000230 65 2b a8 bd 72 e9 be 3d 5f ca 45 3d 33 f9 83 bd
       -0.08211402 0.0932187 0.0482887 -0.06444015
000240 dd 1b c2 3d e6 9d d7 3c 55 8b a9 3c f3 33 c4 bd
       0.09477971 0.026320409 0.020696322 -0.09580221
000250 bd 7f 0b be 98 1d 0a 3e 68 c5 54 3d e5 a2 f8 bd
       -0.13622947 0.13487852 0.051946074 -0.12140445
000260 85 93 79 bd 4e 0f b6 3d 18 8c d0 3d 40 1b 88 bc
       -0.0609317 0.08889638 0.10182971 -0.016614556
000270 dd d1 43 3d 41 28 79 3d 93 79 d0 3c 04 a5 e7 3d
       0.047807563 0.060829405 0.025448596 0.11310771
000280 28 d5 c9 3b 86 d7 08 be 15 72 a0 3d 80 51 a3 3d
       0.0061594434 -0.13363466 0.078342594 0.07974529
000290 57 1d 84 bb 14 db 33 3c e4 0a 33 be 4f ff 6e 3d
       -0.004031818 0.010977525 -0.17484623 0.05834895
0002a0 ba a0 41 bd f6 85 9d 3d 0e e0 b4 bd 19 ef fa 3d
       -0.04727242 0.07691567 -0.088317975 0.122526355
0002b0 90 c1 4a 3c b8 20 a8 3d 02 ca bc bd 6d a5 d1 bc
       0.01237525 0.082093656 -0.092182174 -0.025591576
0002c0 d1 3a 95 3d 6c ad c5 bd 3a 0e f8 3b 99 20 75 bd
       0.07286609 -0.09652218 0.0075700553 -0.05984554
0002d0 bf 76 7c 3d b2 e8 f1 bc 32 ae 19 3d eb 9f 06 bb
       0.061636683 -0.029529903 0.03751964 -0.0020542096
0002e0 ba c4 62 bc 27 45 04 be 40 03 42 bc 0a f2 74 bd
       -0.013840849 -0.12917005 -0.011841595 -0.05980114
0002f0 ea 53 3c bc e9 0b 8e 3c 43 0f 99 3d 2a c9 6d bd
       -0.011494616 0.017339664 0.07473614 -0.058053173
000300 75 20 3d bd 38 e1 f0 bd d3 32 ec 3c c4 b9 e1 bc
       -0.04617353 -0.11761707 0.028832829 -0.0275544
000310 4c 29 65 bd 81 ab 04 3d 22 3b 4b 3d 30 89 97 bd
       -0.055947587 0.03239012 0.04961694 -0.07399213
000320 e3 de dc bd 6a d4 0b bd f0 91 4f bd 04 05 fb bd
       -0.107847 -0.03413812 -0.050676286 -0.12256816
000330 5c 3b 3d 3d cb 31 a0 bd 53 4d e8 3c 99 45 a7 3d
       0.046199188 -0.07821997 0.028357184 0.081675716
000340 29 8b b2 3d 8a 6d 84 bc 6a e3 ef 3c bf 20 23 3d
       0.08717949 -0.016165514 0.029283244 0.03982615
000350 54 05 c5 3d 91 c8 bd bc 76 3f 64 bc 59 37 17 be
       0.09620157 -0.023166927 -0.013931146 -0.14767207
000360 93 15 6a bd 2b dc eb 3b a9 5a 6a 3d 10 c1 06 bd
       -0.05714948 0.007197877 0.057215367 -0.032898962
000370 01 7e 39 bc b0 13 cf 3c 57 ea 85 3d 28 d4 96 3d
       -0.011321546 0.025277942 0.065388374 0.07364684
000380 92 16 ca bd a1 06 fc bd 84 88 3f 3d e6 84 86 3c
       -0.09867586 -0.12305952 0.04676105 0.016420793
000390 2b cb 13 bd 8f b2 e9 bd fa b1 e9 bd 7a 26 0e 3c
       -0.036082428 -0.114110105 -0.114108995 0.008676166
0003a0 8c 6b f6 bd 78 09 db 3d 50 2b af 3c 94 84 a0 3a
       -0.12032232 0.106951654 0.021382958 0.0012246543
0003b0 84 d0 ea 3d 14 00 79 3c bd 43 a5 3d bf 4a 81 3d
       0.114655524 0.0151977725 0.08069561 0.06313085
0003c0 2c f6 91 3b 78 bb c9 bd 6c fc fa bc 0a 86 f7 3d
       0.004454395 -0.0985021 -0.030637942 0.12086113
0003d0 42 15 14 be ca cd 06 3d 54 08 9b ba a2 2d da bd
       -0.14461234 0.0329111 -0.0011828043 -0.10653235
0003e0 0b 56 a1 3d d2 16 c9 bd fa ed e2 bb 0f 2a 50 bd
       0.078777395 -0.09818806 -0.0069253417 -0.05082136
0003f0 dc 66 8e bd ea c9 70 bc 8f 60 0f be b0 51 07 bd
       -0.069532126 -0.014696578 -0.14001678 -0.033036888

lstm2.bias_ih_l0 f4 [128]
000000 74 04 89 bd a8 f7 e9 3d 83 4d 6b 3d 00 c9 57 3d
       -0.066903025 0.1142419 0.057446968 0.052681923
000010 97 2e 47 3e c3 95 09 bd 74 5e e1 bd 32 c4 bf 3d
       0.19451366 -0.03359009 -0.11004344 0.09363593
000020 62 72 88 3d bf 53 86 3d 77 30 32 3e 28 6a de 3d
       0.06662442 0.06558942 0.174013 0.108600914
000030 07 51 0d be 0a 31 11 3e 4a ea c0 3d 3a d3 63 3c
       -0.1380044 0.14178863 0.09419687 0.013905341
000040 a9 5b de 3d 34 7d cb 3d f3 97 7c bd 7f ea ee 3c
       0.108573265 0.0993599 -0.061668348 0.02916455
000050 d4 fe 18 3e da aa 1f 3d e6 21 7c 3d 16 63 88 3d
       0.14940959 0.038981296 0.061555766 0.06659524
000060 85 93 1b bd 1c dc 3d 3e 0e f5 b6 3c c8 b4 72 bd
       -0.037982482 0.18540996 0.022333648 -0.059254438
000070 71 16 0c 3e 7e 29 ae bd ea f8 29 3e b7 08 66 3d
       0.13680436 -0.08504008 0.1659886 0.056160655
000080 b2 fe 45 3e 3f ad 45 bd 31 41 5a 3d 58 b2 29 3c
       0.1933544 -0.048260923 0.053284828 0.010357462
000090 e4 8d 8f 3d aa 27 25 3e db 2e 0b 3e e0 d0 08 3d
       0.07009485 0.16128412 0.13592093 0.033402324
0000a0 ab f6 4c 3c 79 10 b5 bc 2b 2b fc 3d b2 fb 56 bd
       0.012509982 -0.022102581 0.12312921 -0.05248613
0000b0 62 8a 9f bc a7 38 8b bd 02 c5 8e 3d d5 d8 c1 bd
       -0.019475166 -0.06797915 0.0697117 -0.094651856
0000c0 0e 3d 49 bd 16 b9 4d bb af da a3 bd fd f9 9b 3c
       -0.049130492 -0.0031390837 -0.08000695 0.019040102
0000d0 1a 93 29 3e bf 49 4a 3c ed 3b ef bc a8 29 29 3e
       0.16560021 0.012346684 -0.02920338 0.16519797
0000e0 2a e4 07 3d 6a 3e 1b 3e dc 58 10 3c a5 41 82 3c
       0.03317658 0.15160528 0.008810248 0.015900442
0000f0 2b 9d 25 3e 53 02 c4 3c fa e4 38 3e 97 d1 2b bd
       0.16173236 0.02392689 0.18056098 -0.041947927
000100 78 38 e2 bd ec c5 38 bc 78 22 cb 3d 32 37 ea 3d
       -0.11045927 -0.011277657 0.09918684 0.11436309
000110 ff 8b a7 3d 56 0e 7d 3c 0e 1a 99 3d c0 bc 49 3d
       0.08180999 0.0154453125 0.07475673 0.04925227
000120 40 48 3a bd 08 a7 1a bd 1a da 19 be 6f cd fd bd
       -0.04547906 -0.03775695 -0.15024605 -0.12392699
000130 07 f3 f2 3d 78 2c f6 3c 8c dd dd bd 27 35 a5 bc
       0.1186276 0.030050501 -0.10833272 -0.020166947
000140 f9 eb 4f bd c4 0e f4 3a 22 6e 01 3e d0 c5 a9 3d
       -0.05076215 0.0018620123 0.12639669 0.08289683
000150 67 39 b8 bd a7 76 5d bb 56 86 9b 3c 72 9a 9c bd
       -0.08995324 -0.0033792646 0.018984955 -0.076466456
000160 68 1f 8a bc b5 f8 f1 bd 23 58 09 3d 42 d6 23 be
       -0.016860679 -0.11815015 0.03353132 -0.15999702
000170 ff ee e3 bd 52 4c d4 3d 35 67 c0 3c ff 04 ec bd
       -0.11129569 0.103661194 0.023486713 -0.115243904
000180 04 f0 e7 bd 73 93 cc 3d a7 93 9d 3d 94 74 9c bd
       -0.11325076 0.09989061 0.07694178 -0.07639423
000190 a1 76 d7 bd bd cc 68 3d 14 2c 9d 3d e2 fb a7 bd
       -0.105206735 0.05683588 0.07674423 -0.0820234
0001a0 03 29 af 3d 1e 45 e0 3d 39 10 b2 3d df ca 32 3e
       0.08552744 0.10950683 0.086945005 0.17460202
0001b0 48 01 b3 3d e5 a2 1c 3e a8 83 50 3d 26 4a 97 3d
       0.08740479 0.15296514 0.050906807 0.073871896
0001c0 27 9c 09 3e f9 c8 b6 3c ac f0 4f 3e 94 02 2e 3e
       0.13438474 0.022312628 0.20306653 0.16993171
0001d0 7b 6a 24 3e 5e aa cf 3c f8 f3 b1 3d 9f 6e 02 3e
       0.16056244 0.025349792 0.086891115 0.12737511
0001e0 2d 6b a6 3d d8 ca 80 bc ee 92 07 3d a1 a5 cb bd
       0.08125911 -0.015721723 0.033099107 -0.099437006
0001f0 5a 56 82 3d 1b f1 9e 3d 83 70 31 3e 52 cc d3 bd
       0.063641265 0.07760831 0.17328076 -0.103417054

lstm2.bias_hh_l0 f4 [128]
000000 cd e6 5a bd b0 7f 93 3b 25 90 56 3c 9a 54 ba bd
       -0.053442765 0.0045013055 0.01309589 -0.09098168
000010 2a c9 ea 3d b4 dc 53 3e b9 c7 f7 bd 56 ac ba 3d
       0.1146415 0.2068966 -0.12098641 0.09114902
000020 eb 83 07 3e 51 5d 95 bb 8c 5c cb bd c0 fd 3a bc
       0.13233916 -0.0045582433 -0.09929761 -0.011413038
000030 d5 d6 21 be 6b 52 1a 3e 66 95 8f bd 40 87 33 bd
       -0.15804608 0.15070502 -0.07010917 -0.043830156
000040 f9 45 00 3e 78 a1 9a ba 26 1c c9 3d 65 e8 7d bb
       0.12526692 -0.0011797389 0.09819822 -0.0038743254
000050 c0 98 01 3e 89 61 a3 3d 33 ce 22 3d cb 8c 44 3d
       0.12655926 0.07977588 0.03974743 0.047985833
000060 78 51 9a 3d 9b 51 a5 3d e1 a0 07 be ad d0 6f bd
       0.0753507 0.08072206 -0.13244964 -0.058548618
000070 53 18 30 bd 5f aa 4e bd 1a 38 8b bd f4 c5 47 3c
       -0.042991947 -0.050455447 -0.0679781 0.012193192
000080 05 46 a2 bb ac 2e 8f bd 09 0f 7f bd d4 85 ee bd
       -0.0049521946 -0.06991324 -0.062270198 -0.116466194
000090 3c 6a e0 3c 42 ec 9e 3d e3 2d f6 3c 28 09 a5 3d
       0.027394406 0.07759906 0.030051177 0.08058387
0000a0 b1 50 32 3e 09 d6 04 3c a1 e1 be bd 69 c5 e5 3d
       0.17413594 0.008107671 -0.09320379 0.112192936
0000b0 e4 b0 26 bd e3 06 7a 3d 4b d2 e3 3d 10 71 55 bd
       -0.04069604 0.061041724 0.111240946 -0.052109778
0000c0 c3 7d 95 3d 87 ab b8 bd 64 1b 87 bd 6c 07 6d 3d
       0.07299378 -0.09017091 -0.06597021 0.057868406
0000d0 af 07 75 3c 34 66 56 3d 06 00 07 bd be ff 08 bd
       0.014955445 0.052343562 -0.032959007 -0.03344702
0000e0 8b ec af 3d b0 11 65 bd 26 84 ec 3d ad 53 02 be
       0.08590039 -0.05592507 0.11548643 -0.12727232
0000f0 b0 26 d9 3c 11 32 b9 3d c2 7e d2 bc f1 ff cd 3d
       0.026507705 0.090427525 -0.025695208 0.100585826
000100 86 1e 88 bd 48 17 2b be b6 e7 e2 bd 77 19 d6 3c
       -0.06646447 -0.167081 -0.110793516 0.02613519
000110 fb 09 a2 3c 4b 11 0c 3e 73 e9 b5 bd ef cd 3f 3e
       0.01978015 0.13678472 -0.088824175 0.18730901
000120 24 4b 2f be 10 19 59 3d 1d 9c 28 be b2 38 5e bd
       -0.17118508 0.053002417 -0.16465802 -0.054253288
000130 14 1f a4 bc ed 7a dd bd 5c c3 4c bc be 85 e9 bc
       -0.02003435 -0.10814462 -0.012497749 -0.028506156
000140 2e 6c 44 bd 65 cb 45 be 3c 9c 83 bd 1d 47 3a 3e
       -0.04795473 -0.1931587 -0.06426284 0.1819119
000150 08 76 51 bd 2c 02 19 be 4a a3 c9 bc 3a bc 1b be
       -0.051137954 -0.14942235 -0.024613995 -0.15208521
000160 73 4d eb bc 3e 75 e2 3d 96 10 93 3d 10 09 d9 bd
       -0.028723454 0.110575184 0.07180898 -0.10597432
000170 77 1f bd 3d e6 f3 36 3d 94 7e 05 bd c1 19 db 3d
       0.09234517 0.044666193 -0.032591417 0.106982715
000180 2a 3a 0e 3e f6 b0 a1 3c b1 2a 38 bc be f5 1d 3d
       0.13889375 0.019737702 -0.011240647 0.038564436
000190 88 13 74 bc 05 fa 36 3e 0c 30 95 bd 45 c9 cb bd
       -0.014897235 0.17868812 -0.07284555 -0.099504985
0001a0 19 a7 35 3e 6b f7 da 3d fe a5 17 3e 18 6e e8 3d
       0.17739524 0.106917225 0.14809415 0.11349124
0001b0 e0 d7 8d 3d 1b 99 34 3e e3 36 2b 3e 6a df c4 bd
       0.069259405 0.1763653 0.16720156 -0.09612925
0001c0 9e e4 60 bd 3a e3 ef 3d c3 88 9b bc 8d c7 1b 3e
       -0.054905526 0.11713262 -0.018986112 0.15212841
0001d0 73 23 91 3d dc 1e 3d bd a0 50 3a bd ae aa bb 3d
       0.070868395 -0.046172008 -0.045487046 0.09163414
0001e0 79 72 da 3d 65 8c 79 bd d4 85 83 bd a4 e8 4f bd
       0.10666365 -0.060924906 -0.0642201 -0.050758973
0001f0 e5 10 45 3d cd 45 0d 3e 86 7d 0c 3e 32 23 d5 bd
       0.048111815 0.13796158 0.13719758 -0.104071036

fc.weight f4 [1, 32]
000000 71 90 9c bc a4 b4 2c bd f4 73 52 3e 26 f2 c2 3d
       -0.019111844 -0.04216446 0.20552045 0.095188424
000010 40 40 a9 3d a7 81 52 3e 10 7a 1c be 8c 9b 83 3d
       0.08264208 0.20557271 -0.15280938 0.064261526
000020 41 3c 7f bd 71 d6 25 be 94 a3 42 be f7 b5 25 bd
       -0.062313322 -0.16195084 -0.19007713 -0.04045674
000030 19 4b dd bd 3f c9 11 be c8 15 37 be 8c 51 08 3e
       -0.10805339 -0.14236926 -0.17879403 0.13312358
000040 52 6c 01 3e 65 ad 08 be 3a 8a d3 3d 03 a5 7f 3d
       0.12638977 -0.13347395 0.10329099 0.062413227
000050 11 5b 40 3d e1 d1 52 3e be 87 06 3e f6 3c 26 be
       0.046961848 0.20587875 0.13137719 -0.16234192
000060 ac f8 c8 3d 83 2d 5f be c5 45 06 be 1b 96 09 3e
       0.098130554 -0.21794705 -0.13112552 0.13436167
000070 36 49 ca 3d 92 e7 16 be 79 2e d9 bd 00 9d 1e 3e
       0.09877245 -0.14736775 -0.10604567 0.15489578
