models/LSTM32x32_b512_l20_PROPER_DIFFERENCES.pth (torch, 55535 bytes, 9 tensors)

lstm1.weight_ih_l0 f4 [128, 1]
000000 ea ef 9e ba e9 7a 92 3e 38 c7 21 3e 57 a1 31 3e
       -0.0012125943 0.28609398 0.15798652 0.17346703
000010 ed b2 94 3b 0a b8 d6 3c 5d 82 e2 3d 50 ad 79 3d
       0.004537931 0.026210804 0.11060021 0.0609563
000020 ad 16 03 3e a5 2d 87 3d fa 99 83 3e 71 37 27 3e
       0.12801619 0.06600503 0.25703412 0.16329743
000030 4b 90 b7 3d 6b cb d0 3d 81 af 4a 3e 90 97 16 3c
       0.089630686 0.10195049 0.19793512 0.009191409
000040 9a d2 30 bd 11 39 10 3d ee 98 20 3e fb de ce 3d
       -0.043169595 0.035210673 0.15683338 0.10101124
000050 00 03 e5 bc 75 ec 3c bd 06 aa 43 3e 2d ca 19 3e
       -0.027955532 -0.04612394 0.19107828 0.1501853
000060 00 dc 8f 3e 5e d2 f9 3d cf 9d 2e 3e 64 12 7b 3d
       0.28097534 0.121983275 0.17052387 0.061296836
000070 a3 b2 cd 3d e6 fc 92 3c 03 96 1c 3e f5 3e c9 3d
       0.10043838 0.017942857 0.152916 0.09826461
000080 16 0a f4 3d 22 28 94 3d 2c c8 63 3e b9 fd 2f 3e
       0.11915986 0.07234217 0.22244328 0.17186631
000090 5a eb e2 3d 5c 4e 45 3d e2 54 73 bd 01 bb 5f bd
       0.11080046 0.048170432 -0.059407122 -0.0546217
0000a0 53 d4 87 bd 38 d7 03 3e 2f 62 1c 3e e6 ef 57 3e
       -0.066322945 0.12875068 0.15271829 0.21087608
0000b0 b8 c4 c7 bd 0e cc 61 3e cc ac 4f 3e 35 e0 38 3e
       -0.09754318 0.22050497 0.2028076 0.18054278
0000c0 9c dd 66 3d 45 d2 d8 bb fb a6 e2 3d 49 18 8c 3d
       0.056363687 -0.006616863 0.11067005 0.068405695
0000d0 bd 8a 84 3e b0 d4 27 3e 7b d4 ac 3c 8e 02 f9 3d
       0.258871 0.16389728 0.021097412 0.121586904
0000e0 2d 3f 03 3e 34 d0 9c be 6f f8 78 3e 04 db 7b 3e
       0.12817068 -0.30627596 0.2431352 0.24595267
0000f0 d5 cf 89 bd 9b ba 1d 3e 66 14 65 3e b5 8c 7c 3d
       -0.06729094 0.15403216 0.22371063 0.061657626
000100 9e 16 c7 3d c4 44 f7 bd cb 33 cb 3d f4 61 9e be
       0.09721111 -0.12073663 0.09921988 -0.30934107
000110 11 a7 72 3e 28 c2 36 3e 9c 36 a5 3d 35 5b da 3d
       0.23696543 0.17847502 0.080670565 0.106619276
000120 19 96 c8 bc 23 46 70 3d be b5 fa 3e a1 46 7f 3e
       -0.024485635 0.058660638 0.48966783 0.24929287
000130 e2 e5 f9 bd b4 d5 1f be 42 78 1d bd f7 ad 04 3e
       -0.1220205 -0.15608865 -0.038444765 0.12956987
000140 b9 d7 c2 3d b4 87 62 3d 47 32 b9 3e ec aa 61 be
       0.09513802 0.055305198 0.3617117 -0.22037858
000150 f0 04 10 3e 08 54 25 3e dd 13 32 be 82 7d 86 3d
       0.14064384 0.16145337 -0.1739039 0.065669075
000160 14 d5 ec be 64 d7 9f be f1 59 8c be e4 d1 25 3e
       -0.46256316 -0.31219018 -0.2741237 0.16193348
000170 54 ca 3a bd c1 e9 5a be 26 da 57 3e 03 34 2d be
       -0.04560311 -0.21378233 0.21079311 -0.16914372
000180 30 ed 35 3d e7 8a a6 3d 72 55 51 3e b1 80 bb 3e
       0.044415653 0.08131962 0.20442751 0.3662162
000190 ac 2a 93 3d 19 5b 43 3e d5 4a 8f bc 2b ab d9 3d
       0.071858734 0.1907772 -0.017491737 0.10628351
0001a0 cd 60 bc 3d f2 fc 88 bb 69 05 f7 3e 00 cf 26 3e
       0.09198151 -0.004180544 0.48246315 0.16289902
0001b0 1c 9e 0a be 28 c3 51 3e 53 25 b2 be 8f 14 58 3c
       -0.13536876 0.20484602 -0.347941 0.013188495
0001c0 6a b8 65 3c df 97 a4 3d b9 40 91 3e 01 2b 75 3e
       0.0140210185 0.080367796 0.28369692 0.23942186
0001d0 6b 8a 4e bd 9b 95 7d bd c6 81 2e 3e d0 73 0f 3e
       -0.050424974 -0.061910253 0.17041692 0.14009023
0001e0 92 e4 ea 3e 6f 4e 1d bd 83 73 32 3f 49 92 51 3e
       0.4587751 -0.03840488 0.69707507 0.2046596
0001f0 0a 83 16 3e 21 6f 83 3e 10 be 2b 3d d5 34 2b 3e
       0.14698425 0.25670722 0.041929305 0.16719373

lstm1.weight_hh_l0 f4 [128, 32]
000000 45 07 91 3d 87 cb fd bb ee 72 45 3d 05 9b 0e bd
       0.07081465 -0.0077452096 0.04820531 -0.034815807
000010 6f be 84 3d 70 a3 32 3d e1 45 36 3d db 41 3c 3c
       0.06481635 0.043612897 0.044500235 0.011490311
000020 a4 ab 54 3b fe 7c e9 3c e2 03 35 3b 57 65 44 3d
       0.0032450939 0.028501984 0.0027620723 0.047948208
000030 14 be 13 3d 2a 45 35 bd 01 78 88 3d b7 d1 c6 3c
       0.036069945 -0.044255413 0.06663514 0.024269922
000040 15 c7 80 3d 03 d6 c9 3b ff b3 b0 3c 7c 3d 0d bb
       0.06287972 0.0061595454 0.021570204 -0.002155154
000050 49 92 5a 3d a8 32 08 bc f5 f7 72 bd f2 41 7f 3d
       0.053362165 -0.008312859 -0.0593185 0.06231875
000060 0c 46 3d bd 07 8c eb 3c c4 d2 92 bd b3 d8 0a 3d
       -0.04620938 0.028753294 -0.071691066 0.033898067
000070 53 86 10 bd eb 56 4e bd af b8 50 3d 89 4e 7b bc
       -0.03528435 -0.05037586 0.050957378 -0.015338548
000080 6e 79 95 3d 67 88 24 3c 15 54 34 bd 7f 51 d6 bd
       0.072985515 0.0100422865 -0.0440255 -0.10464763
000090 33 58 b1 3d 4e 34 2e 3d 89 98 18 3d 4b 8d e0 bb
       0.08659401 0.04253035 0.037254844 -0.006852781
0000a0 92 02 d4 bc f7 3c 27 bd a5 99 e2 3c 25 29 0b 3b
       -0.025880132 -0.040829625 0.027661154 0.002123424
0000b0 cb b5 19 bc 1c 47 12 be 7d cb 85 3c 67 1b be 3b
       -0.009381722 -0.14284939 0.016332382 0.0058016065
0000c0 d3 0d 8f 3c 8c 9f a1 3c 86 25 55 3d 24 fe a6 3b
       0.017462647 0.019729398 0.05203774 0.005096214
0000d0 96 3a f9 bb b3 8b 8d 3d 0c 05 a6 3c b7 7d b6 3d
       -0.007605861 0.06911411 0.020266078 0.08910697
0000e0 95 1f 77 bd e8 16 51 bd 18 2d 3f bd 11 ab 77 3d
       -0.060332853 -0.051047236 -0.046673864 0.060465876
0000f0 23 09 b1 bc ab fe 91 bc e2 54 af 3c 3b f8 12 3d
       -0.021610802 -0.01782163 0.02140278 0.035881262
000100 7a 52 6f 3d 6a 25 4f bc f5 09 88 3d 12 2b 2f bd
       0.058428265 -0.012643198 0.06642524 -0.042765684
000110 44 50 90 3d d8 53 86 3d f3 ba 1e 3d 02 1b bd 3c
       0.070465595 0.06558961 0.038752507 0.023084167
000120 62 52 19 3c 03 70 1e 3c 1e 32 45 3d ef 18 1e 3d
       0.0093580205 0.00967026 0.0481435 0.038597997
000130 70 fe 50 3d 86 52 88 bd c8 88 3a 3d 14 00 c4 3c
       0.0510239 -0.06656365 0.0455406 0.023925819
000140 7a 0f 1d 3d a0 88 1c 3c 32 7b f3 3c 59 41 71 39
       0.038344838 0.009554058 0.02972183 0.00023007895
000150 f6 ed 33 3c 22 99 a9 3b dc 2a 86 bc fa e9 c4 3c
       0.010982027 0.0051757256 -0.016377859 0.02403735
000160 9c 8a 39 bd de 29 9a 3a 0d 79 63 bd d9 db fa 3c
       -0.045298204 0.0011761745 -0.055535365 0.03062241
000170 96 28 93 bc ae f3 13 bd ec a7 f8 3c 13 6a 57 bb
       -0.017963689 -0.036121063 0.030353509 -0.0032869622
000180 4b d8 f0 3d fa bd cb bc 26 5f 8c 3d 1a 74 f3 bd
       0.117600046 -0.024870861 0.068540856 -0.11887379
000190 4f 52 51 3d 61 f2 06 3e 56 3e e9 3d c4 8c 18 3d
       0.051103886 0.13178398 0.11388843 0.03724362
0001a0 50 de 4b 3d 84 30 3d 3d f9 1b e8 3b 32 3f a9 3d
       0.04977256 0.046188846 0.0070834127 0.08264007
0001b0 c2 a2 de 3d 39 3d 1e bc b7 60 93 3d 43 99 15 3d
       0.10870887 -0.009658151 0.07196181 0.036523115
0001c0 05 05 cb 3d c8 3e 4f 3d 29 05 a9 3d 96 8b 04 3c
       0.09913067 0.050596982 0.08252937 0.0080899205
0001d0 01 ea 8f bc 30 46 0e 3d 57 95 37 bd 49 46 98 3d
       -0.017567636 0.034734905 -0.044820156 0.07435281
0001e0 ec c3 85 bd b3 d4 a6 3d 5b 86 80 bd 62 9c b1 3c
       -0.0653151 0.08146038 -0.06275626 0.021681014
0001f0 06 25 7f bd d1 b1 dd bd 36 62 88 3d 0a cf 00 bd
       -0.062291168 -0.108249314 0.06659357 -0.031447448
000200 dc 80 6e 3d 49 c5 12 bc ac 08 7c 3d 15 f3 14 bd
       0.05822836 -0.008958169 0.061531708 -0.036364634
000210 10 4a 86 3d e4 d2 91 3d c1 c3 36 3d a6 d0 b8 3c
       0.06557095 0.07120302 0.04462028 0.022560429
000220 a2 87 9d 3c 7e 0f 78 3c 34 e2 46 3d 3d 45 19 3d
       0.019229714 0.015140412 0.048555568 0.037419546
000230 c5 c9 40 3d 24 bf 4c bd dd c1 90 3d fe f3 66 3c
       0.047067422 -0.049986973 0.070682265 0.014096258
000240 35 5a 96 3d a8 f1 25 3c 89 fc bc 3c 1b 73 3b bb
       0.073414244 0.010128416 0.023069637 -0.0028602544
000250 cb b7 b6 3c 99 a4 8b 3b ed a5 07 bd 84 73 94 3d
       0.022304436 0.004261565 -0.033117224 0.07248595
000260 47 c9 12 bd 6e 6c 10 3c b0 e1 6b bd 98 1c 2d 3d
       -0.035836484 0.008814914 -0.05758828 0.042263597
000270 f4 0a c8 bc 70 c2 42 bd 56 b0 de 3c 0a 80 25 bc
       -0.024419285 -0.04754871 0.027183693 -0.010101328
000280 d0 31 63 3d 67 98 79 3a c7 1f ba 3d bd fe 63 bc
       0.055467427 0.0009521306 0.09088092 -0.013915715
000290 66 3d 27 3d 29 d1 ba 3d 85 0f 6f 3d 3b 9e 64 3c
       0.04083004 0.091219254 0.05836441 0.013953741
0002a0 f9 a3 9a 3c 52 90 d1 3c 0d 1a 02 3d a1 8a 4e 3d
       0.018877016 0.025581513 0.031763125 0.050425176
0002b0 73 65 68 3d 15 cf f2 bc 95 34 c2 3d e2 fd 34 3d
       0.056737375 -0.02963976 0.094826855 0.044187434
0002c0 65 5b c2 3d 61 e9 96 3b a1 a7 bd 3c 9d ff a7 3b
       0.094900884 0.0046054577 0.02315122 0.005126907
0002d0 69 83 ab 3c be e9 16 bb 83 3f 2c bd 0e f8 59 3d
       0.020936685 -0.0023027505 -0.042052757 0.05321508
0002e0 04 23 49 bd 75 84 ec 3c d3 72 9c bd 7b d9 93 3d
       -0.04910566 0.028871754 -0.076390885 0.072192155
0002f0 8e 28 2e bd c3 ce 2f bd 0c b2 16 3d 20 30 58 bc
       -0.042519145 -0.042921793 0.036790892 -0.013195068
000300 fa 8c fa 3c 07 12 08 bd ea ba 1b bd 63 58 24 bd
       0.030584801 -0.033220317 -0.038020052 -0.040123355
000310 00 df b1 bc 4d 7d e1 3d 94 9b 02 3d 31 5f 12 bd
       -0.02171278 0.11010227 0.031886652 -0.035735313
000320 6d d7 c2 bc ea d4 ef 3c 10 1b 95 3d f3 75 28 3d
       -0.023784364 0.02927633 0.072805524 0.04112811
000330 07 48 54 3c 7c 80 8b bc 23 6c 85 3d 85 49 c8 bc
       0.012956626 -0.01702904 0.06514766 -0.02444912
000340 1d f3 97 3d bc eb d0 3c d6 cd 93 3c cd b8 28 bd
       0.07419417 0.025503032 0.018042486 -0.041191865
000350 e9 d4 0f 3d d0 73 86 3d 62 2b 11 bd 73 20 2c bd
       0.035115156 0.06565058 -0.035441764 -0.042023133
000360 a8 fa 91 bd 93 89 17 3b ee ae a9 3b fb 80 c2 3d
       -0.07127887 0.0023122772 0.005178324 0.09497257
000370 aa 9f 16 bd c2 f7 20 bd 59 3b ad 3d 92 6d 01 bd
       -0.03677336 -0.03929878 0.08458585 -0.031598635
000380 e7 8b 83 3d 0c 8a 51 3b 64 30 9d 3d fa 4c 0d bd
       0.06423169 0.0031973151 0.076752454 -0.03449724
000390 5a 22 57 3d b2 dd 32 3d 86 9d 3e 3d 3a 79 73 3c
       0.052522995 0.043668456 0.046536945 0.014860446
0003a0 57 27 e9 3c 9a b2 e0 3c bb 22 72 3c 2c 77 29 3d
       0.028461142 0.027428914 0.014778788 0.041373417
0003b0 5a 97 7f 3d 1e 46 ac bc ba 80 79 3d bb 80 8a 3c
       0.0624002 -0.021029528 0.06091378 0.016907087
0003c0 73 db 63 3d d5 4c 09 3c 87 07 f4 3c d4 d7 38 3c
       0.055629205 0.008380135 0.029788746 0.011281926
0003d0 8c e6 9f 3c 6b c5 75 bb c7 79 11 bd f3 42 3d 3d
       0.019519113 -0.0037501703 -0.035516527 0.046206426
0003e0 14 70 1b bd 68 a6 1a 3c e4 06 5a bd 2d b2 08 3d
       -0.037948683 0.009439088 -0.053229228 0.033373047
0003f0 d5 6c 0b bd 3a 2d 5a bd a0 96 02 3d 12 5e 27 bb
       -0.034039337 -0.053265788 0.03188193 -0.0025538248

lstm1.bias_ih_l0 f4 [128]
000000 65 43 18 3d be 56 d0 bc 67 db da 3b c9 68 eb 3d
       0.037173647 -0.025431987 0.006678987 0.114945956
000010 e7 fb 10 3e 65 a0 51 3c 78 9d 7e bc 34 6d d5 3d
       0.14158593 0.012794589 -0.015540473 0.104212195
000020 ef a7 9c bb ba 80 c0 3c 6d 0b b4 3d c3 d9 e4 3d
       -0.0047807614 0.023498882 0.08791242 0.11174347
000030 72 f0 f4 3c 9a 37 2e 3e 68 aa 0d bd 88 54 af 3d
       0.02989981 0.17013398 -0.03458634 0.08561045
000040 4d ff 0a 3e c5 23 4e 3e fd 54 98 3d 92 65 37 3e
       0.13573952 0.20130832 0.07438085 0.1790984
000050 9d 48 c7 bc de 03 1c 3e 27 b6 32 3e a9 5f 30 3e
       -0.024326617 0.1523585 0.17452298 0.17223991
000060 de ca 65 3e 61 97 69 3e a3 de 46 3e 09 13 4b 3e
       0.22440669 0.22811653 0.19420867 0.1983148
000070 67 52 0c bd 4e 54 47 bd 1f c0 83 3b ab 04 48 3e
       -0.034258272 -0.048664384 0.0040207054 0.1953303
000080 37 f1 9a bc 68 5a 13 3e d3 f8 e1 bc 92 ae 06 3e
       -0.018913848 0.14389956 -0.027584469 0.13152531
000090 4d ab 15 3d b1 af 8f 3c dd 22 d4 3d 34 77 8b bc
       0.03654032 0.01753983 0.10358212 -0.017024614
0000a0 d3 2b 13 3e 0b 2e 7d 3d 33 63 86 bd 14 11 8e 3b
       0.14372186 0.061811488 -0.065618895 0.004335532
0000b0 1e 41 9b 3d 94 0c a3 bc a1 b6 29 3e 50 4f 03 bd
       0.075807795 -0.019903459 0.16573574 -0.03205806
0000c0 3e ff 96 3d 42 44 cf 3d 2a 42 13 bd 89 02 65 bc
       0.07372902 0.10120441 -0.03595177 -0.013977655
0000d0 45 f2 8a 3e 4b e1 8a 3d 6f f7 35 3e c1 af 22 3c
       0.27137962 0.067812525 0.1777017 0.009929598
0000e0 0d 9b 8d bd 06 b4 5d 3d 6c dd 20 3e 7b 48 80 3e
       -0.06914339 0.05412676 0.15709466 0.25055298
0000f0 20 1e 75 bc 5e 83 8d 3d 1f 61 d2 3d 97 9e ac 3d
       -0.014960796 0.06909822 0.10272431 0.08428686
000100 f8 11 79 3b 8f ce 33 3d b9 cf 39 3e b9 0e 1d be
       0.0038005095 0.04389816 0.18145646 -0.15337647
000110 0e 8f 24 3e 4e 0b 88 bd 19 27 d5 3d 09 f1 02 3e
       0.16070196 -0.06642781 0.10407848 0.1278726
000120 42 fd 16 3e fe 1f 0a be 7c 61 06 3e 2d 52 68 bc
       0.14745048 -0.13488767 0.13123125 -0.0141797485
000130 41 59 ca 3d 34 7e 00 be ba 22 26 3d ef 22 dd 3c
       0.09880305 -0.12548143 0.04056046 0.026994197
000140 f8 62 d1 3d 29 dc 18 be 81 bc cf bd 2a ae 10 3e
       0.10223955 -0.14927734 -0.10143376 0.14128938
000150 21 41 05 3c 29 ee 1e be c6 bf 1d 3c e9 65 1f 3e
       0.008133204 -0.15520538 0.009628242 0.1556622
000160 6e 7f 99 3d 8e 52 1e 3b 6a 3d a9 bc 42 c5 be 3d
       0.074950084 0.0024158093 -0.020659167 0.09314968
000170 0d 7e dd 3d dd e9 9a bd e5 72 cc bd ff 24 8a 3d
       0.10815058 -0.07564137 -0.09982852 0.06745338
000180 d5 87 b6 3d 61 1e 7e 3d 75 a6 10 3e 10 e8 9b 3d
       0.08912627 0.06204069 0.14125998 0.07612622
000190 35 26 9f 3d 44 7d ea 3d bc 46 12 bc 3e 95 c9 bc
       0.07770959 0.11449674 -0.008927997 -0.024607297
0001a0 bd 08 14 3e 38 51 b3 ba 15 ed 0a 3e 6a ea 05 3e
       0.14456458 -0.0013680821 0.13567002 0.13077703
0001b0 96 8a ec 3d 11 ca 19 3e ed 1b b2 3b af 60 73 3d
       0.11549871 0.15018488 0.005435458 0.059418377
0001c0 98 67 40 3e 62 7a 46 3e 87 fa 25 3e 62 e0 6b 3e
       0.18789518 0.19382623 0.1620885 0.23034814
0001d0 2a 89 e5 3d b1 93 0f 3e bd 2c 62 3e f4 44 37 3e
       0.112078026 0.14021184 0.22087379 0.17897397
0001e0 9c cc 28 3e 56 de 5c 3e 4e e7 1b 3e 23 6b 3f bc
       0.16484302 0.2156919 0.15224954 -0.011683258
0001f0 7a 8b 25 bd b8 0a c7 bb f3 7d fe 3c 93 07 ab 3d
       -0.04041622 -0.006074276 0.031065917 0.08351054

lstm1.bias_hh_l0 f4 [128]
000000 2f 43 34 bd 57 66 d4 bc 71 b0 ce bc dc 1b 58 bd
       -0.044009384 -0.025927706 -0.025230618 -0.052760944
000010 72 f6 28 3e 34 98 57 3d da 24 63 bd 2d f9 ba 3d
       0.16500261 0.052635387 -0.055455066 0.09129558
000020 b0 32 41 3d 21 9b 8b 3c 0e db b7 3d 8a 1c 42 3e
       0.04716748 0.017041745 0.08977328 0.189562
000030 9f 90 20 3d bd 22 b4 3d 83 86 a1 bb 2a 93 42 3c
       0.03920042 0.08795688 -0.004929365 0.011875907
000040 bf 4a d3 3d ef 42 ce 3d 38 43 d1 3d 61 a7 34 3d
       0.10316991 0.1007136 0.10217899 0.044104937
000050 6d 17 67 3e 40 6c 07 3e 5d f0 2b bd 28 58 e8 3d
       0.2256753 0.13224888 -0.041977275 0.113449395
000060 32 a8 14 3e ce 1c 34 3e 85 b7 26 3e 9c e8 b8 bc
       0.14517286 0.17589113 0.16280945 -0.022571854
000070 97 d4 1c 3c 8f b5 6b bd 37 6e 33 3e 4d c0 7e 3c
       0.00957217 -0.057546195 0.17522512 0.015548778
000080 10 ef 1a 3e dd 16 db 3c 12 39 a2 3c 3f bf ce bd
       0.15130258 0.0267443 0.019802604 -0.10095071
000090 bf 7f 8d 3d 19 3a 8b 3c 25 a1 af 3d 40 6c 10 bd
       0.06909131 0.016995477 0.08575658 -0.035259485
0000a0 0a 9c 84 3d 09 d8 c9 3d 8a 9a 4e bd d6 e1 3f bd
       0.064750746 0.098556586 -0.05044035 -0.046846233
0000b0 b7 b1 45 3e ce 24 16 3e 7c e0 e2 3d e4 dd 7d bd
       0.19306074 0.14662477 0.11077973 -0.06197919
0000c0 b5 74 56 3e 6c 76 43 3e cf 69 a1 3d 23 9c b4 3d
       0.20942958 0.19088143 0.078815095 0.08818843
0000d0 a2 1a f8 3d 7e 25 e9 bc 2c ef 2b 3c ed a9 42 3e
       0.12114455 -0.02846026 0.010494035 0.19010134
0000e0 82 1f 4f 3d 38 a0 9f bd 6c 5b c9 3c 8b 66 46 3e
       0.050567158 -0.07794231 0.024579726 0.19375055
0000f0 86 e4 94 3d a8 b9 ae bd db f7 4d 3c 08 88 c4 3d
       0.0727015 -0.08531505 0.0125713 0.095962584
000100 47 f8 3c 3e 31 10 f9 3b 43 c2 45 3e a2 17 2a be
       0.18454085 0.007600807 0.19312386 -0.16610578
000110 18 32 05 3d db d0 47 3e 3c 85 ae bd e6 c6 4e 3e
       0.032518476 0.19513266 -0.08521506 0.20193061
000120 59 32 42 3e 52 5a b6 3c f7 dd d1 3d c2 2d 17 3b
       0.18964519 0.022259865 0.102474146 0.0023068045
000130 d8 e2 8d 3d 51 6e 12 be 4f 4d 16 3e cd de 04 3e
       0.06928033 -0.14299895 0.14677928 0.12975617
000140 61 44 88 3d 85 5a 1d 3e 1e 3a 1e 3e ea 9e 48 3d
       0.06653667 0.15366562 0.15451857 0.048979677
000150 0e 41 30 be 0c 2f 90 3d 45 4d 94 3d 79 3f f0 39
       -0.17212316 0.070402235 0.072413005 0.00045823658
000160 60 b0 05 bc f0 64 eb 3d 98 2b 59 be b7 b3 20 be
       -0.008159727 0.11493862 -0.21208036 -0.15693556
000170 62 2b a6 bd 7f 78 ea bd ac 24 2a 3e e7 d1 19 3e
       -0.08113743 -0.11448764 0.16615552 0.15021478
000180 7b 50 6f 3d 4e 7b 5b 3e 9a e2 48 3e ba 74 34 bd
       0.05842636 0.21433756 0.19617692 -0.04405663
000190 e9 f5 1e 3e 10 9b 3c bd 96 5e 68 3d 68 dd 2c 3e
       0.15523495 -0.046046317 0.05673083 0.16881335
0001a0 98 f0 0a 3e 13 e2 ec 3d 81 44 91 3d 27 dd 3b 3d
       0.13568342 0.11566558 0.07093144 0.045865204
0001b0 41 f0 28 3e f5 39 9e bd 7e 38 16 3e 36 54 da bd
       0.164979 -0.07725898 0.14669988 -0.10660593
0001c0 a1 89 b3 3d ae 9a 9d 3d b3 9d 1f 3e b5 21 1c 3e
       0.08766485 0.076955184 0.15587501 0.15247233
0001d0 99 c4 68 3d 4c 28 41 3e d9 9e 52 3e 25 76 87 3d
       0.056828115 0.18863028 0.20568408 0.06614331
0001e0 35 ef 86 3e 97 27 71 3e 59 8c ef 3c 36 ae 33 bc
       0.26354375 0.23550259 0.029241728 -0.010966828
0001f0 e4 a9 cd 3d 3c 60 4c 3d d2 c9 f6 3d 97 34 e9 3d
       0.1004217 0.049896464 0.12050213 0.11386984

lstm2.weight_ih_l0 f4 [128, 32]
000000 06 6a ae 3d 9f 14 3a 3d b5 d4 cf 3d 41 20 1c bd
       0.08516316 0.045429822 0.101479925 -0.038116697
000010 fa 3f d4 3d dc 0f c4 3d c7 32 73 3d aa f5 13 3d
       0.10363765 0.095733374 0.059374597 0.036122955
000020 50 2b 1e 3d e0 7c 6d 3c 0f 5b 2c 3d 90 0d 6c 3d
       0.038615525 0.014495105 0.042079028 0.05763012
000030 92 5b bc 3d b3 bb b5 bd 66 aa c3 3d 86 1e 30 3d
       0.09197153 -0.088736914 0.09553985 0.04299786
000040 7e b8 e0 3d d9 1f 70 bc a4 1b 52 3d 8a 60 c1 3c
       0.10972689 -0.014656031 0.05129589 0.023605604
000050 95 1f d3 bc e0 1b e0 bc ea 03 dd bc e6 0f b6 3d
       -0.025771895 -0.027357042 -0.026979405 0.08889751
000060 82 04 4a bd ff 7b 64 3c d3 d5 c9 bd 96 ba 92 3b
       -0.049320705 0.013945579 -0.09855237 0.004477809
000070 30 4b e3 bc 36 f3 6d bd d2 ce b7 3d 8a da 1b 3c
       -0.027745813 -0.058093272 0.08974995 0.009512553
000080 05 74 d8 3c 83 a7 a8 bb d7 c8 f5 3c 0e b2 23 bc
       0.02642251 -0.005146922 0.030002994 -0.009991182
000090 9a 4e ef 3c d1 0b d9 3c 87 33 b5 3c 56 38 73 38
       0.029212285 0.026494892 0.022119297 5.798818e-05
0000a0 ab 45 41 3a b7 f3 32 3c a7 71 fc 3b 93 bf 7f 3c
       0.0007372747 0.010922364 0.007703978 0.01560964
0000b0 29 83 cc 3c f2 0b 95 bc 9b 5e e0 3c cd 59 cf 3b
       0.024964886 -0.018194173 0.027388861 0.0063278438
0000c0 40 48 f7 3c b3 4e a7 3b ed 4e 09 3c 08 69 c4 ba
       0.030185819 0.005105817 0.008380634 -0.0014984915
0000d0 e3 8d 33 3c af ae a7 3b 16 17 1b bc f9 e0 da 3c
       0.010959121 0.0051172595 -0.009465953 0.026718603
0000e0 ad a4 62 bc 78 84 10 3c da f7 b0 bc 87 60 ad 3c
       -0.013833207 0.0088206455 -0.02160256 0.021164192
0000f0 0f 09 82 bc ee 75 93 bc ee 8d 51 3c 5f 93 0d bc
       -0.01587346 -0.01800057 0.012790186 -0.008641093
000100 6c 9b 4a 3d 48 4b b2 bc 4c d2 05 3a eb ce 8c 3c
       0.049464628 -0.021764413 0.0005104884 0.01718851
000110 62 c9 e2 bc 22 a7 30 3d aa 42 4a 3d 44 b3 80 bc
       -0.027683917 0.04312814 0.049379982 -0.01571048
000120 09 81 e6 ba 24 37 2b 3c 99 b6 25 3b c2 91 9c 3c
       -0.0017586063 0.010450158 0.0025285839 0.019112471
000130 8d 96 73 3d f0 6e 26 bd 6d 5b 8c 3d e7 d7 92 3c
       0.05946975 -0.040633142 0.068533756 0.017925216
000140 b7 8c 12 3d d2 87 99 3b 6f 4e 0b bd 7e b3 bb bc
       0.035778727 0.0046853805 -0.034010347 -0.022912737
000150 14 ba 2b 3d 5b 68 8b 3c 98 ea b9 bb af 88 97 3c
       0.041925505 0.017017534 -0.0056737177 0.018497793
000160 ba a7 9c 3b 3c e3 6c 3d b7 aa 42 3c e4 66 8d 3d
       0.0047807368 0.057833895 0.011881522 0.069043905
000170 cd f7 0f bd 2c 7e 29 3d e2 d5 e3 3b 95 e4 4e bd
       -0.03514843 0.041380093 0.006952987 -0.05051096
000180 1d 45 0c 3d e1 a9 bd 3b 41 87 19 3d 6a 6e 49 bb
       0.0342456 0.0057880734 0.037482504 -0.0030735978
000190 ac be 21 3d 6d 99 ff 3c 14 0e ad 3c 19 64 bf 3b
       0.03948848 0.031201089 0.021124877 0.00584079
0001a0 39 26 12 3c 18 f3 37 3c 5b c6 4d bc be 42 25 3c
       0.008920246 0.011227392 -0.012559499 0.010086713
0001b0 3b 42 07 3d 4b c5 b3 ba 32 6e 2c 3d b6 64 ad 3b
       0.033022147 -0.0013715414 0.042097278 0.0052915467
0001c0 be d6 2c 3d 07 a3 b3 3a 50 66 5d bb 57 bd 06 3c
       0.04219698 0.0013705202 -0.0033782907 0.008223853
0001d0 da 30 b7 3b 43 46 89 bb ee 0d 50 bc 2a 3c 0a 3d
       0.0055905404 -0.004189284 -0.012698634 0.033748783
0001e0 e7 26 0a 3c 32 d4 a1 3c b9 6f 92 bc ab 2f 42 3c
       0.008432127 0.019754503 -0.01787554 0.011852185
0001f0 23 cd 3a bc 2e db 95 bc c3 83 b2 3b 9a 0f 3f bb
       -0.0114014475 -0.01829299 0.005447836 -0.0029153586
000200 e7 87 49 3d 3d d2 a4 bc 5f 67 13 3d 38 79 1b 3c
       0.049201872 -0.02011978 0.035987254 0.00948935
000210 9b 65 54 ba 31 98 a4 3c e6 29 fe 3c 29 fb e7 3b
       -0.00081022986 0.020092102 0.031025838 0.007079501
000220 a4 74 fb 3b bd f7 65 3c cd 99 ca bc 3d ca cf bb
       0.0076738168 0.014036116 -0.024731541 -0.0063412474
000230 bb 8d 5d bb d4 6f cb bc 1f f8 89 3d cf c9 04 3c
       -0.0033806402 -0.024833597 0.067367785 0.008104756
000240 b3 2c 8e 3d b2 1b 3a 3b 34 8b 8c ba 73 7a d0 3b
       0.069421194 0.0028397855 -0.0010722638 0.0063622533
000250 b5 fa 62 3d ed be 8a bc 90 d0 d9 3b e1 bf dc bc
       0.055414874 -0.016936744 0.006647177 -0.026946964
000260 04 96 03 3d 94 d2 cf 3c e9 e0 25 bd c0 df fc b9
       0.032125488 0.025368966 -0.040497694 -0.00048231892
000270 6a 19 ab bc dd 2b 61 3c 0d 1b b9 3c 2f 60 77 3a
       -0.020886142 0.013743368 0.022595907 0.0009436635
000280 ba 86 e6 3d 21 61 33 3d a5 74 1a 3e 64 55 d5 bd
       0.11256166 0.0437938 0.15083559 -0.104166776
000290 83 a3 19 3e 1f 7e ff 3d 0e 1b c7 3d 81 51 5a 3d
       0.15003781 0.124752276 0.09721957 0.053300384
0002a0 ce 72 25 3d a5 13 7b 3c 67 fd 75 3d 81 fe db 3d
       0.04039269 0.015324508 0.060056116 0.10741902
0002b0 b7 3f eb 3d 0d 90 e4 bd 3d 5b 17 3d d7 d1 18 3d
       0.11486762 -0.11160288 0.036952246 0.037309494
0002c0 9c a4 0a 3e b2 b7 3f bc 61 b4 8b 3d 19 bd 11 ba
       0.13539356 -0.011701511 0.06821514 -0.0005559489
0002d0 4a b8 41 3a b9 76 aa bc 12 28 2b bd 17 5f d7 3d
       0.0007389827 -0.020808564 -0.04178626 0.10516184
0002e0 0b f6 b2 bd d4 ea 64 3b 4d f4 1d be 69 41 f3 bc
       -0.08738335 0.0034930008 -0.15425225 -0.029694276
0002f0 98 bc 5c bd 5c 44 0a be 67 12 c7 3d 04 05 17 3c
       -0.053890795 -0.1350264 0.09720307 0.009217504
000300 39 e3 60 3c 68 cf c5 bc cf 77 17 3d af 7b f1 3c
       0.013726049 -0.02414675 0.036979493 0.029477922
000310 4a 3a 50 bd 91 d8 5a 3d 13 c7 5f 3d 9a 30 50 bb
       -0.05083684 0.05342919 0.05463321 -0.003176725
000320 06 81 e0 3b dd f4 0d 3d 1d b8 0c bd 89 98 67 bc
       0.0068513183 0.034657348 -0.03435527 -0.014135488
000330 8e 6f 44 3d b1 fd 35 bd dd 96 6a 3d 39 46 a6 bc
       0.04795795 -0.044431392 0.05727278 -0.020297157
000340 12 0b 3a 3d 37 8c 55 bb 0f 9e 31 bc 82 6d 50 bc
       0.045420714 -0.0032584795 -0.010840907 -0.012721421
000350 66 42 85 3d d1 92 56 bc 34 54 74 3c 16 10 ca bc
       0.06506805 -0.013096527 0.014912654 -0.024665873
000360 e6 67 66 3c 16 23 9b 3d 63 dd bb 3c bf 56 92 bc
       0.014062857 0.075750515 0.022932714 -0.01786363
000370 ba f6 4c bc cc 04 20 3c 6e d5 ec bb 2f 4c 5b bd
       -0.012509996 0.009766769 -0.0072275912 -0.05353945
000380 a5 5b 9b 3c db b0 27 bd 0a 18 f6 3c b7 a0 80 3b
       0.018964598 -0.040940147 0.03004076 0.0039254087
000390 7e e7 60 bc 55 e7 3f 3c 6c 6f eb bb a2 fa b6 3b
       -0.013727067 0.011712869 -0.0071849134 0.005584077
0003a0 74 a3 54 bc 8b 27 2c 39 b0 7f 10 bd f6 12 b4 ba
       -0.012978423 0.00016417929 -0.035278022 -0.0013738561
0003b0 10 ba 56 3c bc a5 c8 bb 46 a0 e6 3c 1a 66 0e bc
       0.013105884 -0.0061232727 0.028152596 -0.008691335
0003c0 bf 17 f0 bc bf 8f 71 3c f7 5b 4c 3c 6d e0 7f 3b
       -0.029308198 0.014743744 0.012473098 0.003904368
0003d0 f5 85 31 bd 53 ee 2a 3c 98 cf 07 3b 42 8b 1c 3c
       -0.043340642 0.0104327975 0.00207231 0.009554686
0003e0 d0 9e 05 bb 60 20 09 3d 21 88 16 bd cd a6 c4 3c
       -0.002038885 0.03347814 -0.036750916 0.024005318
0003f0 93 f6 bf bc d6 37 92 b9 1e 25 0a 3d 51 1d 2f bd
       -0.023433005 -0.0002788889 0.033726804 -0.042752568

lstm2.weight_hh_l0 f4 [128, 32]
000000 cc 19 e7 3c ab cf 9a bd 77 b8 20 3d 3e 5a b1 3c
       0.028210543 -0.07559141 0.03923842 0.021649476
000010 20 d8 6d 3d 42 d8 8f bc 96 1b 40 bd 6a 7f 12 3d
       0.05806744 -0.017559174 -0.046901308 0.035766043
000020 1c 8c 6d 3d 6b de 6a bd b5 3a 46 bd 00 be 8b bd
       0.057994947 -0.05734102 -0.04839583 -0.06823349
000030 2e e8 a6 3d 8a 29 02 bd 51 a5 80 bd e6 31 36 bd
       0.081497535 -0.031777896 -0.062815316 -0.04448118
000040 65 c0 f0 bc 6c c6 08 3d 24 f1 06 3d ee 72 9e 3d
       -0.029388616 0.033392355 0.032944813 0.07736765
000050 f5 dc 99 bd fb 40 41 3d 6f a2 be 3a 71 11 dd bc
       -0.07512847 0.04718111 0.0014544259 -0.026985856
000060 62 78 02 bd 4d a0 e5 bc b8 0c 20 3c 33 50 24 bd
       -0.031853087 -0.028030539 0.009768657 -0.040115546
000070 8f c7 05 bd bb f2 1c 3d 77 d1 3c bd fa bc 63 bd
       -0.032661017 0.038317423 -0.0460982 -0.055600144
000080 4a 59 a8 3c 8c a8 b1 bc d8 df 86 3c aa d7 a4 3b
       0.020550389 -0.021686815 0.016464159 0.005030592
000090 84 ab 54 3c e6 37 34 bc 0d 62 3a bc 84 52 1f 3c
       0.012980346 -0.010999655 -0.011375916 0.009724263
0000a0 cd 32 8b 3c 13 67 46 bc d8 9b 32 bc 88 aa a3 bc
       0.016991997 -0.012109536 -0.010901414 -0.019978777
0000b0 64 2e db 3c 69 19 04 bc 83 8e 69 bc bc 5d 53 bc
       0.02675552 -0.008062699 -0.014255169 -0.012900766
0000c0 66 fb 17 bc 35 91 fd 3b 1e 5d 89 3c c4 58 c3 3c
       -0.009276247 0.0077382573 0.016768035 0.023846038
0000d0 c6 57 ae bc c0 85 a5 3c b3 a0 6e 3a 32 de af bb
       -0.021282088 0.020205379 0.00091029255 -0.005367064
0000e0 2d 8d 52 b9 4a 91 08 bc a2 4d e6 3b 2a 00 98 bb
       -0.00020079753 -0.008335421 0.0070282975 -0.0046386914
0000f0 4b d0 6a bc 96 6c 2f 3c 91 a3 f7 bb 5e c0 ca bc
       -0.0143318875 0.010707041 -0.0075573404 -0.024749931
000100 3c ab d6 bb 8d b2 bc bc 49 76 5e 3c e0 b0 8a 3c
       -0.0065511744 -0.023034358 0.013578006 0.016930044
000110 ce 9f e8 3c fb 25 35 bd c4 5e cf bb e8 d6 2e bb
       0.028396513 -0.044225674 -0.0063284356 -0.0026678387
000120 28 db 9b 3c a2 3e a7 bc b7 23 5a bd 27 b5 0d 3c
       0.0190254 -0.020415608 -0.053256717 0.008649147
000130 6b 13 45 3d 44 7d f5 bc c4 47 55 bc 41 20 68 bd
       0.04811422 -0.029966958 -0.013017599 -0.056671385
000140 26 9a d4 bc fb 74 38 3d 9d a0 42 3c 12 fb ae 3c
       -0.02595241 0.045033436 0.0118791135 0.021359954
000150 46 7f 48 bd 50 85 00 3d a7 14 a9 bc 40 33 97 bc
       -0.048949502 0.031377137 -0.02063973 -0.018457055
000160 b8 99 5d bb 26 2c a4 bc 90 45 d5 3c 20 c3 a5 3b
       -0.0033813547 -0.020040583 0.026034147 0.005058661
000170 16 44 31 bd 27 9f 15 3d 61 a2 cb bc 28 31 3c bd
       -0.043277822 0.036528733 -0.024857702 -0.045945317
000180 31 20 be ba 0d 6d d2 bc 1b ef 7d 3c ef b8 d2 3b
       -0.0014505443 -0.025686765 0.015498902 0.006430737
000190 37 0a 98 3c 13 a0 2d bc 37 2c 7f bc 73 32 2a 3c
       0.018559558 -0.010597247 -0.0155745065 0.010388005
0001a0 45 ae 25 3c dd 84 80 bc 13 39 8d bc b8 0c af bc
       0.01011235 -0.015688354 -0.01723913 -0.02136837
0001b0 67 d1 e1 3c 48 bf b7 bb 0e f3 a4 bc 39 a4 12 bc
       0.027565671 -0.0056075193 -0.020135429 -0.008950287
0001c0 26 5e 07 bc ef 86 3d 3c 0f 7c 5c 3c 59 84 c9 3c
       -0.008262193 0.011567815 0.013457312 0.024599241
0001d0 ac dd 72 bc 68 8b 81 3c d6 61 95 bb 92 c2 c1 bb
       -0.0148233585 0.015813544 -0.004558782 -0.005913087
0001e0 d9 06 db bb 54 45 06 3a 1e 7c 59 3b 21 95 45 bc
       -0.006684166 0.0005122025 0.0033185552 -0.012059481
0001f0 1a 8b e3 bb f5 9b 2c 3c ae 32 61 bc 8d 76 83 bc
       -0.0069440724 0.01053523 -0.013744993 -0.01604774
000200 b1 6d b5 ba 24 72 08 bc ec b9 77 3c b2 1a 15 3c
       -0.0013841895 -0.0083279945 0.015120011 0.009100603
000210 78 ea 4f bc 7e 56 05 bc 99 00 10 ba c4 a7 ce bb
       -0.012690179 -0.008138297 -0.0005493253 -0.0063066203
000220 9f a1 12 3c f2 d3 f5 bc ef d3 46 bc ff a8 91 bc
       0.008949666 -0.03000829 -0.01213549 -0.017780779
000230 94 7d 99 bb 3e 03 94 3b 67 79 8d 3b 0a 9b b9 bc
       -0.0046841595 0.004516988 0.004317451 -0.022656936
000240 d6 5c 7b bc ce 45 95 3c 7d 57 83 3c 79 57 28 bc
       -0.015341958 0.018221762 0.016032929 -0.010274761
000250 3e 32 e5 bc a6 8d da 3c 02 9d 9e bb 0c ec 2e bc
       -0.027978059 0.026678871 -0.004840494 -0.010676395
000260 76 2b b5 bb c6 bf 82 bb f7 24 9c 3c d3 50 0e bc
       -0.0055288626 -0.0039901463 0.019060595 -0.008686262
000270 be 17 89 bc 6d ef ad 3c d0 37 43 bc 81 c7 bf bc
       -0.016734954 0.021232331 -0.011915162 -0.02341056
000280 e7 03 f7 bc 45 c3 f4 bd c1 fb a4 3d d7 62 ac 3d
       -0.030153228 -0.11951307 0.08055831 0.0841729
000290 ca 8f d1 3d 24 bf 88 bd 66 cf cd bd ef a1 ad 3d
       0.10232504 -0.06677082 -0.10049324 0.08478152
0002a0 5f 7a cf bb 5f bd b3 bd 91 d7 e1 bd 52 d8 b5 bd
       -0.0063317264 -0.08776354 -0.11027444 -0.088791505
0002b0 f9 c6 e9 3d c2 bf 24 bd bf 5b 06 be fa b9 a6 bc
       0.11414904 -0.040221937 -0.13120936 -0.020352352
0002c0 ab ec 14 bc 07 5e 1b 3d 40 95 98 3d 7d 58 d0 3d
       -0.009089629 0.03793147 0.07450342 0.10173128
0002d0 7a 33 1b bd 72 5d 9f 3d 41 6e ef bb 66 e0 1a bd
       -0.03789089 0.07781495 -0.0073068445 -0.03781166
0002e0 d5 aa 06 ba 9f da 79 bc 30 e0 f3 3c 22 9e 3f bd
       -0.00051371503 -0.015249877 0.029769987 -0.046781667
0002f0 ad 08 a3 bc 07 41 42 3d ac ef 69 bd 59 d8 7b bd
       -0.019901598 0.047425296 -0.057113335 -0.061485622
000300 65 51 86 b9 0d 8b 27 bd 1c bc aa 3c 5e 10 be ba
       -0.00025619115 -0.040904094 0.02084165 -0.0014500727
000310 3d 1e a5 bc 01 e2 66 bc 36 98 24 3b 94 cc 03 bd
       -0.02015602 -0.0140919695 0.002511514 -0.032177523
000320 e8 8d a7 3c 5a c1 a4 bc 78 59 d4 bc a7 55 b1 bd
       0.020453408 -0.020111728 -0.025921568 -0.08658915
000330 89 a3 95 3d ed 56 0f bd 28 ef 37 3c 64 c6 e6 bc
       0.073065825 -0.03499501 0.011226453 -0.028170772
000340 59 66 b1 bc 5a 22 1f 3d 60 4a f1 3c a7 32 10 3d
       -0.021655248 0.03885112 0.02945441 0.035204556
000350 84 9f 28 bc 2e 65 de 3c 02 11 52 bc f4 8f 0d bd
       -0.010291938 0.027147856 -0.012821438 -0.034561113
000360 ac fe 8f bc e8 b3 59 bc 82 2f 47 3d ae e3 85 bc
       -0.017577492 -0.013287522 0.04862929 -0.016343918
000370 bc 35 0d bd f8 56 1c 3d a3 e4 96 bc 23 a5 21 bd
       -0.034475073 0.038168877 -0.01841957 -0.039464127
000380 fc 08 af bb 81 5e da bc c7 b3 3c 3c 46 25 ce 3b
       -0.005341647 -0.026656391 0.011517472 0.0062910644
000390 f5 c9 bb bb cc 75 44 bc 3e 3a c8 bc b9 89 b6 3b
       -0.0057308623 -0.011990976 -0.024441835 0.005570617
0003a0 3e e2 20 3c e4 71 bb 3c 66 60 8a 3b 33 72 f9 bb
       0.009819565 0.022881456 0.0042229174 -0.0076124906
0003b0 23 80 87 3d c6 ed b5 bb df 66 bc 3c bc 6b af bc
       0.06616237 -0.0055520264 0.022998272 -0.021413676
0003c0 f2 99 a7 bc 9e de a9 3c 08 b1 28 3c 07 0d 44 3d
       -0.020459149 0.020736035 0.010296114 0.047863986
0003d0 79 dc 0f bd 39 ce 79 3c 3a 0e 40 bc 0f 43 48 bc
       -0.03512237 0.015246921 -0.011722142 -0.012223019
0003e0 61 91 b4 b8 8a f5 03 bc fe 29 85 3c 64 83 58 bc
       -8.610148e-05 -0.008054147 0.016255375 -0.01321492
0003f0 d6 92 b3 bc 31 87 cb 3c e0 cf f0 bb 93 48 de bc
       -0.021920603 0.024844738 -0.0073489994 -0.027134215

lstm2.bias_ih_l0 f4 [128]
000000 8b f6 e0 3d 63 4a 50 3d 82 0d 39 3d 78 2f 6e 3d
       0.10984524 0.05085219 0.045178898 0.05815074
000010 9f 2b 13 3e f7 4a ec 3d dc 96 d1 bd c0 c6 a5 3d
       0.14372109 0.11537736 -0.10233852 0.08094549
000020 44 6e 21 3e 7a e5 46 3d 1b fe 27 3e 1b 18 59 3d
       0.15764719 0.04855869 0.16405527 0.053001504
000030 3d c1 ba bd 4a 71 dc 3d 3d 7f ae 3d 7f 72 07 3e
       -0.091188885 0.10763796 0.085203625 0.1322727
000040 d8 f4 02 3e d6 5a 3a 3e a3 8a 99 bd a0 f5 fb 3c
       0.12788713 0.18198714 -0.07497146 0.030756772
000050 91 7d 39 3e 8a 82 9f 3c f1 9b 0b 3e a0 b9 4e 3d
       0.18114306 0.019471426 0.13633706 0.050469995
000060 52 cf ed 3d 68 4b 2b 3e 0c a6 3c 3d 3b f6 18 bd
       0.11611809 0.16727984 0.046056792 -0.0373442
000070 59 5b 13 3e 41 df 00 3d e1 be e4 3d d4 24 02 3e
       0.14390315 0.03146291 0.1116922 0.12709361
000080 ee f0 e1 3d 75 13 8c 3c f3 00 73 3d 32 0b 2e bb
       0.11032282 0.017099122 0.059327077 -0.0026556966
000090 9b 5b 6a 3d ba df 13 3e b3 46 11 3e 9e ca bc 3c
       0.057216268 0.14440814 0.14187126 0.023045834
0000a0 81 b1 ad ba aa d2 94 bc 84 5f e9 3d ff e1 33 bd
       -0.0013251753 -0.018166859 0.11395171 -0.0439167
0000b0 f3 fe b1 bc 0a 72 88 bd 6f 4c 89 3d 13 14 13 be
       -0.021728015 -0.06662376 0.06704032 -0.14363126
0000c0 e6 6c f3 bc 5d 91 7e bd 24 10 8a bd 7e 76 d4 3c
       -0.029715013 -0.062150348 -0.0674136 0.025935408
0000d0 e9 10 22 3d da 08 b8 3c 56 19 38 bd a0 f5 16 3e
       0.039566908 0.022465158 -0.044946037 0.14742136
0000e0 d3 bc 59 3b e2 a1 ab 3d f6 ec da 3b 0e 7d 4d 3d
       0.003322412 0.08380486 0.00668108 0.05016809
0000f0 d6 6a 46 3c 68 e0 aa bb 37 19 0e 3e 50 7b 78 bd
       0.012110433 -0.0052147396 0.13876806 -0.060664475
000100 23 4e 00 be f1 45 8a bc 91 75 b0 3d 47 65 b6 3d
       -0.12529807 -0.016879054 0.08616174 0.08906036
000110 a2 5f 98 3d 3c 81 84 3b e0 3d 89 3d 62 06 43 3d
       0.074401155 0.0040437263 0.06701255 0.04761351
000120 3b a4 f5 bc 9f 3c 05 bd 37 3c 17 be 60 4a e2 bd
       -0.029985538 -0.032528516 -0.14769064 -0.11049342
000130 68 10 04 3e 94 84 03 3d 4a 1a d2 bd 8c f3 1c bd
       0.12896883 0.03210886 -0.102589205 -0.038318202
000140 b5 b5 90 bd 3d 4c e8 3b 76 91 cf 3d e4 27 95 3d
       -0.07065908 0.0070891664 0.10135166 0.07282999
000150 39 ce 4c bd af 88 66 bc 5f 8e 51 3b 93 87 84 bd
       -0.050001357 -0.014070674 0.003197573 -0.06471171
000160 2c 44 0e bd d0 bf d1 bd 3f b5 55 3d 40 81 3d be
       -0.034732983 -0.102416635 0.052174803 -0.18506336
000170 7a e1 e7 bd 7c 61 00 3e 58 2f 0b 3d 21 a7 08 be
       -0.11322303 0.12537187 0.033980697 -0.13345005
000180 ae d7 b1 3d 55 26 95 3d 4b 90 5d 3d 69 54 c7 3c
       0.08683716 0.07282702 0.054092687 0.024332242
000190 10 13 ac bd a6 0b 3d 3e 5b b0 6d 3d d3 36 97 bd
       -0.084020734 0.18461475 0.058029514 -0.07383504
0001a0 a7 92 2e 3e ed 23 a1 3d 6f a4 9e 3d 5e 6d fa 3d
       0.17048131 0.078681804 0.07746207 0.122278914
0001b0 c5 80 d3 3d 90 c9 e3 3d 85 7a 23 3d bb 8c 2f 3e
       0.10327295 0.11122429 0.039911766 0.17143528
0001c0 00 3b 0f 3e 98 31 0b 3e 2f e4 fc 3d bf fa 13 3e
       0.1398735 0.13593137 0.1234821 0.14451121
0001d0 19 26 28 3e 4a a2 89 3b 8c 29 1c 3e e1 7b c6 3d
       0.16420783 0.0042002546 0.15250224 0.09691597
0001e0 d7 b4 17 3e 3f 9e 8e 3d 0d 97 5d 3d f7 73 98 bd
       0.14815079 0.06963777 0.05409913 -0.074439935
0001f0 a8 07 08 3e 6c 49 04 3e f4 a5 e4 3d d2 8a 09 bb
       0.1328417 0.12918633 0.111644655 -0.0020987284

lstm2.bias_hh_l0 f4 [128]
000000 39 ca e7 3d 33 73 ee 3c 6f 2a cc 3b eb 4d 0a 3d
       0.11317868 0.029107666 0.0062306444 0.033765715
000010 3d 90 b1 3d d0 6f 90 3e 47 d5 e5 bd 4f 99 a1 3d
       0.086700894 0.28210306 -0.1122232 0.078905694
000020 b5 85 34 3e c8 36 83 bc 5e 44 a8 bd e6 14 0d bd
       0.1762913 -0.016017333 -0.08216165 -0.03444376
000030 a3 91 e0 bd c8 78 ec 3d a4 46 7f bd ee 7d aa 3d
       -0.10965278 0.11546475 -0.062323228 0.083248004
000040 fa 17 0a 3e e6 82 fb 3d 2f 0d 27 3d c3 4c da 3b
       0.13485709 0.12280826 0.040784057 0.0066619827
000050 fa 57 34 3e 9e 1c 62 3d 15 50 f3 3d fd b6 14 3d
       0.17611685 0.055203073 0.11880509 0.036307324
000060 72 c6 17 3e 5e 66 e7 3d 54 ff db bd 4d c1 16 bd
       0.14821795 0.11298822 -0.10742059 -0.03680544
000070 d5 3f f7 3d cb 08 62 3d 2e f9 3a bd 04 5a c3 3d
       0.12072722 0.055184167 -0.045647793 0.095386535
000080 9e 68 46 3d 73 78 27 3c 73 28 2d bd eb 3c d2 bc
       0.048439614 0.010221588 -0.042274904 -0.025663814
000090 3c d9 c1 3c 61 6e 99 3d 96 0f 3e 3d b2 32 81 3d
       0.023663156 0.07491756 0.046401583 0.063084975
0000a0 3e 39 96 3d e7 1f 0d 3c 6d b3 ae bd 3f 05 9d 3d
       0.07335137 0.008613563 -0.085303165 0.07667016
0000b0 b5 35 2c bd 58 df 43 3d 52 20 d8 3d 59 ac c2 bd
       -0.042043407 0.04782042 0.105530396 -0.09505529
0000c0 83 53 30 3d ad 21 fb bd 9b 5f 69 bd d9 eb 69 3d
       0.043048393 -0.122622825 -0.056975942 0.057109687
0000d0 1b 63 f3 bc 87 0c 70 3d b6 ff 44 bd 52 a0 7b bc
       -0.029710343 0.058605697 -0.048095427 -0.015358048
0000e0 9e 37 10 3d b0 c1 70 bd 10 fb f3 3d a9 fe 78 bd
       0.03520929 -0.058778465 0.11913121 -0.060789738
0000f0 89 e8 ca bc f1 5e 3f 3d dd 6d 8f ba 4b 4e 87 3d
       -0.024769085 0.046721403 -0.0010942776 0.0660673
000100 46 df aa bd e5 8a 0d be 4a 8a f9 bd 4a 1c 67 3c
       -0.08343367 -0.13822515 -0.1218458 0.014105866
000110 f0 d1 8e 3c 6e 76 00 3e b5 87 b7 bd b3 95 3a 3e
       0.01743409 0.12545177 -0.08961431 0.18221168
000120 98 e6 16 be 23 bd 62 3d 6c 51 25 be 18 7f 4b bd
       -0.14736402 0.055356156 -0.16144341 -0.049681753
000130 eb 84 56 bb 44 59 d5 bd 61 3a 2e bc c9 b6 40 bd
       -0.0032733034 -0.10417417 -0.010634036 -0.047049318
000140 f0 09 8b bd 7c 51 40 be 43 6f 9f bd 83 85 28 3e
       -0.06789005 -0.18781084 -0.07784893 0.1645718
000150 39 30 60 bc 62 36 21 be 55 15 26 bd 4c ee 0e be
       -0.013683372 -0.15743402 -0.040547688 -0.1395809
000160 38 5b 3e bd 96 3d ff 3d 13 c6 b9 3d 75 5e 07 be
       -0.04647371 0.124629185 0.09070983 -0.13219626
000170 00 5c 9b 3d 69 5d 88 3d d7 8a b0 bc 24 04 bb 3d
       0.07585907 0.066584416 -0.021550579 0.09131649
000180 9d 92 14 3e bd c7 4c 3d 79 77 c4 bc ef 1c 5f 3d
       0.14509054 0.049995173 -0.02398275 0.054470953
000190 b2 95 11 bc 1e fd 88 3e f5 3d ac bd aa 18 b6 bd
       -0.008885788 0.26755613 -0.08410255 -0.08891423
0001a0 d1 2b 4b 3e 25 43 9c 3d 96 57 0b 3e 05 15 9c 3d
       0.19840933 0.07629994 0.1360763 0.07621197
0001b0 3b ed b0 3d 90 93 07 3e 9f 95 19 3e b9 11 35 3d
       0.08638998 0.13239884 0.14998482 0.044206355
0001c0 1e 94 59 3d b7 2b 45 3e 2e 58 2b bd 73 33 06 3e
       0.05311977 0.19254957 -0.04183214 0.13105564
0001d0 c5 1a 14 3e 26 ad 79 bd 4a a1 44 3d 25 c5 8d 3d
       0.14463337 -0.060956143 0.04800538 0.06922368
0001e0 14 01 1f 3e 2b 99 30 3d ab 22 45 bd d3 ad 10 bd
       0.15527755 0.043114822 -0.048128765 -0.03532202
0001f0 fe fd 05 3e 34 f5 2b 3e c0 83 b6 3d 8e ab 2b bb
       0.13085172 0.16792756 0.08911848 -0.0026194784

fc.weight f4 [1, 32]
000000 57 f7 4e bd 2d 81 b3 bc 3b 94 46 3e ab d2 eb 3d
       -0.05052885 -0.021912182 0.19392483 0.11514791
000010 41 54 96 3d 9c 1a cf 3e cb e2 19 be ec ea 89 3d
       0.07340289 0.4044999 -0.15027921 0.06734261
000020 6f e4 1a be 9a 58 09 be a1 13 4a be 2c 0d dd bc
       -0.15126203 -0.13412705 -0.1973405 -0.02698382
000030 0e ac 20 be 3a 8e f1 bd d4 ff 37 be ee 63 77 3e
       -0.15690634 -0.11794706 -0.17968684 0.24159214
000040 8f f4 1b 3e f9 56 79 be 42 dc 8c 3d e0 bd 13 3d
       0.1523001 -0.24349584 0.06877948 0.03606975
000050 c4 71 44 3e 02 91 30 3e 82 93 82 3e 2c bf 0a be
       0.19184023 0.17242816 0.25503165 -0.13549489
000060 e7 46 76 3e c2 db 87 be 83 a6 2a be 50 40 dc 3d
       0.24050485 -0.2653485 -0.16665082 0.10754454
000070 e3 c3 18 3e df b9 62 be 82 0a be bd db 28 63 3e
       0.14918475 -0.22141217 -0.09279348 0.22183554
