models/LSTM32x32_b512_l20_PROPER_RELATIVE_CHANGES.pth (torch, 55595 bytes, 9 tensors)

lstm1.weight_ih_l0 f4 [128, 1]
00000000: f6af 8e3b d82b 4e3e 3f58 a93d 1ca0 103e
00000010: 5962 87bd e20f 933b f8f7 a43d 9316 aa3c
00000020: d229 023e 8986 4f3d 9011 8f3e db21 103e
00000030: c4ea 803d 0abd d63d b8d5 3b3e daa6 44bc
00000040: d4e3 85bd 9a98 9ebc ceaa 7d3e 8513 9c3d
00000050: e84f 9abb ba98 a5bd 98f6 2e3e bb28 2c3e
00000060: bc41 883e 8ab8 16bc 0e40 2e3e 1d4a 803d
00000070: a6b0 d03d 0ae0 82bb a2bd de3d 30a1 be3d
00000080: 3d43 f63d f7fa 0abd cf5c 1e3e bdac 1f3e
00000090: ac09 9a3d f90f eb3c ca5c a2bd 3a0a 08be
000000a0: bd7a c7bd 729f ec3d 20d9 893e 1c1c 013e
000000b0: 1322 07be ae5c 523e 631c 523e 7779 1c3e
000000c0: 6a14 443d a38f 5dbd e8eb 063e e951 973d
000000d0: b5c6 a73e 6899 2a3e caa3 1e3d 0275 133e
000000e0: 567c 703e ef1c f4be 2cba 4f3e f3a3 843e
000000f0: 3696 d3bd e359 183e 334e 393e 4b75 443d
00000100: 2c52 bd3d 1900 fcbd ddf8 823d 955c 9cbe
00000110: 2e5c 533e d273 273e 1285 573d c612 a73d
00000120: 4a52 3ebd 0adb 7d3d d4ce a73e e69e af3e
00000130: 1022 05be 2a5e 1fbe 25ec 04bd a978 e83d
00000140: 159f 9f3d 095c 633d 1f81 073f 08c6 75be
00000150: 05b2 113e 75fa 233e 2d38 26be b5cf 713d
00000160: b8c7 00bf 280f cbbe 7b96 69be f628 303e
00000170: ea08 24bd af69 59be 6e3f 523e 91d0 2dbe
00000180: 23a5 853d e887 b1bc 76ea 3a3d d194 a63e
00000190: 5452 94bd f4d5 213e 9f3b bdbd 93ef a0bc
000001a0: c7eb 953d e85c c7bc 65d3 243f b33f d23d
000001b0: 9145 1cbe 3854 453e 7b62 b8be 3cf2 a9bc
000001c0: 91e6 293c 5fa4 113d 286d d13e 0d5f 453e
000001d0: cdf2 4fbd d60d d7bd 62aa 0f3e 8e8d 0f3e
000001e0: 7dbf 1c3f f6e4 73be b7ef ac3f 8bba 4f3e
000001f0: 97b7 f33d 0020 603e 9299 9fbd 29ad cb3d
0.0043544723 0.20133913 0.08268785 0.14123577 -0.06610555 0.0044879774 0.08055109 0.020762717
0.12711266 0.050665412 0.27943087 0.14075415 0.06294778 0.10485275 0.18343246 -0.012002671
-0.065375954 -0.019359875 0.24772188 0.076209106 -0.0047092326 -0.08085771 0.17086256 0.16812412
0.2661265 -0.009199271 0.17016622 0.06264136 0.10189943 -0.0039939927 0.10876013 0.09308088
0.120245434 -0.033930745 0.15465091 0.15593238 0.07521376 0.02869414 -0.07927854 -0.13285151
-0.09740207 0.11553849 0.26923466 0.12608379 -0.13196592 0.20543167 0.20518641 0.1528071
0.04787103 -0.05409206 0.13175929 0.0738867 0.3276879 0.16660082 0.03873042 0.14400104
0.2348493 -0.47678325 0.20285863 0.25906333 -0.10331385 0.14878039 0.18096237 0.04796342
0.09244189 -0.12304706 0.06395123 -0.30539384 0.20640633 0.16352776 0.05261714 0.081578776
-0.046465196 0.06197647 0.32774985 0.34300917 -0.13001275 -0.15563264 -0.032451767 0.11351139
0.07794014 0.055507693 0.529314 -0.24001324 0.14228065 0.1601351 -0.16232367 0.059035975
-0.50304747 -0.3966 -0.2281131 0.17203125 -0.040047564 -0.21231721 0.20532009 -0.16974093
0.06525638 -0.02167125 0.045633756 0.32535413 -0.07242265 0.15804273 -0.092398874 -0.019645488
0.073203616 -0.024336293 0.6438506 0.10266056 -0.15260912 0.19270408 -0.36012635 -0.02074539
0.010369913 0.035557147 0.40903592 0.1927454 -0.050768662 -0.10500686 0.1402984 0.14018843
0.6122969 -0.2381781 1.3510655 0.20286004 0.11900251 0.21887207 -0.07792963 0.09945137

lstm1.weight_hh_l0 f4 [128, 32]
00000000: 49c8 963d c7f4 10bc 9dcd 773c d2ed 94bc
00000010: bf2f 5a3d 8932 49bc e185 d13b 60af 5dbc
00000020: 54e8 23bc 2b5d 763c ca30 f2bc 67d0 913c
00000030: 09e4 16bb dd66 89bc 4933 773d 6b09 8d3c
00000040: 891a 383d 591b 483d a52b ae3c 32c0 81bc
00000050: 53cf e13d 0474 30bc db15 5ebd 5817 163d
00000060: 7f1e 58bd d1b9 e1bb 2d55 babd 08c1 863d
00000070: 92be f5bc 53ba 7cbc 5cc8 113d cc89 07bd
00000080: 69cb c23d dfb9 613d 3981 64bd a0c4 c0bd
00000090: c92c ed3d 26c4 723d 026b 283d 178f 9b3d
000000a0: 272a 1dbd 1832 84bd 0b3b a9bb e18e a1bc
000000b0: e1fc 3e3c 7dd1 12be 4823 8e3d 5258 9bbc
000000c0: 599f 183d 08fd 6bbc ed51 2b3d 85ae 583c
000000d0: 6f79 8abb 7475 b43c e931 0c3d c8fe 003e
000000e0: 8f7c 22bd d307 ab3c 174a 9cbd ac38 123d
000000f0: 5fff 22bd dca4 34bb 3d1d 0e3c 29fa ad3d
00000100: 2c14 853d b76a 77bd 2874 323d 23a9 93bc
00000110: 8297 7e3d 8d54 923d 5729 4f3d a560 d03c
00000120: d0e7 80bc 28c8 21bb e3aa ea3c e0a3 283b
00000130: b18a 9a3d 1717 e03a 5d2b 7c3d 8148 49bc
00000140: 9084 e83a 20b7 5f3d bce7 a4bc bb1b 75bb
00000150: f0e8 4a3c 49bd 883b 21a8 9abc 3903 fdbc
00000160: 3b14 bebc 1a0c 353d 5a93 17bc 0b01 963d
00000170: 9790 abbc 191f 14bc 290f 1ebd 7e77 253d
00000180: d689 e53d e3ca c3bd 20d9 4f3d 6a0c e7bd
00000190: c2f0 113d d0a0 093e 3913 fd3d 648f b7bd
000001a0: 2d13 9a3d a298 9c3d b3b9 8d3b 79ee ee3c
000001b0: 68ea dc3d 8526 e93d f17f 803d 2bda bfbc
000001c0: c2ce b83d 0e08 ff3d 8249 c23d 9873 ce3b
000001d0: 0889 d93c 7d71 dd3d 0a7f 35bd c3d7 833d
000001e0: 71a2 d1bd 4221 923d dfdb 05bd 4bc3 6e3d
000001f0: e955 b3bd 08fb dabd baf9 9ebd d86e 85bd
00000200: 657b a83c ca02 f5bc d379 ed3c b929 8cbc
00000210: 4040 2d3d 6699 883d a90f b63c 60e3 613a
00000220: 528e c53c 6bd8 a93c bbe3 973d dc29 b93b
00000230: e406 583d a12d 84bd 1079 663d 11e4 1a3c
00000240: bf55 4d3d cbe9 143d 0d15 ce3c 0d84 163b
00000250: 6bfa d33c 66b4 4e3c 2554 6bbc c6f1 c63d
00000260: c055 86bd e732 903b d5b8 15bd 117a 013e
00000270: d417 21bd c88d b1bc ac1c a33c 1262 92bc
00000280: a338 113d 0dfb 55bd d641 b33d 3ff8 413c
00000290: cb4e 3e3c dd7f c13d 0cce 393d 1e71 91bc
000002a0: 0300 123a a7eb 1e3d b20a a83c 846b fe3c
000002b0: 51e0 773c f4bb 4fbb 5933 c33d 9fd0 533d
000002c0: f487 c93d 91b6 8d3d 588a 323b 5829 873b
000002d0: 55a2 953c 0cec 633b 3b0e e6bc 0bb5 f43c
000002e0: 2a63 69bd 6b92 183d f3cf c5bd ca61 bc3d
000002f0: b91f 4cbd e3ee d4bc 588d 003b ba78 e4bc
00000300: 3cf9 363d db9b 1ebd 6056 89bc 571d 38bd
00000310: 9c51 c3bc 3aa4 063e daa2 203d 1899 a1bd
00000320: a0a6 91bb 9b02 133d 1df3 a73d ab9e 383d
00000330: 85ba c73b a1df b4ba 8fad ad3d d38f 91bc
00000340: f7f2 c63d 74d2 503d 8bc9 313d 6fe2 3dbd
00000350: f24a 103d bde3 bf3d 944e 06bd 774c 14bd
00000360: a576 9dbd 6863 703c 729d 123c 907c d63d
00000370: 7aef 47bd 8a88 45bd 069d 203d c468 1fbd
00000380: 454d ae3d 3693 3cbd c3c5 803d 5ced 41bd
00000390: 77ed 6a3d 664f 4a3d 5e77 773d 6494 2cbd
000003a0: e81f ba3b 6477 5e3d c5bd 3b3d fa59 5f3d
000003b0: 4f6a 163d b43f c5ba bbaa 893d 5158 abba
000003c0: c6ed 793d b1bb 5e3d fdbe a43d 17ef 17bd
000003d0: fd47 b73b 65d8 1c3d b7e0 ecbc e6c5 423d
000003e0: 72c8 93bd c144 9f3b b1bd 89bd cf64 313d
000003f0: 1d25 6ebd 035a 85bd 9c1a 78bc 6039 43bd
0.0736242 -0.008847422 0.015124706 -0.018179808 0.05326819 -0.012280115 0.0063941334 -0.013530582
-0.010004122 0.015036861 -0.02956428 0.01779957 -0.0023024103 -0.016772682 0.060351644 0.017216405
0.04494718 0.048854206 0.021261046 -0.015838716 0.11025872 -0.010769848 -0.05422006 0.036643356
-0.05276346 -0.006888606 -0.09098277 0.065797865 -0.029998098 -0.0154252825 0.03559147 -0.033090398
0.09511454 0.0551089 -0.0557873 -0.09412503 0.11580808 0.059269093 0.041117676 0.075956516
-0.038370278 -0.06454867 -0.005164509 -0.01972145 0.011656971 -0.14337726 0.06940323 -0.018963013
0.03726134 -0.014403589 0.041826177 0.013225202 -0.004225902 0.022028662 0.034227286 0.12597191
-0.03966957 0.020877754 -0.07631319 0.035698578 -0.039794322 -0.0027564084 0.008673963 0.0849498
0.06497988 -0.060404506 0.043567806 -0.018024987 0.062156208 0.07145033 0.050576534 0.025436709
-0.015735537 -0.0024685953 0.028645938 0.0025732443 0.075459845 0.0017096725 0.061564792 -0.012285353
0.0017739702 0.054618 -0.02013003 -0.0037400562 0.012384638 0.004172955 -0.018878998 -0.030885326
-0.023203006 0.044200994 -0.00925144 0.07324418 -0.02094297 -0.009040617 -0.038588677 0.04039716
0.11207931 -0.09560182 0.050744176 -0.11281665 0.035629995 0.13440251 0.12357182 -0.089628965
0.07523189 0.076463 0.0043251156 0.029166447 0.10786897 0.113843 0.06274403 -0.02341946
0.09023811 0.12452708 0.09486677 0.006300401 0.0265546 0.10812662 -0.044310607 0.06437638
-0.10236061 0.0713525 -0.03268039 0.058291715 -0.087566204 -0.10692412 -0.07762475 -0.065152824
0.020566652 -0.029908556 0.028988754 -0.017109739 0.0422976 0.066698834 0.022224264 0.00086169504
0.024115715 0.020733079 0.07416483 0.005650742 0.052740946 -0.064540155 0.056267798 0.009453789
0.050130602 0.036355775 0.025156522 0.0022966892 0.025876245 0.0126162525 -0.014363323 0.097140834
-0.06559324 0.0044005993 -0.036553223 0.12644221 -0.039329365 -0.021674052 0.019911133 -0.01786903
0.035454404 -0.052241374 0.087527916 0.011838972 0.011615465 0.09448216 0.045362517 -0.017754134
0.000556946 0.038798954 0.020512912 0.031057127 0.015129165 -0.0031697722 0.09531278 0.05171263
0.09840384 0.069195874 0.0027243104 0.0041248016 0.018265883 0.0034778146 -0.028082957 0.029871484
-0.056979336 0.03724901 -0.09658804 0.09198339 -0.04983494 -0.025992816 0.0019615497 -0.027889598
0.044671282 -0.038722854 -0.01676482 -0.044949856 -0.023842625 0.13148585 0.039217807 -0.078905284
-0.004444912 0.035891157 0.08200667 0.045073193 0.006095233 -0.0013799557 0.08480369 -0.017768776
0.097143106 0.050981954 0.043405097 -0.046358522 0.035227723 0.093696095 -0.03278978 -0.036205735
-0.07688645 0.014672138 0.008948671 0.10472977 -0.048812367 -0.048225917 0.03921225 -0.03891827
0.08510832 -0.04603883 0.0628772 -0.047345504 0.05735537 0.049392127 0.06041657 -0.042133704
0.005680073 0.05431308 0.045835275 0.054529168 0.036722478 -0.0015048892 0.067220174 -0.0013072585
0.061017774 0.054378215 0.080442406 -0.03709325 0.0055932985 0.038292307 -0.028915746 0.047552012
-0.07215966 0.004860491 -0.06725634 0.04330903 -0.058140863 -0.06511309 -0.015143063 -0.04766214

lstm1.bias_ih_l0 f4 [128]
00000000: 5bec d83c 97bb 3abd b393 07bd 04a3 d33d
00000010: 27b6 0f3e b940 a6bb ca3a 733b 2b19 e63d
00000020: 76e3 bcba 589b 113c 4f58 b13d c398 0e3e
00000030: b925 df3c 475e 353e 0818 57bd a0ac 9a3d
00000040: fa6c 0f3e 76e4 573e 13d5 393e 57fb 803e
00000050: aa52 adbc 5238 1e3e e499 213e 636c 4f3e
00000060: bcb8 4a3e e00f 7f3e 7532 643e c456 673e
00000070: b311 14bd 321c 87bd 514e 06bd 073c 5a3e
00000080: cedd 72bd 0ff2 d93d f27a c4bd f491 fd3d
00000090: bd66 7bba 55f0 10bc a820 ed3d b712 e5bc
000000a0: 5432 173e ccd9 543d b14c 3839 f7b6 37bd
000000b0: 3010 a03d 0e05 22bd ca64 473e 0206 44bd
000000c0: 2868 a53d 70c9 c73d d7ee 54bd dbc1 983a
000000d0: a9d2 883e 531e b13d c0c3 383e 1877 923d
000000e0: bc1e 143d 25e0 b43d 0084 683e 141a 943e
000000f0: 89da ecbc d854 6f3d 859c ad3d dd2d c23d
00000100: 5764 1cbb 07cd 393d 1711 263e 3b25 11be
00000110: 799f 0d3e 1766 a0bd 5abc 0c3e 4966 ea3d
00000120: d1dd 1a3e e775 0ebe 497e 383e 8778 09bd
00000130: a5bd d63d 8655 f9bd 26fc 033d 8c74 fc3c
00000140: 87a1 b43d 29bf 19be 0641 d3bd 1bb8 183e
00000150: 9b7e aabb f96c 23be f534 963c 67b7 133e
00000160: fddf 893d 884d d639 fdd1 043d 5f45 c13d
00000170: 6d64 ec3d 519c 85bd fc48 bcbd db2f 933d
00000180: 8368 a03d 12b1 163d 3498 9f3d 9dc9 8f3d
00000190: b95e 193d 9653 d83d 1a70 e3bb 3466 0a3c
000001a0: 7e53 1b3e 5635 9ebb 17b5 fe3d d5ca 1d3e
000001b0: b3f4 e13d ea90 193e f1a5 99bb 3aec 3b3d
000001c0: ed14 4d3e 8610 593e 1be7 863e 69c5 983e
000001d0: 854d ee3d 2840 0f3e a6e3 513e c416 803e
000001e0: 9bca f93d 8313 693e e718 2a3e 3982 52bc
000001f0: 3de5 34bd 44dd 99bc fce4 36bc a444 bb3d
0.02647989 -0.045589056 -0.03309984 0.10333827 0.1403433 -0.0050736335 0.0037113898 0.11235269
-0.001441105 0.0088871345 0.08659422 0.13925461 0.027239667 0.17711745 -0.052513152 0.07552457
0.14006415 0.21083245 0.18147688 0.25191757 -0.021157581 0.15451172 0.15781361 0.2025619
0.19797033 0.249084 0.22284873 0.22591692 -0.03614969 -0.06597175 -0.032789532 0.21311961
-0.05929356 0.10641872 -0.095937625 0.12381354 -0.00095901993 -0.008846362 0.11578494 -0.027963025
0.14765292 0.05196552 0.00017576177 -0.044852223 0.078155875 -0.0395556 0.19472042 -0.047857292
0.08076507 0.09755218 -0.051985588 0.0011654453 0.2672322 0.08648362 0.18043423 0.071516216
0.036162123 0.08831815 0.22706604 0.28926146 -0.0289128 0.058430523 0.08477119 0.09481404
-0.0023863518 0.045361545 0.16217457 -0.14174359 0.13830365 -0.07831972 0.13743725 0.114452906
0.15123679 -0.13912164 0.18016924 -0.03356221 0.104853906 -0.121745154 0.03222289 0.030817293
0.088198714 -0.15014328 -0.103151366 0.1491398 -0.005203081 -0.15959539 0.018335799 0.14425431
0.067321755 0.00040875026 0.032426823 0.094370596 0.11542592 -0.065239556 -0.09193608 0.07186862
0.07832434 0.03678996 0.07792702 0.070208766 0.03744385 0.10562818 -0.006940854 0.008447219
0.15168568 -0.0048281355 0.12436884 0.15409406 0.11033001 0.14996687 -0.004688971 0.04587958
0.20027514 0.2119771 0.26348194 0.29838112 0.116358794 0.13989317 0.20496997 0.2501737
0.12196847 0.2276135 0.16611062 -0.01284843 -0.04416393 -0.018782265 -0.011162993 0.091439515

lstm1.bias_hh_l0 f4 [128]
00000000: a365 82bd 61d6 3cbd 4652 89bd 3bf0 8cbd
00000010: 5c4e 303e 5428 1c3d 57aa 0abd 7abe ce3d
00000020: 2e38 573d 74d2 0b3b 9335 b53d 79a0 683e
00000030: 4091 173d ead8 c23d dfe5 abbc 05c4 bcba
00000040: b654 d53d af95 c33d 5ceb 563e 9d03 fb3d
00000050: bddb 683e 7175 083e 43a4 7fbd a2f6 0f3e
00000060: afb3 063e 81e8 493e d4b1 4f3e 3236 32bb
00000070: f139 5e3c 434f 9abd 0c97 1f3e 11dc 9e3c
00000080: fbb7 093e 7705 61bc 81b5 15bd 209a e8bd
00000090: b84a 353d ddee 1abc 56cd c93d 2b2f 39bd
000000a0: e7c9 853d efe3 b63d 64d9 7c3c aa24 dbbd
000000b0: e739 4e3e 4d5d 043e b6eb 0d3e 45f4 a1bd
000000c0: 6a55 693e 223c 4c3e f8c6 8c3d 54b3 d03d
000000d0: 8ee7 ec3d c65f 77bc b09f 193c 79ec 7c3e
000000e0: a882 1d3e 1868 5bbd 46c5 003e 392f 6d3e
000000f0: af3c 953d dd5b dbbd 6d77 69bc 6da0 db3d
00000100: 318d 383e db04 143c ceda 313e 4e44 1ebe
00000110: 072a 913b e833 403e 21b1 4fbd 9dae 413e
00000120: 313d 463e 9138 993c 2f46 1b3e 0b11 8bbc
00000130: 2207 9a3d 53b3 0ebe 79f9 0d3e 5243 093e
00000140: 82b4 553d 960b 1d3e 7a98 1d3e b472 673d
00000150: c62f 3ebe 5f19 883d 8668 a63d 2912 37bc
00000160: b326 2bbc 68d6 e63d c499 20be d8ab 1fbe
00000170: 97f3 98bd bd41 d6bd efe8 343e b9a0 1e3e
00000180: d0c9 333d 15fd 483e 4c54 0e3e dd17 58bd
00000190: b20d 0f3e 4acb 88bd 9a6a 6c3d 1c0b 3c3e
000001a0: 6ed7 113e 517f ed3d 9cb5 713d fc49 753d
000001b0: 865b 263e 0306 9fbd 85be 123e f688 01be
000001c0: b0bd ba3d 567d a03d dcaa 833e e670 673e
000001d0: e039 793d f7d4 433e 8808 423e 2342 093e
000001e0: 13d0 7d3e af91 7d3e c3d4 5f3d 743a 46bc
000001f0: 6dae ef3d e6ee 243d ed8a af3d 387b fd3d
-0.06367042 -0.046102885 -0.067051455 -0.06881758 0.17217392 0.038124397 -0.033853855 0.10094924
0.05254381 0.0021335157 0.08848109 0.22717465 0.037003756 0.09514029 -0.020983635 -0.001440168
0.10416548 0.09550034 0.2098822 0.122565486 0.22740074 0.1332605 -0.06241251 0.14058927
0.13154481 0.197176 0.2028268 -0.0027192947 0.013563619 -0.07534649 0.15584964 0.019392045
0.13449089 -0.013734213 -0.03655005 -0.11357522 0.04426071 -0.0094563635 0.09853618 -0.045211
0.065326504 0.08930194 0.015432689 -0.107003525 0.20139275 0.12926216 0.13859448 -0.07907919
0.22786489 0.19944814 0.06873888 0.10190454 0.11567603 -0.015098518 0.009376451 0.24699582
0.15381873 -0.05356607 0.12575254 0.23162545 0.07286965 -0.10710881 -0.014249665 0.10723958
0.1802261 0.009034361 0.17368624 -0.15455744 0.004430059 0.187698 -0.050706033 0.18914266
0.1935928 0.01870373 0.15163492 -0.0169759 0.07520892 -0.13935594 0.13864698 0.13404587
0.0521741 0.15336451 0.15390196 0.056505874 -0.18572912 0.06645464 0.08125405 -0.011173763
-0.010446238 0.112713635 -0.15683657 -0.15592897 -0.07468336 -0.10461757 0.17666982 0.15490998
0.043893635 0.19627793 0.13899344 -0.052757133 0.13970068 -0.06679399 0.05771885 0.18363613
0.14242336 0.11596549 0.059011087 0.05988501 0.16245851 -0.077648185 0.1433049 -0.12649903
0.09118211 0.07836406 0.25716293 0.22601661 0.06084621 0.19124208 0.18948567 0.13404135
0.24786405 0.24762605 0.054646265 -0.012098897 0.11703191 0.040266894 0.0857142 0.12377018

lstm2.weight_ih_l0 f4 [128, 32]
00000000: 9ad0 573d 8ce6 41bb 47b6 493d 186d b3bc
00000010: 8eb5 733d 33fa 423d 0624 4d3d d4f8 b7bc
00000020: 801a 773d b2b5 cc3c f34e 133d 9b18 2f3d
00000030: 3776 883d 8fbe bebd b016 863d f1e9 813d
00000040: 670e 923d 69c3 5c3c 5b9b 6f3d 66d7 183d
00000050: d1ec 05bd ab65 8fbc b3c1 62ba 28fa 243d
00000060: 098d 33bd 365b 313d 1a1f 0fbd 5afa 303d
00000070: 071e 20bd 39ef 02bd 4db8 893d cd43 c5bb
00000080: 240d 033d 77e2 6bbc c67d ba3c 30d8 5cba
00000090: 4bf5 383d fc30 243d ed46 ff3c a8c7 dcbb
000000a0: e2ab 393c b8a0 613c 5de1 5f3c 0ab8 0a3a
000000b0: e234 3b3d 6e71 64bb 8fbc 5a3d d495 803b
000000c0: e6e2 413d e4ee 9f3c 7996 53bc 8706 18bb
000000d0: ce17 1d3c b362 f23a 76df 57bb 864e 1b3d
000000e0: 9034 97bc 7fd5 0c3d 762c cbbb 71ca 0b3d
000000f0: b037 d4bc 9839 84bc 1e6e 77bb fe3d 4bbc
00000100: 9291 ba3d b887 0ebd c6ab 0a3b 338c 90bc
00000110: fb87 0bbd 775d 9d3d e50c 913d 39bb 21bc
00000120: 00dd 903c 0ee2 5e3c a6cd 363d 00d0 6b3d
00000130: 8d71 4f3d 2ff5 2cbd 2e84 d23d c31b 093d
00000140: fb50 6f3d bedb a53c 358a ec3c 5605 8bbd
00000150: f7d2 7b3d 5df8 1e3d f266 2ebd ac36 3f3d
00000160: 43c0 4abc 262d 1a3d 5f4e cc3b 2295 d13d
00000170: 36f1 9cbd f588 0f3d b6aa 4abb 2c83 dabd
00000180: 3fb1 1e3d d698 0bbc 5aeb 7a3d 1382 103d
00000190: 2b14 a43d fc7b e1bc 9bbf 813d 7df7 0ebd
000001a0: 7e4a 953c da19 7b3c 9bb5 023d 76e2 8bbc
000001b0: 3b4b 933d 931c d53c 6d58 883d 99a3 1939
000001c0: c815 1b3d 8da6 163d 2060 4bbd 72e6 b43c
000001d0: 84e1 2abc e5ac 41bc 3305 633c f723 e4bc
000001e0: 3750 343d ff5e 9e3d ee95 873d a1e0 1a3d
000001f0: 5d8e 8fbc a728 27bd 06ac 84bc 5aad 40bd
00000200: 22f1 6f3d 79f4 21bd 2283 063d 851b 39bb
00000210: 6a4d 003c aa14 ed3c 4d20 1c3d e08f 93bb
00000220: 4dca 8f3c c9ab e23c 440d 04bd 2bd6 9cbc
00000230: 171d e63b cbee 65bc 2509 b53d bd03 3b3b
00000240: b97e b83d 44eb fb3c 8c90 3bbc c7cd 613b
00000250: 4d98 b93d aa57 e9bb a5aa 0cbc d03e f2bc
00000260: cfd4 593d 454a bb3c 43ad 2cbd 41f2 09bc
00000270: bdb2 e6bc 564f db3b 8395 9e39 440c 77bc
00000280: 0950 c43d 143e 18bd 8be5 163e 8dee 60bd
00000290: d945 1e3e e7c6 053e ea34 053e 0db1 d63a
000002a0: 10be 963d e2ae 9e3d 3953 0f3e 9049 083d
000002b0: e592 2a3e 5e23 6f3d d4d3 b23d 5baf e53b
000002c0: 62a8 443e abc4 2d3d b96e 963d bd27 053d
000002d0: 1ef4 983c c9cb af3c b1a3 c2bb ae19 073e
000002e0: 53ca e4bd 656d 363d 6de2 12be d6cf c33c
000002f0: 2560 62bd fb90 11be 1780 c9bc 3501 09bc
00000300: f40f 213c 34df 59bd 1a6c 0d3d fe9b 0d3d
00000310: 0597 95bd 85fc 963d d193 8a3d 55ff c6bc
00000320: 6d63 ac3c b103 833d 853c 61bd 9434 29bd
00000330: 05e1 6c3d 4825 e4bc 8d48 6f3d ddf9 d3bc
00000340: 361e 603d f9fa dd3b 2270 0fbd 2e57 0abc
00000350: 3b4a d13d 1a17 13ba 473d a8ba a007 4abd
00000360: be41 0f3c f77b a73d 210a 3f3d d410 20bd
00000370: cf07 bc3c 1ba0 873c 3aa3 02bd 0add c5bd
00000380: 8351 2f3d 78e5 70bd 7feb 253d 22ce c0b9
00000390: 4cea 453c 5a89 1d3d f6c6 803c 5238 cfba
000003a0: 957f 843c a85c bf3c b00b 1fbd 90e3 2dbc
000003b0: 1d94 083d ba45 503b 5a00 863d 6ad7 4fbb
000003c0: 90d8 81bb 2e20 3f3d 1689 053c 62f3 873c
000003d0: 9d56 d2bc 7034 9d3c ccd8 02bc 69c0 1c3d
000003e0: 2b63 61bc dfa7 8f3d 7a29 4abd 97de 3d3d
000003f0: fee2 34bd fda0 7cbc 43cf 713c 64b5 81bd
0.052689172 -0.002958688 0.0492461 -0.021902606 0.059499316 0.04760189 0.050083183 -0.022457518
0.060328007 0.024988983 0.035963964 0.042748075 0.06663173 -0.0931369 0.06547296 0.06343449
0.07131653 0.013474324 0.058497768 0.037314795 -0.03269655 -0.017504534 -0.0008650079 0.04027763
-0.043835673 0.043299876 -0.03494177 0.043207504 -0.039091136 -0.03196642 0.06724606 -0.0060200454
0.031994954 -0.014397255 0.022765052 -0.00084245484 0.045155805 0.040085778 0.03116175 -0.006737668
0.011332484 0.0137712285 0.013664571 0.0005291706 0.04570473 -0.0034857648 0.05340248 0.003924111
0.047335528 0.019523092 -0.012914293 -0.002319725 0.009588195 0.001849255 -0.003293959 0.037916683
-0.018457681 0.034383293 -0.0062003685 0.03412861 -0.02590546 -0.016140744 -0.0037754844 -0.012404917
0.091097966 -0.0347974 0.0021159514 -0.017644977 -0.034065228 0.07683843 0.070825376 -0.0098712975
0.017683506 0.0136037 0.044629715 0.05757141 0.0506454 -0.042226013 0.102791175 0.03347374
0.05842684 0.020246383 0.028874496 -0.06788127 0.06148049 0.038811076 -0.042578645 0.046683
-0.01237494 0.037640713 0.0062349285 0.10233523 -0.07663195 0.03504272 -0.0030924506 -0.1066955
0.038743254 -0.008520326 0.061259605 0.0352803 0.08011659 -0.02752494 0.06335374 -0.034903992
0.018223997 0.015325988 0.031911474 -0.017075758 0.071920834 0.026014602 0.06657491 0.00014652162
0.03786257 0.03677993 -0.04965222 0.022082541 -0.010429744 -0.011821006 0.01385622 -0.02784918
0.04402181 0.07732963 0.06620394 0.03781188 -0.017523939 -0.040810253 -0.016195308 -0.04704032
0.05857957 -0.039539788 0.0328399 -0.0028245163 0.007830957 0.028940517 0.038116742 -0.004503235
0.01755252 0.027669804 -0.032239214 -0.019145092 0.0070225107 -0.014033983 0.08839635 0.0028536164
0.090085454 0.030751832 -0.011448037 0.0034454928 0.09062252 -0.007121046 -0.008585607 -0.029570967
0.053181466 0.022862563 -0.042157423 -0.008419574 -0.0281614 0.006692807 0.00030247503 -0.015078608
0.09585578 -0.037168577 0.14736001 -0.054915 0.15456332 0.13064156 0.13008466 0.001637967
0.0736047 0.077482 0.1399659 0.03327328 0.16657598 0.05838334 0.08731809 0.0070094294
0.19204858 0.042423885 0.073453374 0.0325086 0.018671092 0.021459477 -0.0059399237 0.1319339
-0.11171403 0.04453792 -0.14344187 0.023902815 -0.05526747 -0.14215462 -0.02459721 -0.008362104
0.009830464 -0.05319138 0.03452692 0.034572594 -0.07304195 0.07372383 0.06766475 -0.024291674
0.021043504 0.063971885 -0.054989357 -0.041309908 0.057831783 -0.027849808 0.0584188 -0.02587598
0.05471631 0.006774303 -0.035019048 -0.008443637 0.102192365 -0.00056110474 -0.0012835645 -0.049323678
0.0087437015 0.08177941 0.04664052 -0.03907855 0.022952942 0.016555836 -0.031893946 -0.096613005
0.042802345 -0.05881259 0.04050779 -0.00036774675 0.0120797865 0.038461067 0.015719872 -0.0015809631
0.016174117 0.023359612 -0.038829505 -0.010613337 0.033344377 0.0031779842 0.06543036 -0.003171409
-0.003962584 0.04666155 0.00815036 0.016595546 -0.025676066 0.019190043 -0.007986259 0.038269434
-0.013756554 0.07014441 -0.04935596 0.046354856 -0.04416179 -0.015419242 0.014758888 -0.06333426

lstm2.weight_hh_l0 f4 [128, 32]
00000000: e6a6 98bc c414 46bd 1579 2c3d 9a3a 0c3d
00000010: e456 303d 3edf 1bbd 9d35 22bd 0219 243d
00000020: b9d4 9a3d 9ac4 39bd 8c82 2abd 0ff4 37bd
00000030: e894 873d 3b2f 00bd 0167 49bd ffbe 65bd
00000040: ff0e a6bd 2190 3e3d eb70 273d cb4f 543d
00000050: 8e96 8bbd 3941 3e3d 7d9f fc3c 5fe3 85bd
00000060: 2397 be3c 441a 0fbd da2d 993c 5ca8 1abd
00000070: 99b2 15bd 1199 ae3d 9705 47bd 78cc 58bd
00000080: 5a78 ccbb 5362 19bd 801f 053d 8971 883c
00000090: 0477 ca3c beda 55bc 0ca1 96bc 4c52 973c
000000a0: ff7a ff3c 19ef 82bc b665 c7bc f96f c1bc
000000b0: f4aa 283d 6531 8bbc 1f47 d1bc 0d68 c2bc
000000c0: 0e46 89bc 0c71 843c 0ab2 d33c aa8b 033d
000000d0: d8e9 26bd 1405 fc3c 86ca 383c f198 3ebc
000000e0: 09b0 f83b 0ae4 e1ba 86eb 273c 35f8 87b9
000000f0: b6ce 2dbc be40 a13c 2452 11bc 9a64 e1bc
00000100: 02e9 7ebd 6a3e 0dbd 719b a43c 2b0c cc3c
00000110: f6c2 2a3d 3988 8bbd da35 ae3b 2579 8fbc
00000120: fd0a 5ebd 4d0c 8fbc 0328 b1bd d793 4a3c
00000130: 20a1 8d3d cd35 5abd d644 46bc f12f b9bd
00000140: 65e6 d2bd e928 683d f78a b43b 5fbd c73c
00000150: 7741 4dbd cc8d 1a3d 33fa 62bd a18f 6ebc
00000160: d97d bb3c c613 953c 927d ed3c 61c8 f53c
00000170: 9e11 e3bc b313 e33d 837a c53b 2669 23bd
00000180: dec9 0fbd 7abc 3cbd 46ca 083d cf13 743c
00000190: e10b aa3b adbd dbbc 0b69 c7bc de12 843c
000001a0: 976e 543b 3231 10bd 133c 70bd d9c8 f2bb
000001b0: cd66 903d 8482 37bd 33c8 0dbd db19 4cbd
000001c0: a3a6 f3bc 8f18 e53c c28a 173d 67ee e73c
000001d0: a1ef 53bd a2e4 393d 16fe 1bbc c1ab 713c
000001e0: 54a3 373c ee6d ee3c f113 123d 38b9 2b3b
000001f0: 1812 b3bc b988 143d 2189 79ba 395e 22bd
00000200: 8be0 38bd 7de0 a6bc ec81 cf3c b93a 8b3c
00000210: 01e3 fe3a cb43 363c ab03 d7bb 43c8 6dbb
00000220: 3103 10bd 3ba2 e2bc 2293 e1bc 5beb 9bbc
00000230: 9c9a deba a21d 6fba 9e5e cfbb baec f7bc
00000240: 8307 55bd cb19 cf3c 9100 d23c e2f3 4bbb
00000250: f7ab 52bd d9e7 123d 69fc 00bb d2cc ecbb
00000260: adb9 c63b 3d1a 103d d1f8 753c 1b4c a83b
00000270: d477 45bc 214b 2a3d 7056 e3bb 7f4c 43bc
00000280: 4e2b a5bd 6553 58be 4108 aa3d 919f e43d
00000290: 20c2 1e3e 6347 9cbc ef1b f7bd 81c5 043e
000002a0: 2f82 fbbd e913 cabd c490 0cbe 8f52 c0bd
000002b0: ea23 183e 2faf 93bd 3916 2dbe 01c3 9dbd
000002c0: 7078 c43c 2a8a 8b3c 0093 db3d 5c73 d83d
000002d0: eeec 12be 5ff7 c73d c57d 9e3c 75cf 9f3d
000002e0: 75cf 553d cf13 cb3d b778 333d 6ed9 d03b
000002f0: ddb4 8abd 439b 41ba 9cdb 24bb 0f66 d8bd
00000300: c373 e9bc f085 55bd 5eb6 e93c cd73 7dbb
00000310: 6de0 dabc 38fc 9fbc c5ba 2f3c ab9b 2fbd
00000320: 4f55 27bd 969b 9bbc b093 15bd f3cf bbbd
00000330: c7da ad3d 7af7 32bd facb 513c 7791 a73b
00000340: f2f9 e7bc 0358 253d 0dc6 2e3d 54e1 263d
00000350: bc17 ab3c d1a9 8e3c 953a abbc 0b73 d9bc
00000360: 5556 fdbb 2591 3f3d bb7e 943d 3138 83bb
00000370: 87ce 93bc 8c81 6f3d d9a3 4fbb f263 69bc
00000380: e775 1ebd 0ff9 71bd fb1c fb3c eef7 cd3c
00000390: 2e6c 923c 5baf acbc ec23 33bd 1a34 a63c
000003a0: b5a8 29bd 1f8b 0d3b 5237 b3bc e66a c7bc
000003b0: 2a68 ba3d 5f3b bebc 7179 f63a 0dbc 14bd
000003c0: 533e 00bd 3295 163d 3eea de3c f4dc 8e3d
000003d0: 48a6 8fbd 25f7 0e3d 422a 1dbb 6de6 1a3b
000003e0: 97ad ed3c fe82 253d 173b c53c 14b3 c0bb
000003f0: 12e0 a5bc 6bf2 113d c7f0 28bc 33d7 f5bc
-0.01863427 -0.048359647 0.04210766 0.034235574 0.043051615 -0.038054697 -0.03960191 0.04006291
0.07560105 -0.04535351 -0.041628405 -0.044910487 0.066201985 -0.031295042 -0.049170498 -0.05609035
-0.08108329 0.04652417 0.04087917 0.05183391 -0.068158254 0.04644892 0.030837769 -0.06537508
0.023265427 -0.03493716 0.018698622 -0.037758216 -0.036547277 0.08525289 -0.048589315 -0.05292937
-0.006239933 -0.037447285 0.032500744 0.0166557 0.024714954 -0.0130526405 -0.01838734 0.01847186
0.031186579 -0.015983151 -0.024340492 -0.023612963 0.04117866 -0.016991327 -0.025546608 -0.023731256
-0.016757037 0.016167186 0.025841732 0.032115616 -0.040750355 0.03076414 0.011278754 -0.011633144
0.0075893444 -0.0017234099 0.010249024 -0.00025934135 -0.010608366 0.019684192 -0.0088696815 -0.02751379
-0.062233932 -0.03448335 0.020093651 0.024908146 0.041689835 -0.06813092 0.005316478 -0.01751382
-0.054209698 -0.01746192 -0.0865021 0.012364349 0.06915498 -0.053273965 -0.012101373 -0.09042347
-0.102978505 0.05667964 0.00550973 0.024382291 -0.05011126 0.037732884 -0.05541439 -0.014560611
0.022887157 0.018197905 0.02899054 0.030002775 -0.027718361 0.11087742 0.0060265674 -0.0398952
-0.035104625 -0.046078183 0.033396028 0.014897301 0.0051894044 -0.026823843 -0.02434208 0.016122278
0.003241455 -0.035203166 -0.05865104 -0.007409197 0.07050858 -0.044802204 -0.034614753 -0.049829345
-0.029742545 0.027965812 0.036997564 0.028311921 -0.0517422 0.045384057 -0.009521028 0.014750422
0.011208374 0.029105153 0.03566355 0.0026202928 -0.021859214 0.0362632 -0.000951903 -0.03964064
-0.045136016 -0.020370716 0.025330506 0.016995775 0.0019446315 0.011124562 -0.0065617166 -0.0036282695
-0.035159294 -0.027665248 -0.027535979 -0.019033125 -0.0016983333 -0.0009121542 -0.006328418 -0.030264247
-0.052009117 0.025280854 0.025635036 -0.0031120707 -0.05143353 0.03586564 -0.0019681698 -0.007226565
0.0060646147 0.035181273 0.015012936 0.0051360256 -0.012052495 0.041575555 -0.0069377944 -0.011920094
-0.080649 -0.21125562 0.083023556 0.111632474 0.1550374 -0.019077009 -0.12065875 0.12965967
-0.1228069 -0.09867079 -0.13727099 -0.09390747 0.1485745 -0.07211148 -0.16903009 -0.0770321
0.02398321 0.017033655 0.107213974 0.10568878 -0.14348194 0.09763979 0.019347081 0.07803241
0.0521998 0.099158876 0.043816295 0.006373576 -0.06772778 -0.00073855015 -0.0025155311 -0.10566341
-0.028497582 -0.052129686 0.028529342 -0.003867376 -0.026718343 -0.019529447 0.010725682 -0.042873066
-0.04085284 -0.018995088 -0.0365178 -0.091705225 0.08488994 -0.043693043 0.012804979 0.0051137763
-0.028317425 0.040367138 0.042669345 0.040742233 0.02088534 0.01741496 -0.020901958 -0.026544115
-0.007731239 0.04676928 0.072507344 -0.0040045013 -0.018042816 0.058473155 -0.0031683354 -0.01424502
-0.03868666 -0.05907541 0.030653467 0.025142636 0.01787385 -0.02107971 -0.04373543 0.020288516
-0.041420657 0.0021597815 -0.021876965 -0.024342965 0.09101899 -0.02322167 0.0018804503 -0.03631215
-0.031309437 0.036763377 0.027211305 0.06975737 -0.070141375 0.034903664 -0.0023981486 0.002363588
0.029013438 0.040408127 0.024076028 -0.005880723 -0.020248447 0.03563158 -0.010311312 -0.030009842

lstm2.bias_ih_l0 f4 [128]
00000000: ea35 a63c c95c ba3d a2f1 863d 2203 983d
00000010: 859e 1e3e 39ed 363e 15ab d9bd d2a8 d93d
00000020: 2598 e23d 4abc 403d 4d07 2e3e 2df6 6f3d
00000030: 5502 2ebd ee62 ea3d 8db8 c73d aacc 8e3d
00000040: 5ac8 6d3e e5e2 2e3e b98d b1bd 2db2 df3c
00000050: 79a9 233e 0af0 b23c a511 243e 1673 9b3d
00000060: c4f6 2fbd 5e8b 253e e0ad 303d 01ec 88bd
00000070: 3b2a aa3d f0e0 513e a6f4 073e 0979 033e
00000080: 1529 233e 197e b73c 7a6c 823d 7e18 1a3c
00000090: c62a 973d ed80 d63d 57f4 173e 69df b93c
000000a0: 5efd 873d a3e7 b1bc 1395 f23d 21ee 95bd
000000b0: 86c3 3fbc f3ec a1bd 21b1 a63d 4cbf 24be
000000c0: e08e b6bc 9914 6ebd ef59 adbd 0367 8a3c
000000d0: 8f5b a13d 46cd ce3c bc09 56bd 2c2b 263e
000000e0: db18 6d3d fa53 da3d 6efc 8d3c 353f 2c3d
000000f0: c923 903d 7f50 02bd 9403 233e fd1d f6bc
00000100: 3c59 f1bd 7874 d1bc 4f61 a93d 7c11 e43d
00000110: fec0 a73d 8754 103c ebf6 553d b94a 5c3d
00000120: 5f52 173c e2fa 33bd 8237 10be 6445 f8bd
00000130: 78ce af3d 847c 133d 2f86 f6bd 9d08 40bd
00000140: c82d 26bd 1a42 113b fef4 f33d 88a8 9c3d
00000150: 9840 c4bd 95e0 2e3c ee03 923c 5859 88bd
00000160: ed0d b0bc b3aa bcbd e8c3 363d 750c 31be
00000170: 422d 09be 0f90 c53d cd96 033d df9c 07be
00000180: 2994 2fbd 61f1 cf3d c9be ab3d 1b91 5bbd
00000190: 009b 7fbd 9872 6f3e 7768 6a3d 6936 55bd
000001a0: 55f0 fa3d d18f 983d 46ed ac3d f9fe 083e
000001b0: 815a e63d bdcb fd3d 6fca 323d c1f2 123e
000001c0: 76ec 753e 1bf4 153e 199c 143e 41d2 2b3e
000001d0: 3ee7 9b3d 0d7c 93bb a9f0 323e 88af f43d
000001e0: c313 a83d 3790 c23c e957 5b3d a3aa d9bd
000001f0: 6810 513d 21fc 6e3e 6863 083e b901 29bd
0.02028938 0.090997286 0.065890566 0.074224725 0.15490158 0.17863931 -0.106283344 0.10627903
0.110641755 0.047054566 0.16994973 0.05858438 -0.042482693 0.114446506 0.09751997 0.0697263
0.2322096 0.17078741 -0.086696096 0.02730664 0.15982617 0.021842975 0.16022356 0.0759031
-0.042959943 0.16166446 0.04313457 -0.06685639 0.08308836 0.20495963 0.1327692 0.1283914
0.1593364 0.022398995 0.063683465 0.009405253 0.07381205 0.104738094 0.14839302 0.022689538
0.06640123 -0.021716898 0.1184484 -0.0732081 -0.011704331 -0.079065226 0.081392534 -0.16088599
-0.022284925 -0.058125112 -0.08464419 0.016894823 0.078787915 0.025244366 -0.052255377 0.16227406
0.057885032 0.106605485 0.017332282 0.042052466 0.070380755 -0.03181505 0.15919334 -0.030043596
-0.11784598 -0.025568232 0.08270513 0.111361474 0.08191107 0.008809215 0.052237432 0.0537822
0.009235947 -0.043940432 -0.14083675 -0.1212261 0.08584303 0.03600742 -0.12037312 -0.046883214
-0.040571004 0.0022164644 0.11911963 0.07649332 -0.09582633 0.010673662 0.01782414 -0.06657666
-0.021491015 -0.09212246 0.044620425 -0.17289908 -0.1339617 0.096466176 0.032126237 -0.13243435
-0.042865906 0.10153461 0.08385999 -0.05360518 -0.06240368 0.23383558 0.05722853 -0.052053843
0.12252871 0.07449306 0.08443694 0.13378514 0.11247731 0.123923756 0.043650087 0.14350416
0.24015984 0.146439 0.14512672 0.16779424 0.07612465 -0.004500872 0.17474617 0.119475424
0.08206894 0.023750408 0.053550635 -0.106282495 0.051041037 0.23338367 0.1331917 -0.04126141

lstm2.bias_hh_l0 f4 [128]
00000000: 1683 de3c 98b9 363d c30e d13c 2167 55bd
00000010: c88b cd3d 1ef4 a93e ded1 eebd e575 d53d
00000020: ef54 193e d01a a3bc c1b6 8fbd 5af2 83bd
00000030: 9afb 6bbd f6cc f93d 7281 36bd 14dc 31bc
00000040: e26d 6f3e dd85 0b3e b765 493d d695 adbb
00000050: 56e6 163e a691 6b3d 38ee 123e f730 753d
00000060: d48f a53d 6793 cc3d ace9 f6bd 0f74 87bd
00000070: 8cbf 223c 1e2a 5a3e 49f5 55bd e15b ab3d
00000080: 6bc8 653d 7729 473c 5327 3abd cb87 c5bd
00000090: 3156 283d 2da2 133d ee46 4b3d 9aac 813d
000000a0: 5562 433e 8f92 b33b a4ab a6bd a1df 9a3d
000000b0: a147 febc 2bf4 153d 64f2 f33d f0ae cbbd
000000c0: 92a2 773d aa20 efbd 8dd4 93bd b579 5d3d
000000d0: 4011 4bbc 0576 7d3d ea79 63bd 6b7d 44bc
000000e0: c934 f23d 24b8 3dbd c6d9 0b3e 40d1 b5bd
000000f0: 30c5 653c c97e 073c 5814 06bb a1f8 f33d
00000100: c165 9cbd ed82 2ebe 937a 02be bd05 cf3c
00000110: b674 cf3c c446 053e 313c d2bd 5341 423e
00000120: 0424 e8bd 07b1 363d 0268 1ebe b830 5dbd
00000130: 65fe 18bd 2751 cbbd a50c 1cbd 2aae 64bd
00000140: a8c6 1abd 1d98 45be d960 80bd c718 323e
00000150: e7ba 71bd fd0a 03be 2d1f d4bc 5270 11be
00000160: d433 08bd fef8 083e ccbc aa3d ba06 f7bd
00000170: 1086 873d b5a8 203d b371 c0bc 9999 c13d
00000180: b33b c13d 2671 7e3d e298 763b 77ce 433d
00000190: dbe2 493c 8ca7 9f3e c7d2 babd 6ae6 89bd
000001a0: 131f 433e 7b95 933d 6d2b 123e 2ab4 983d
000001b0: 36ba c53d 70f7 143e 45de 1e3e 59d5 87bd
000001c0: 8ead 5e3e 7c1a 353e 63e6 44bd fe6f 193e
000001d0: 37fa eb3c 4581 93bd c1cf 923d 036f b43d
000001e0: febf e33d 0730 04bc 537a 5fbd 9130 6cbd
000001f0: bf23 373d 1021 7b3e 765e da3d a9d2 2bbd
0.027162116 0.04461059 0.025519734 -0.052100305 0.10036427 0.3319406 -0.11661123 0.10422877
0.14973806 -0.019910246 -0.070172794 -0.06442709 -0.057612993 0.12197296 -0.044557042 -0.010855693
0.2338176 0.13625284 0.04916927 -0.005297403 0.14736304 0.057511948 0.14348686 0.05986115
0.08084074 0.09989052 -0.12056288 -0.06613933 0.009933364 0.21305129 -0.052235875 0.08367134
0.056099337 0.012155882 -0.04544766 -0.09645041 0.041097824 0.036043335 0.04962819 0.06331749
0.1908048 0.0054801176 -0.081382066 0.07562185 -0.031040015 0.03660981 0.11911467 -0.09945476
0.060457774 -0.11676152 -0.07218275 0.054071147 -0.012394249 0.06188013 -0.05553619 -0.011992793
0.11826474 -0.04631819 0.13657293 -0.08877802 0.014024064 0.008269974 -0.0020458903 0.119126566
-0.076365955 -0.17042132 -0.12742071 0.02527129 0.025324207 0.13015276 -0.10265387 0.18970232
-0.113349944 0.04460242 -0.15469363 -0.05400154 -0.037351985 -0.09927588 -0.038097996 -0.05583016
-0.03778711 -0.19296308 -0.06268472 0.17392264 -0.059016135 -0.1279716 -0.025893772 -0.14203003
-0.033252552 0.13376233 0.083367914 -0.1206183 0.06617367 0.03922339 -0.023491716 0.094531246
0.09435215 0.062119626 0.0037627746 0.047804322 0.012322153 0.31182516 -0.09122234 -0.06733401
0.19054823 0.072062455 0.14274378 0.074562386 0.096546575 0.14547515 0.15514477 -0.0663249
0.21745893 0.17685884 -0.048071276 0.14984128 0.028805835 -0.072023906 0.07168532 0.08810236
0.11120604 -0.008068091 -0.054560017 -0.057663504 0.044711825 0.24524331 0.10662548 -0.041948948

fc.weight f4 [1, 32]
00000000: fe30 05bd 999c 05bd 864f 6a3e 3d3d f13d
00000010: 6402 ac3d 7e71 053f 2361 1ebe 7d4f c53d
00000020: b32d 14bd 65f3 0abe a14b 4fbe de29 d4bc
00000030: 46c4 28be 5b31 00be f3b6 3dbe fa45 463e
00000040: e831 8d3e 4e60 80be 4810 993d 28a8 1e3d
00000050: 0e14 033e d10d 283e 28ab 973e a36e 23be
00000060: 3214 f43d c0ec 68be ac83 26be d18b c93d
00000070: 289e bc3d baae aabe b02d eebd f333 643e
-0.032517426 -0.032620046 0.22881898 0.117792584 0.083988935 0.521263 -0.15466742 0.09634302
-0.036176395 -0.1356941 -0.20243694 -0.02589887 -0.16481122 -0.12518828 -0.18526821 0.19362631
0.27577138 -0.25073475 0.074738085 0.038734585 0.12800619 0.1641152 0.2962277 -0.15960173
0.119179145 -0.22746563 -0.16261166 0.09841121 0.092098534 -0.3333643 -0.11629808 0.22285442
