models/RNN32x32_b512_l20_PROPER.pth (torch, 16595 bytes, 9 tensors)

rnn1.weight_ih_l0 f4 [32, 1]
-0.0062681558 0.13266622 0.11269285 0.008426298 -0.20080262 -0.07534439 0.17643274 0.060433175
0.25584844 0.041439634 0.0043137427 -0.03923879 0.07425427 0.08811384 0.11992456 -0.13833113
-0.12972145 -0.080104515 -0.03626571 -0.11245639 -0.14235681 -0.0933651 0.08108919 0.1339494
-0.13586865 0.035915814 -0.1664274 -0.032423545 0.13026752 -0.066475436 0.111012936 0.0879375
00000000: 1a65 cdbb a7d9 073e 82cb e63d 750e 0a3c
00000010: 349f 4dbe 294e 9abd c9aa 343e c788 773d
00000020: 91fe 823e 9bbc 293d 4c5a 8d3b dab8 20bd
00000030: 9f12 983d 0775 b43d 029b f53d ada6 0dbe
00000040: b3d5 04be d60d a4bd 5a8b 14bd 894f e6bd
00000050: fcc5 11be 3436 bfbd 1712 a63d 082a 093e
00000060: 2721 0bbe 761c 133d f26b 2abe 8dce 04bd
00000070: d964 053e 4624 88bd c05a e33d 9318 b43d

rnn1.weight_hh_l0 f4 [32, 32]
0.18606044 -0.12156843 0.1712478 0.09818282 0.046594836 -0.073463455 -0.005823756 -0.15904717
-0.14474346 0.0659464 -0.16627589 0.052431412 -0.13904683 0.17469814 0.16717052 0.15032889
-0.046264157 -0.1078824 -0.04257414 -0.01480241 0.03611502 0.17104612 -0.047628917 0.08721048
-0.18044159 -0.08632096 -0.059611313 0.14677101 -0.12547797 0.09943128 0.16542244 -0.06207421
0.07133358 -0.062053602 -0.03552033 -0.17181695 0.19309421 0.11334299 0.0030693584 0.036395743
-0.111603595 0.05286605 0.10504776 0.17788059 -0.111857526 -0.17964232 -0.060095474 0.14322996
0.040697344 0.034764986 0.13587894 -0.19912995 0.15907376 0.10858466 -0.10194993 0.04039563
-0.12651889 -0.087262854 -0.025920855 0.13930129 -0.038881265 -0.1685614 0.14945036 -0.17440471
0.16768137 -0.124382876 0.059143342 0.030515866 -0.16349088 0.020773776 0.21719639 0.04772896
0.09649833 -0.16910622 0.1745549 -0.17495818 -0.07050003 0.1554692 -0.1694172 -0.05851957
-0.06523381 0.03468919 0.004137994 0.09767871 -0.19058755 -0.14684229 -0.021959096 0.14980076
0.00043152834 0.0987337 0.1044671 0.15333013 0.14230083 0.09065554 -0.18572728 0.06713079
0.104471266 0.1913834 -0.035117295 0.14354002 0.021681186 -0.13611425 -0.1661857 -0.028509472
-0.049117364 -0.07623202 -0.15291353 -0.025094535 -0.046164405 -0.027898107 0.07586817 0.09463572
0.0004141878 0.019824678 -0.06087226 0.006975819 0.1197143 -0.27133018 -0.01715604 -0.016516432
-0.089121 -0.06753807 -0.13345467 -0.028830625 0.020079922 0.07671294 0.06184122 0.023320405
0.14775163 0.14192306 -0.17168863 -0.016369633 0.19542156 0.05166189 0.019293979 -0.15804459
-0.23313463 -0.07957101 -0.1172555 -0.048225917 0.025492229 -0.17525932 0.062540695 -0.123388655
-0.006786382 -0.07114137 -0.03697664 0.18728974 0.12504816 0.13587481 0.07893773 0.17893471
-0.052287832 0.11551753 -0.09932194 0.09871011 -0.1549887 0.08713307 0.03753798 0.0664337
0.11269682 -0.16946883 0.09638446 -0.0174541 0.05448661 0.08832374 0.17768192 0.12547545
-0.11313084 -0.11161454 0.0046066334 -0.018550083 0.15767989 -0.03531248 0.09299193 0.10677965
-0.09736698 0.14824711 -0.11849505 0.1219793 -0.027470464 -0.028230356 0.008830489 -0.12713729
-0.02193225 0.106731124 0.05133861 0.1358456 0.023309944 0.06462556 -0.0463544 0.17614777
0.091506205 -0.03824914 -0.053147025 -0.1665654 -0.09711423 0.06096132 0.2918804 -0.22048543
0.015116755 0.0040907916 -0.09596567 0.062188435 -0.020484053 0.21060404 -0.037723638 -0.061140247
-0.041028436 0.2733497 0.1781946 0.1513435 -0.1280308 0.30142978 -0.002914967 -0.044378005
-0.04082198 -0.04647396 0.005114426 -0.065059304 -0.1067801 -0.08025352 0.047787376 -0.03128719
-0.1873088 -0.042986143 -0.07880681 0.058705244 -0.13805562 -0.026631149 -0.22265004 0.10623837
-0.0348693 -0.15958583 0.14309818 -0.19069949 0.15950747 -0.19497836 -0.10074945 -0.079248846
-0.093712464 -0.075142935 0.051933315 -0.18764195 -0.030522507 0.01866636 0.06413544 0.1347747
-0.08949384 0.0032570115 0.12287138 0.14977099 -0.04209991 0.11896482 0.0534916 0.028235706
00000000: a186 3e3e def8 f8bd 955b 2f3e 1314 c93d
00000010: 3ada 3e3d 0274 96bd 35d5 bebb 43dd 22be
00000020: a137 14be e80e 873d 3a44 2abe 52c2 563d
00000030: 4b62 0ebe 12e4 323e c02e 2b3e d1ef 193e
00000040: 7c7f 3dbd 73f1 dcbd 3962 2ebd cf85 72bc
00000050: 58ed 133d b726 2f3e 8a16 43bd 689b b23d
00000060: aec5 38be 0bc9 b0bd fe2a 74bd 244b 163e
00000070: 4c7d 00be a0a2 cb3d 8064 293e 8741 7ebd
00000080: 5717 923d eb2b 7ebd c47d 11bd c8f0 2fbe
00000090: 7dba 453e 5f20 e83d 4a27 493b b413 153d
000000a0: 6d90 e4bd 128a 583d 4823 d73d 5426 363e
000000b0: 8f15 e5bd 28f4 37be ac26 76bd e0aa 123e
000000c0: 42b2 263d bb65 0e3d d923 0b3e b9e8 4bbe
000000d0: 3be4 223e a261 de3d 20cb d0bd e375 253d
000000e0: 2b8e 01be deb6 b2bd f957 d4bc ffa4 0e3e
000000f0: f641 1fbd 5c9b 2cbe 8409 193e 2697 32be
00000100: aab4 2b3e 73bc febd 4a40 723d 69fc f93c
00000110: 276a 27be c42d aa3c bb68 5e3e 717f 433d
00000120: eba0 c53d 2e2a 2dbe 85be 323e 3d28 33be
00000130: 5262 90bd 5133 1f3e b47b 2dbe 37b2 6fbd
00000140: 4e99 85bd 4116 0e3d 0298 873b c70b c83d
00000150: 6229 43be d35d 16be 90e3 b3bc 5f65 193e
00000160: c13e e239 e534 ca3d d9f2 d53d 9302 1d3e
00000170: 4fb7 113e 9da9 b93d 4b2f 3ebe de7b 893d
00000180: 08f5 d53d 03fa 433e 27d7 0fbd 28fc 123e
00000190: be9c b13c 8961 0bbe 962c 2abe b28c e9bc
000001a0: 4a2f 49bd 891f 9cbd 5d95 1cbe 0e93 cdbc
000001b0: e316 3dbd 928a e4bc c560 9b3d 5fd0 c13d
000001c0: 5827 d939 5d67 a23c 3155 79bd 6995 e43b
000001d0: c52c f53d caeb 8abe d38a 8cbc 784d 87bc
000001e0: 1285 b6bd 6651 8abd 57a8 08be 342e ecbc
000001f0: a67e a43c ad1b 9d3d 384d 7d3d 6f0a bf3c
00000200: 344c 173e 4754 113e 25cf 2fbe 9c19 86bc
00000210: 971c 483e 6b9b 533d 680e 9e3c 71d6 21be
00000220: d8ba 6ebe 20f6 a2bd a723 f0bd 8a88 45bd
00000230: 14d5 d03c 2e77 33be 5615 803d 31b3 fcbd
00000240: 4c60 debb 91b2 91bd d174 17bd e2c8 3f3e
00000250: a00c 003e c422 0b3e 1baa a13d a93a 373e
00000260: c42b 56bd 7494 ec3d 4d69 cbbd 8728 ca3d
00000270: 5cb5 1ebe d372 b23d 6dc1 193d 640e 883d
00000280: 97cd e63d 3d89 2dbe 3765 c53d e7fb 8ebc
00000290: 5a2d 5f3d 14e3 b43d 40f2 353e a37c 003e
000002a0: 24b1 e7bd 2a96 e4bd 3ef3 963b 58f6 97bc
000002b0: d676 213e d2a3 10bd 8e72 be3d 4aaf da3d
000002c0: 5768 c7bd 17ce 173e 88ad f2bd 49d0 f93d
000002d0: bd09 e1bc 5943 e7bc c1ad 103c 4730 02be
000002e0: 43ab b3bc d995 da3d 6f48 523d 1c1b 0b3e
000002f0: 7ff4 be3c 685a 843d 1dde 3dbd 1560 343e
00000300: 9b67 bb3d 21ab 1cbd b2b0 59bd 1f90 2abe
00000310: d3e3 c6bd 94b2 793d 5971 953e efc6 61be
00000320: 44ac 773c 0c0c 863b a689 c4bd 4db9 7e3d
00000330: 2cce a7bc 96a8 573e 1a84 1abd 326e 7abd
00000340: 6f0d 28bd 7ef4 8b3e a578 363e caf9 1a3e
00000350: 821a 03be 0155 9a3e 0809 3fbb b6c5 35bd
00000360: f334 27bd 7b5b 3ebd ea96 a73b d03d 85bd
00000370: 86af dabd f55b a4bd b2bc 433d ff26 00bd
00000380: e1cd 3fbe 3d12 30bd 7765 a1bd e974 703d
00000390: 745e 0dbe 9129 dabc 5ffe 63be 8193 d93d
000003a0: 1cd3 0ebd 786a 23be 5488 123e ba46 43be
000003b0: ed55 233e 68a8 47be ba55 cebd 384d a2bd
000003c0: 52ec bfbd 8ae4 99bd 07b8 543d 3625 40be
000003d0: 560a fabc 32ea 983c 7159 833d 6102 0a3e
000003e0: 8c48 b7bd 9673 553b fda3 fb3d 915d 193e
000003f0: f570 2cbd d4a3 f33d 021a 5b3d 914e e73c

rnn1.bias_ih_l0 f4 [32]
0.1318518 0.11137521 -0.03985412 0.08574647 -0.13563325 0.035046846 0.07122621 0.034094
0.11533449 0.093417495 -0.1189464 0.12688209 0.08654546 0.08724019 0.14569244 0.04902082
-0.018059187 -0.062276352 -0.1280849 -0.013316906 -0.10536043 0.0048497156 0.1034422 0.07572159
-0.17160857 -0.013402075 0.1404006 0.16277216 0.036080286 -0.011997349 0.11867499 0.076470226
00000000: 2904 073e b018 e43d 133e 23bd d89b af3d
00000010: 71e3 0abe 488d 0f3d 0cdf 913d 26a6 0b3d
00000020: 7d34 ec3d ac51 bf3d 2c9a f3bd 61ed 013e
00000030: bf3e b13d fcaa b23d 6630 153e 0eca 483d
00000040: dcf0 93bc 7d15 7fbd b028 03be 272f 5abc
00000050: 36c7 d7bd 5dea 9e3b 81d9 d33d ec13 9b3d
00000060: 28ba 2fbe 6094 5bbc 2dc5 0f3e bfad 263e
00000070: ecc8 133d 8790 44bc e00b f33d 6c9c 9c3d

rnn1.bias_hh_l0 f4 [32]
-0.0233511 -0.15070966 -0.05508647 0.008118147 0.17097503 0.10310658 -0.15937436 -0.042431686
-0.13126476 0.059389506 -0.104835145 -0.11830669 0.16325562 -0.18496788 -0.0363584 -0.1303937
-0.105740696 0.031001676 -0.1756902 -0.050982323 0.12705426 0.14940609 0.16108634 -0.13847491
0.12456596 -0.0863302 0.16759099 0.13334964 0.14447099 0.16575155 0.17334245 -0.14139517
00000000: ce4a bfbc a253 1abe 5aa2 61bd fa01 053c
00000010: 1414 2f3e 8b29 d33d 0833 23be d9cc 2dbd
00000020: 456a 06be 6942 733d cfb3 d6bd c74a f2bd
00000030: 7b2c 273e 3868 3dbe 8cec 14bd ed85 05be
00000040: 948e d8bd 3af7 fd3c 22e8 33be d7d2 50bd
00000050: 831a 023e e9fd 183e d1f3 243e 5ecc 0dbe
00000060: 701c ff3d e3cd b0bd f99c 2b3e cf8c 083e
00000070: 34f0 133e c6ba 293e af80 313e e5c9 10be

rnn2.weight_ih_l0 f4 [32, 32]
0.1108556 -0.07226453 -0.027032021 -0.012360315 0.14856577 0.12471886 -0.20867245 -0.1701218
-0.10484022 -0.10002293 0.17059472 -0.00821361 0.023027476 -0.04680983 -0.16902764 -0.003927334
0.016080089 0.09706322 0.063512884 -0.10647595 0.059630025 -0.082522295 0.07758824 -0.040558513
0.081307314 -0.07839604 0.11578426 0.05046991 0.12344178 0.07483462 -0.055956878 -0.19044997
-0.029037807 0.13045406 0.04531592 -0.07782233 -0.12396691 -0.021863956 -0.11324537 -0.027241897
-0.119756185 0.028633017 0.035223037 0.0013229052 0.15979385 0.08360467 0.1834298 -0.043932907
-0.03835119 -0.09159536 -0.12791678 0.027676856 0.035040446 0.116988 0.00579405 -0.033394217
-0.11234399 -0.12308959 -0.13284461 0.0608338 0.11968211 -0.14439186 -0.04732559 -0.11092744
0.0035512669 -0.17117526 0.08439127 -0.081328325 -0.04561736 0.07672558 0.053778548 0.054184414
0.024651976 0.059099685 0.12606138 -0.08368278 0.06836068 0.1488882 -0.12209244 -0.023875793
0.13335094 0.067932285 -0.11461433 -0.106628306 0.054110114 0.10829956 -0.13540797 0.00096429954
-0.1409109 0.10832187 0.13070746 0.0015841513 0.05590686 0.091193266 0.00865147 -0.13755895
0.04662417 0.02919956 -0.08880408 -0.0920945 0.0034924634 0.1590964 -0.07080839 0.13574716
-0.0350209 0.011584103 0.08313205 0.05885053 0.1613165 -0.14159513 0.102581695 -0.16003107
0.03513191 0.0060668318 -0.014767125 -0.04925062 0.115057744 -0.018263739 -0.06286628 -0.05174858
-0.11022321 -0.042537536 0.08001288 0.09286489 0.16001303 0.038303044 0.062176086 -0.0347676
-0.0106929755 0.10695341 -0.00063353765 -0.061053995 -0.10188022 0.1024088 -0.04587466 -0.032301404
0.10020468 -0.039753415 -0.058767784 -0.06009474 -0.14445226 -0.046157613 -0.13997443 0.0066401465
-0.13336612 0.023184426 -0.058638085 0.03806835 -0.016815528 0.014589159 0.16287576 -0.08368743
-0.012880433 -0.09091762 -0.070738554 0.06754081 -0.063898675 0.14627619 0.13006066 -0.18698934
-0.049122546 0.17598352 -0.14265856 -0.17907923 -0.13341334 0.108288795 0.2011965 -0.0774126
-0.027996987 0.09978993 -0.14998049 -0.00047474646 0.17621075 0.1760622 -0.07100509 -0.2132651
-0.00973863 -0.019817242 -0.1447475 0.14570315 -0.10563502 0.21811433 -0.15565388 -0.08339217
0.011270691 -0.14535376 0.014172148 0.1590279 -0.059798885 -0.07729519 0.0070678066 0.114433095
-0.07057041 -0.07420989 0.048125252 0.090253755 -0.18220268 0.0045031286 -0.01303779 -0.1127823
-0.12008583 -0.0878039 -0.10149195 -0.18310207 0.040691614 0.060345583 -0.0173395 -0.14140835
0.12008731 -0.18908548 0.040638056 0.06585275 0.06898028 0.06739757 -0.13721496 0.17545186
-0.21973799 -0.088205785 -0.08488704 -0.14072011 -0.15152253 0.17163123 0.14732483 -0.09496582
-0.11495602 -0.011174064 0.011704554 0.00024657923 0.10707828 0.06331054 0.03849152 0.006835838
-0.09039889 0.13000403 -0.10104567 0.12775111 -0.020664748 0.020674542 -0.017054996 0.07040338
0.040256817 -0.0726813 -0.008007236 0.20940019 -0.062381096 -0.051309038 0.11599574 -0.11092861
0.20995696 0.16910982 -0.020822022 -0.13300078 0.0914317 -0.0015783624 0.08916343 -0.12504978
00000000: 4308 e33d 6dff 93bd 4272 ddbc eb82 4abc
00000010: a021 183e 9a6c ff3d 3bae 55be 6934 2ebe
00000020: 78b6 d6bd d2d8 ccbd 62b0 2e3e 6192 06bc
00000030: 1ea4 bc3c aabb 3fbd 9515 2dbe deb0 80bb
00000040: 64ba 833c 15c9 c63d 0b13 823d 1010 dabd
00000050: 9d3e 743d 7301 a9bd 95e6 9e3d af20 26bd
00000060: 7384 a63d 1a8e a0bd 4c20 ed3d 89b9 4e3d
00000070: 0bcf fc3d e542 993d 0a33 65bd 5105 43be
00000080: b2e0 edbc c095 053e 309d 393d 5061 9fbd
00000090: 5de2 fdbd 0a1c b3bc 30ed e7bd 662a dfbc
000000a0: bb42 f5bd ca8f ea3c 0846 103d 5565 ad3a
000000b0: 00a1 233e ed38 ab3d 06d5 3b3e fef2 33bd
000000c0: 2316 1dbd 5996 bbbd 9efc 02be 93ba e23c
000000d0: 9286 0f3d 6897 ef3d 04dc bd3b 60c8 08bd
000000e0: 9b14 e6bd 6516 fcbd 6b08 08be dd2c 793d
000000f0: e51b f53d 76db 13be 7ad8 41bd ed2d e3bd
00000100: 5fbc 683b 9148 2fbe 55d5 ac3d 778f a6bd
00000110: 45d9 3abd 4d22 9d3d e546 5c3d 7af0 5d3d
00000120: f1f2 c93c 8312 723d 3c16 013e e161 abbd
00000130: af00 8c3d 2676 183e 9a0b fabd 2b97 c3bc
00000140: 268d 083e 1520 8b3d ebba eabd f15f dabd
00000150: 91a2 5d3d 29cc dd3d 63a8 0abe 0cc9 7c3a
00000160: f24a 10be dbd7 dd3d 2dd8 053e 4ca3 cf3a
00000170: 97fe 643d 89c3 ba3d e5be 0d3c 41dc 0cbe
00000180: fcf8 3e3d ea33 ef3c eade b5bd 0b9c bcbd
00000190: d0e1 643b 2bea 223e fd03 91bd 4e01 0b3e
000001a0: 1372 0fbd 40cb 3d3c 2341 aa3d 410d 713d
000001b0: 2730 253e 50fe 10be 5a16 d23d 2fdf 23be
000001c0: 7ae6 0f3d 46cc c63b d0f1 71bc 05bb 49bd
000001d0: 65a3 eb3d d69d 95bc 09c0 80bd 52f6 53bd
000001e0: b5bc e1bd d73b 2ebd cbdd a33d f32f be3d
000001f0: 75da 233e a7e3 1c3d 5aac 7e3d 7968 0ebd
00000200: 9731 2fbc 640a db3d fe13 26ba c113 7abd
00000210: 94a6 d0bd b4bb d13d 11e7 3bbd 7a4e 04bd
00000220: 1c38 cd3d 7ad4 22bd 7db6 70bd e725 76bd
00000230: 4beb 13be c40f 3dbd 7555 0fbe 9695 d93b
00000240: 2191 08be 44ed bd3c 7d2e 70bd 8fed 1b3d
00000250: b8c0 89bc 5e07 6f3c e7c8 263e 5164 abbd
00000260: 7408 53bc 0433 babd 60df 90bd d652 8a3d
00000270: 4fdd 82bd 6dc9 153e 9f2e 053e 227a 3fbe
00000280: b934 49bd 0635 343e 1615 12be 8c60 37be
00000290: 829d 08be 84c6 dd3d 7506 4e3e 7f8a 9ebd
000002a0: f059 e5bc aa5e cc3d 7c94 19be 64e7 f8b9
000002b0: 9770 343e a649 343e 1e6b 91bd 2b62 5abe
000002c0: c68e 1fbc c557 a2bc b038 14be 3533 153e
000002d0: 2c57 d8bd 5d59 5f3e bb63 1fbe 84c9 aabd
000002e0: b4a8 383c 9ed7 14be 4c32 683c 36d8 223e
000002f0: adef 74bd f14c 9ebd 0f99 e73b e65b ea3d
00000300: 3887 90bd 5bfb 97bd fc1e 453d f6d6 b83d
00000310: 5793 3abe fb8e 933b 749c 55bc 68fa e6bd
00000320: 8fef f5bd 88d2 b3bd 03db cfbd 1c7f 3bbe
00000330: 40ac 263d ee2c 773d 910b 8ebc 5acd 10be
00000340: 56f0 f53d a09f 41be 1774 263d cedd 863d
00000350: 8845 8d3d bd07 8a3d 1482 0cbe a7a9 333e
00000360: ff02 61be 3ca5 b4bd 42d9 adbd ef18 10be
00000370: b928 1bbe 19c0 2f3e 52dc 163e 717d c2bd
00000380: 106e ebbd 6c13 37bc 75c4 3f3c 4e47 8139
00000390: db4b db3d f5a8 813d 49a9 1d3d 2aff df3b
000003a0: 0e23 b9bd c71f 053e 08f1 cebd 30d1 023e
000003b0: 1e49 a9bc a85d a93c ebb6 8bbc a62f 903d
000003c0: 55e4 243d efd9 94bd c830 03bc 016d 563e
000003d0: 5283 7fbd 6d29 52bd 2d8f ed3d 8a2e e3bd
000003e0: f5fe 563e 202b 2d3e f292 aabc 5b31 08be
000003f0: 8b40 bb3d 0ee1 ceba 519b b63d 0d0d 00be

rnn2.weight_hh_l0 f4 [32, 32]
0.14206241 0.017860072 0.054643437 -0.1583967 -0.01266054 -0.17846522 -0.12995334 -0.07017163
-0.07210007 -0.06450627 -0.15164651 -0.07680314 -0.119857974 -0.1782427 0.18289547 -0.0667189
-0.08339903 -0.12014412 -0.043307733 -0.043118272 0.14096959 -0.06840478 -0.06912749 -0.064292155
0.10680087 0.12538405 -0.03178872 0.08097608 0.034941945 -0.09579491 0.014115217 -0.26001033
0.030031212 0.10220544 0.15303063 -0.11294554 -0.14805041 -0.13647518 0.069173664 0.039780326
0.13020262 -0.1834815 -0.11728098 0.12482595 0.16327716 0.13910723 0.029294953 -0.10113111
-0.0044224276 -0.12760475 0.11565386 0.03227394 0.08616046 0.06604195 -0.047491487 0.0870071
0.09875478 -0.14851238 -0.14072263 0.12908275 -0.18346697 0.14738455 0.058702998 0.07939252
0.134394 -0.02355559 -0.093708366 -0.090473995 -0.089725405 0.073542975 -0.13392767 0.06721936
0.093973756 -0.0026369018 -0.011020314 0.008348966 0.13342412 -0.1761288 -0.10129281 0.12355828
-0.05191704 -0.15129343 -0.13306893 0.0635644 -0.07147803 0.086477004 -0.0057056006 0.015596348
0.1890174 -0.15517706 -0.14686067 -0.1481049 -0.058040284 -0.06503857 0.027375948 0.023090947
-0.03768335 0.020731928 -0.15827979 0.1559127 -0.07718795 0.009411066 -0.049221218 0.03353849
-0.08638048 -0.02539953 -0.034049947 0.17030638 0.11148639 -0.034206454 0.09852166 -0.054301392
0.08990168 0.021143949 -0.015046071 -0.030033339 0.017495189 -0.08639258 0.051572353 0.18876134
0.15819897 -0.13697757 -0.04204075 -0.15451477 -0.005724387 -0.0006750243 0.06124523 0.11479679
0.01851044 -0.091143824 -0.06936001 -0.11718195 -0.12823154 0.093935035 0.10207315 0.10585083
-0.08545255 0.06963485 0.1698673 -0.06921884 0.005904098 -0.13781834 0.023928426 0.08941566
-0.08211652 -0.09491312 0.08797919 0.057135534 -0.043886285 0.01938686 -0.09752903 0.155954
-0.04357112 0.10148076 -0.030838907 0.080213845 0.16021162 -0.0062020663 -0.0727827 0.023225557
-0.011100025 0.09858849 -0.120800965 -0.16878973 -0.1504681 0.15347913 0.05515834 -0.037645783
0.02271335 0.12050616 0.11619178 0.07890444 0.01213671 -0.039207354 0.055329446 0.08807278
-0.0084669115 0.15303221 0.13425052 -0.09162621 -0.09059842 0.014396458 0.028563289 -0.13393529
-0.09007119 -0.14215009 -0.05751421 0.03109766 -0.12483286 0.07412054 0.015839947 -0.11581754
0.09491511 0.116586536 0.019215045 -0.006772836 0.16070893 -0.014627056 0.047965806 0.005309364
-0.12844326 0.033361357 0.13823593 -0.008871757 0.13711043 0.0948011 0.14610174 0.11964641
0.07614904 -0.02707401 -0.15773827 0.18528213 -0.1163929 0.06958701 0.18765824 0.058692005
0.07891364 -0.052026916 -0.0588976 0.034216054 -0.058277477 -0.16715497 0.19098505 0.15207137
-0.110435225 -0.102243625 0.122015364 -0.1599398 0.1250979 0.097371325 -0.093851425 0.09299287
-0.08795493 0.12309754 0.16530652 -0.07232337 0.00878114 -0.07087063 0.15669677 0.0065904655
-0.1215199 0.00390352 -0.13889548 -0.07091156 0.18753278 0.011854438 -0.010095627 -0.05315477
-0.08619418 0.11098858 -0.050831873 0.004865617 -0.07147998 -0.007141482 0.108375765 -0.0383917
00000000: cf78 113e 494f 923c ccd1 5f3d bf32 22be
00000010: 276e 4fbc 96bf 36be 7d12 05be 25b6 8fbd
00000020: 34a9 93bd dd1b 84bd 3949 1bbe f74a 9dbd
00000030: 1978 f5bd 4185 36be f348 3b3e eba3 88bd
00000040: 1ccd aabd 1f0e f6bd 7363 31bd c99c 30bd
00000050: 555a 103e ce17 8cbd b792 8dbd 9bab 83bd
00000060: 6aba da3d ad64 003e e434 02bd c9d6 a53d
00000070: 491f 0f3d 1f30 c4bd 8343 673c 1320 85be
00000080: 0404 f63c 1651 d13d 10b4 1c3e fe4f e7bd
00000090: 879a 17be 26c0 0bbe ecaa 8d3d b2f0 223d
000000a0: d653 053e 93e2 3bbe 0331 f0bd bfa4 ff3d
000000b0: 2132 273e 2072 0e3e f8fb ef3c d41d cfbd
000000c0: 03ea 90bb d2aa 02be eedb ec3d ae31 043d
000000d0: e574 b03d 0041 873d 6f86 42bd c730 b23d
000000e0: f23f ca3d a113 18be 9819 10be 452e 043e
000000f0: c4de 3bbe faeb 163e 8e72 703d 8c98 a23d
00000100: 959e 093e a7f7 c0bc 2cea bfbd 6e4a b9bd
00000110: f4c1 b7bd b39d 963d 5624 09be 4eaa 893d
00000120: 5075 c03d dfcf 2cbb 8c8e 34bc 1aca 083c
00000130: 55a0 083e 1c5b 34be 9b72 cfbd 200c fd3d
00000140: f6a6 54bd aaec 1abe 3943 08be 0d2e 823d
00000150: 1363 92bd db1a b13d 0cf6 babb d387 7f3c
00000160: c78d 413e bce6 1ebe a562 16be d0a8 17be
00000170: a6bb 6dbd f132 85bd 8643 e03c 3a29 bd3c
00000180: db59 1abd 01d6 a93c 1914 22be 94a7 1f3e
00000190: b714 9ebd df30 1a3c 309c 49bd a85f 093d
000001a0: 40e8 b0bd ad12 d0bc f577 0bbd cc64 2e3e
000001b0: fa52 e43d 111c 0cbd b9c5 c93d 236b 5ebd
000001c0: 5f1e b83d 1336 ad3c cc83 76bc 7a08 f6bc
000001d0: 1252 8f3c 98ee b0bd 883d 533d a74a 413e
000001e0: e9fe 213e d943 0cbe ec32 2cbd 1f39 1ebe
000001f0: a393 bbbb 1df4 30ba 47dc 7a3d 941a eb3d
00000200: 35a3 973c 9da9 babd 9f0c 8ebd 17fd efbd
00000210: 214f 03be 0361 c03d ba0b d13d 52c8 d83d
00000220: bf01 afbd b79c 8e3d b2f1 2d3e 9bc2 8dbd
00000230: 2a77 c13b 4020 0dbe 8c05 c43c 8f1f b73d
00000240: b52c a8bd cf61 c2bd 6f2e b43d f306 6a3d
00000250: 1bc2 33bd 31d1 9e3c 4dbd c7bd 68b2 1f3e
00000260: a177 32bd 25d5 cf3d e0a1 fcbc 2847 a43d
00000270: 840e 243e b43a cbbb 190f 95bd 8643 be3c
00000280: e1dc 35bc c3e8 c93d 7f66 f7bd 37d7 2cbe
00000290: 4f14 1abe a229 1d3e b6ed 613d 7732 1abd
000002a0: 5911 ba3c efcb f63d f5f5 ed3d a798 a13d
000002b0: 0dd9 463c e497 20bd 21a1 623d 805f b43d
000002c0: cdb8 0abc 7ab4 1c3e f878 093e 86a6 bbbd
000002d0: aa8b b9bd 1fdf 6b3c 8ffd e93c 5526 09be
000002e0: 3e77 b8bd cb8f 11be 0594 6bbd 85c0 fe3c
000002f0: 5fa8 ffbd 82cc 973d c7c2 813c bf31 edbd
00000300: da62 c23d ecc4 ee3d df68 9d3c abee ddbb
00000310: e290 243e 52a6 6fbc cb77 443d 2cfa ad3b
00000320: a186 03be eba5 083d b88d 0d3e d95a 11bc
00000330: ad66 0c3e 1427 c23d b29b 153e 2d09 f53d
00000340: 07f4 9b3d 50ca ddbc 2486 21be 99ba 3d3e
00000350: 675f eebd a283 8e3d 7b29 403e 0767 703d
00000360: 799d a13d 2d1a 55bd 9c3e 71bd 2226 0c3d
00000370: 5db4 6ebd ac2a 2bbe 9691 433e 99b8 1b3e
00000380: dd2b e2bd 1b65 d1bd 31e3 f93d 42c7 23be
00000390: aa19 003e 9e6a c73d 2d35 c0bd 0c73 be3d
000003a0: b721 b4bd 901a fc3d 1d46 293e 461e 94bd
000003b0: c5de 0f3c 9f24 91bd 1e75 203e d5f4 d73b
000003c0: 6ddf f8bd 33d2 7f3b 9e3a 0ebe 143a 91bd
000003d0: 9808 403e 1e39 423c 2168 25bc d1b8 59bd
000003e0: 9386 b0bd fb4d e33d 1535 50bd c16f 9f3b
000003f0: 1964 92bd 1803 eabb 1df4 dd3d 9d40 1dbd

rnn2.bias_ih_l0 f4 [32]
-0.012367039 0.0942306 0.060224008 -0.09041696 -0.14598674 0.06663516 -0.093906544 0.10315852
0.032129988 0.11327349 0.11686222 -0.040533554 -0.0459281 0.08113226 -0.15261514 -0.15106422
0.010227493 -0.0046834894 -0.0146901375 0.08687928 -0.18105909 -0.06624134 0.072663784 -0.078346625
-0.05955179 -0.051506214 0.053885367 0.11485664 0.010620771 0.094358824 0.15897107 -0.16110261
00000000: 1f9f 4abc f9fb c03d 73ad 763d 872c b9bd
00000010: 8c7d 15be 0478 883d 1352 c0bd c644 d33d
00000020: bc9a 033d eefb e73d 7655 ef3d 8306 26bd
00000030: 1a1f 3cbd ac28 a63d 2547 1cbe 94b0 1abe
00000040: 3791 273c f577 99bb e7ae 70bc c4ed b13d
00000050: 8e67 39be 8aa9 87bd c0d0 943d 3274 a0bd
00000060: 94ec 73bd 2ef8 52bd e7b6 5c3d f539 eb3d
00000070: be02 2e3c 333f c13d 50c9 223e 15f8 24be

rnn2.bias_hh_l0 f4 [32]
0.07399962 -0.098315924 0.08819675 -0.15131375 0.017118199 0.18657425 0.071597144 0.050408
-0.09184381 0.0576951 -0.04880588 -0.053716067 -0.058361616 0.14472364 -0.08746301 -0.107826374
0.013908998 0.0059664114 -0.035728794 0.14165634 -0.02728481 0.10215347 -0.12892814 -0.078677736
-0.17551087 -0.052715544 0.08687028 0.024103701 -0.009100572 -0.11460491 0.051640354 0.0992772
00000000: 1d8d 973d dc59 c9bd 7fa0 b43d fef1 1abe
00000010: 773b 8c3c 520d 3f3e 86a1 923d 9e78 4e3d
00000020: 9c18 bcbd b251 6c3d ade8 47bd 6105 5cbd
00000030: 970c 6fbd 6f32 143e ce1f b3bd 13d4 dcbd
00000040: 91e2 633c e381 c33b 5b58 12bd 5c0e 113e
00000050: 6584 dfbc d735 d13d bd05 04be cb21 a1bd
00000060: 1fb9 33be 41ec 57bd 0ce9 b13d 2075 c53c
00000070: 911a 15bc fbb5 eabd d684 533d d851 cb3d

fc.weight f4 [1, 32]
-0.16738054 0.07997353 0.14122157 0.13645613 -0.17401199 0.01876879 0.19878265 -0.13247816
-0.016756713 -0.046775315 -0.12645558 0.21946079 0.17717014 -0.013466315 -0.18550062 0.110054284
0.19862285 -0.14508079 -0.110922575 -0.1474651 -0.034507688 0.08176306 0.08735182 -0.08495886
0.089349695 0.031429857 -0.0426429 -0.10361471 -0.1088221 -0.10421318 -0.049215186 0.23932892
00000000: ce65 2bbe 29c9 a33d 639c 103e 28bb 0b3e
00000010: 3330 32be 01c1 993c ae8d 4b3e 5ba8 07be
00000020: 6045 89bc 7997 3fbd 927d 01be 54ba 603e
00000030: 176c 353e d2a1 5cbc e0f3 3dbe 2464 e13d
00000040: ca63 4b3e 0f90 14be 602b e3bd 1701 17be
00000050: ef57 0dbd 6473 a73d 83e5 b23d e9fe adbd
00000060: f9fc b63d 98bc 003d 52aa 2ebd f333 d4bd
00000070: 1fde debd b86d d5bd dd95 49bd a412 753e
