models/TCN32x32_b512_l20_PROPER.pth (torch, 15455 bytes, 5 tensors)

conv1.weight f4 [32, 1, 3]
0	0xbdb9f2fe	-0.0907955
1	0x3ee75e34	0.4518906
2	0x3e94eb58	0.29085803
3	0x0306cc71	3.961375e-37
4	0x890c49fd	-1.6886676e-33
5	0x829e052a	-2.3218977e-37
6	0x3ef19d69	0.47190407
7	0x3e0fa610	0.14028192
8	0x3ee55383	0.44790277
9	0x3d10a243	0.035310995
10	0x3e172bc3	0.14762788
11	0x3b1e45c4	0.002415047
12	0x3e6f59c1	0.23374082
13	0x3e7bf478	0.24604976
14	0x3eca641e	0.39529508
15	0x80052896	-4.73737e-40
16	0x9087f4f0	-5.36255e-29
17	0x8290ed94	-2.1295261e-37
18	0xbdf5a95c	-0.11995193
19	0xbe5adcad	-0.21373244
20	0xbe8c1c0d	-0.2736515
21	0xbe9d5278	-0.3072698
22	0x3ed3410e	0.4126057
23	0x3ec111f2	0.37709004
24	0x82977475	-2.22543e-37
25	0x02940475	2.1749204e-37
26	0x8eb6fd98	-4.5110666e-30
27	0x8299c9c7	-2.2597144e-37
28	0x02ae77e0	2.5635807e-37
29	0x829416ad	-2.175966e-37
30	0x3e949998	0.29023433
31	0x3e26ff81	0.16308405
32	0x3f07e6ac	0.5308635
33	0xbebe6bbb	-0.37191567
34	0x3f002f87	0.5007252
35	0x3e610129	0.21973099
36	0x027d3025	1.8601321e-37
37	0x82a6a0a2	-2.4483706e-37
38	0x829c950e	-2.3007693e-37
39	0xbeba7e94	-0.36424696
40	0xbe9ad52a	-0.30240756
41	0x3eaa46d0	0.3325715
42	0x86b19090	-6.6792416e-35
43	0x029d0d4c	2.3076709e-37
44	0x82a7f187	-2.4677074e-37
45	0x3f0048da	0.5011116
46	0x3ef1bcd7	0.47214386
47	0x3f0543f0	0.5205679
48	0x029a90e0	2.271142e-37
49	0x829796c6	-2.2273996e-37
50	0x825b854a	-1.6127831e-37
51	0xbda6b8fc	-0.08140752
52	0x3e4acb3c	0.1980409
53	0x3f0dc351	0.55376154
54	0x82976d64	-2.2250243e-37
55	0x02ac6d2d	2.5335792e-37
56	0x82a9cd1f	-2.4950052e-37
57	0xbe960159	-0.29297903
58	0xbe3d1408	-0.18464673
59	0x3edac9fb	0.42732224
60	0xbebb0e2c	-0.3653425
61	0x3ec3c0ed	0.38233128
62	0x3f11efee	0.5700673
63	0x829ff536	-2.3503694e-37
64	0x02a2ac94	2.3902816e-37
65	0x82a364d0	-2.400856e-37
66	0x3d7d8294	0.061892107
67	0xbf041b63	-0.5160429
68	0x3f11db73	0.5697548
69	0x3ebb656e	0.36600822
70	0x3eac6b7a	0.33675748
71	0x3e1c9287	0.15290271
72	0xbdad0753	-0.084486626
73	0x3e4f8cde	0.2026858
74	0x3eca2ddb	0.3948811
75	0x3efa0ca0	0.48837757
76	0xbea8769f	-0.32903
77	0xbec22dc5	-0.37925544
78	0xbd99bdf3	-0.07506933
79	0x3ebd3116	0.36951512
80	0x3e34a861	0.17642356
81	0x3e68c6cc	0.22732085
82	0x3ef6e507	0.4822161
83	0xbf0a0589	-0.53914696
84	0x3ef7b807	0.4838259
85	0x3efb57a0	0.4909029
86	0xbee6f1ac	-0.45106256
87	0x3e97cf50	0.29650354
88	0xbeccd4cd	-0.40006104
89	0xbe8bcd28	-0.2730496
90	0x3d90953b	0.070597135
91	0x3efa2274	0.4885441
92	0x3d8e0c57	0.069359474
93	0xbeba9f63	-0.36449727
94	0x3f1edb70	0.62053585
95	0xbeec40af	-0.461431

conv1.bias f4 [32]
0	0x3f0db56f	0.5535497
1	0x8295eb24	-2.2028546e-37
2	0x3ddf1e01	0.10894395
3	0x3e7043cf	0.23463367
4	0xbeec24d6	-0.46121854
5	0x0291f46e	2.144613e-37
6	0x3ed56b90	0.41683626
7	0x3e56d973	0.20981388
8	0x029aa582	2.2723263e-37
9	0x88ff2cf7	-1.5357825e-33
10	0x3f06e2ce	0.52689826
11	0xbecd11a8	-0.40052533
12	0x82a12115	-2.3675812e-37
13	0x3efd310d	0.49451485
14	0x955ef0f6	-4.5022628e-26
15	0xbe1e2132	-0.1544235
16	0x8292b85b	-2.1558587e-37
17	0x3d1f6e96	0.038923822
18	0x81be7750	-6.996618e-38
19	0x3e56e5b6	0.20986065
20	0xbed8543c	-0.42251766
21	0x82aa061d	-2.4982764e-37
22	0xba5408dd	-0.0008088479
23	0x3f08f223	0.5349447
24	0x3cf88f72	0.030341838
25	0x3ec986f5	0.39360777
26	0x3ed9a685	0.42509857
27	0x3f041059	0.51587445
28	0x3ee86ca6	0.45395392
29	0x3ed3db27	0.41378137
30	0xbebe2392	-0.37136513
31	0x3ebb1ca2	0.36545283

conv2.weight f4 [32, 32, 3]
0	0x3d772095	0.060333807
1	0x3dbcb24b	0.09213694
2	0xbcdff1ac	-0.027336918
3	0x832e5dec	-5.124182e-37
4	0x808f84a4	-1.3180058e-38
5	0x816d69d1	-4.3605945e-38
6	0xbd58a3bc	-0.052890524
7	0xbd15d324	-0.036578313
8	0xbd30a00b	-0.04312138
9	0xbd3524f1	-0.044224683
10	0xbdc53f86	-0.09631257
11	0xbc6687b2	-0.014070438
12	0xbd042a1f	-0.032266732
13	0xbb2f9dbe	-0.0026796903
14	0x3c9b5205	0.018960008
15	0x02faf9be	3.6877543e-37
16	0x83316714	-5.2133953e-37
17	0x81e972ba	-8.5755307e-38
18	0xbe266df7	-0.16252886
19	0xbba9e5e3	-0.0051848753
20	0x3df61010	0.120147824
21	0xbdd00586	-0.101573035
22	0xbd29554b	-0.041341107
23	0xbcd433ec	-0.025903665
24	0x02c800c5	2.93878e-37
25	0x81f52ecb	-9.006593e-38
26	0x8263e4fe	-1.6743044e-37
27	0x02f8bcc0	3.6548662e-37
28	0x028bd590	2.0546793e-37
29	0x8288fdc3	-2.0129056e-37
30	0x3cdac672	0.026705954
31	0x3c175645	0.009236877
32	0x3d6d234f	0.057895
33	0xbc9ea4e4	-0.019365735
34	0xbc4155e3	-0.011800262
35	0xbccee99e	-0.025257882
36	0x022b274c	1.2574374e-37
37	0x831501c8	-4.378921e-37
38	0x82193ca2	-1.1258065e-37
39	0xbe8c37de	-0.27386373
40	0xbe455469	-0.19270481
41	0xbe0451ce	-0.12921831
42	0x02c922fa	2.9554371e-37
43	0x02b6c1ba	2.685369e-37
44	0x031d9fbb	4.6321515e-37
45	0xbdd2a8c8	-0.10286099
46	0x3cfec878	0.03110145
47	0xbd969d8f	-0.07354271
48	0x004bef20	6.973444e-39
49	0x02737a0b	1.7887845e-37
50	0x82425bd8	-1.4279227e-37
51	0x3d903965	0.07042197
52	0x3cb70b88	0.022344366
53	0x3caa9a9b	0.020825675
54	0x82f7fc0c	-3.6438056e-37
55	0x0264c162	1.6806293e-37
56	0x030abcc0	4.077123e-37
57	0x3d1f4be4	0.038890734
58	0xbd95e1dd	-0.073184706
59	0x3d071590	0.032979548
60	0xbe0a0902	-0.13479999
61	0xbd22b458	-0.03972277
62	0xbe043155	-0.12909444
63	0x018ec6a9	5.2447625e-38
64	0x82a3af29	-2.4051234e-37
65	0x8226bb6e	-1.2249544e-37
66	0x3d3b9622	0.045797475
67	0xbd51a1f1	-0.05117983
68	0xbce16be1	-0.027517261
69	0x3d3f22c9	0.046664033
70	0x3d456ca3	0.048199307
71	0x3d8b0b9e	0.06789325
72	0xbdd5b165	-0.10434226
73	0xbda66ab9	-0.081258245
74	0xbbaf5dc0	-0.005351752
75	0x3d0d09b0	0.034433067
76	0x3db71fd7	0.0894162
77	0xbd23f90f	-0.040032443
78	0x3ce1c49f	0.027559577
79	0x3d9c14f4	0.07621184
80	0xbd3f090c	-0.046639487
81	0x3da06352	0.07831444
82	0xbd8cdb21	-0.06877733
83	0x3ce133bf	0.027490495
84	0xbbb8c005	-0.005638125
85	0xbd437eec	-0.047728464
86	0x3c4bb614	0.0124335475
87	0x3b967c05	0.004592421
88	0x3d91466a	0.070935085
89	0x3e6fd5eb	0.23421447
90	0x3de0f399	0.109839626
91	0x3dc03968	0.093859494
92	0x3d6cbee5	0.05779924
93	0xbd8340d7	-0.064088516
94	0x3d6fa23c	0.058504328
95	0x3e65be66	0.22435912
96	0xb939d3e1	-0.00017721906
97	0xb9361e67	-0.00017368198
98	0xb9347c0b	-0.00017212347
99	0x821fe1fc	-1.174633e-37
100	0x02cef09c	3.0407083e-37
101	0x81a82590	-6.1767353e-38
102	0xb91c1855	-0.00014886384
103	0xb91350c2	-0.00014049097
104	0xb90ff89c	-0.00013730157
105	0xb6868fee	-4.010267e-06
106	0xb6846d79	-3.946651e-06
107	0xb683f989	-3.933154e-06
108	0xb5938438	-1.0990834e-06
109	0xb576deac	-9.196617e-07
110	0xb54d992a	-7.6591334e-07
111	0x82c46c32	-2.8861713e-37
112	0x02c54dbd	2.8991168e-37
113	0x02535578	1.552636e-37
114	0x001cc87c	2.643314e-39
115	0x82bdf087	-2.790911e-37
116	0x82a6cf58	-2.4510517e-37
117	0xb80b02a7	-3.3142653e-05
118	0xb80d5a2f	-3.370101e-05
119	0xb80b1a51	-3.316469e-05
120	0x0334183d	5.292507e-37
121	0x02175b2c	1.1119893e-37
122	0x02ff4286	3.7507065e-37
123	0x025927d7	1.5954076e-37
124	0x02a12524	2.3678141e-37
125	0x82d7a81e	-3.1687905e-37
126	0xb98a2174	-0.00026346336
127	0xb9856a3d	-0.0002544689
128	0xb9846c97	-0.00025257908
129	0x827b0660	-1.8442397e-37
130	0x8309f7d4	-4.0545174e-37
131	0x02cf7dda	3.0488152e-37
132	0x033737ff	5.3843147e-37
133	0x02b07af3	2.5931445e-37
134	0x8276a368	-1.8120121e-37
135	0xb17b70f8	-3.6589523e-09
136	0xb1e161d2	-6.5594827e-09
137	0xb1800256	-3.725556e-09
138	0x819f3992	-5.8489985e-38
139	0x8262e49a	-1.6669463e-37
140	0x026b06a0	1.7266975e-37
141	0xb93ce9dc	-0.00018016197
142	0xb92fda2e	-0.00016770579
143	0xb929d1e7	-0.0001619529
144	0x03314322	5.209269e-37
145	0x03091c3e	4.02931e-37
146	0x02885970	2.0034739e-37
147	0xb8091e9c	-3.2691853e-05
148	0xb80619f1	-3.197225e-05
149	0xb802cf06	-3.118722e-05
150	0x00b14bc8	1.6282068e-38
151	0x0210d21c	1.0639748e-37
152	0x02c1b21f	2.8461038e-37
153	0xb03422e5	-6.5533207e-10
154	0xb0abc1d6	-1.2496979e-09
155	0xb0122d1d	-5.31786e-10
156	0xaf3a884d	-1.6965025e-10
157	0xaf42b385	-1.7707975e-10
158	0xaf6f83a0	-2.1783686e-10
159	0x023432c1	1.3238877e-37
160	0x035a91fc	6.4232024e-37
161	0x834163cc	-5.6832164e-37
162	0xab0ff385	-5.1141757e-13
163	0xab10cef4	-5.144628e-13
164	0xa92aa23f	-3.788831e-14
165	0xb9758812	-0.00023415711
166	0xb96d17f4	-0.00022611005
167	0xb96815b8	-0.00022133335
168	0xb73676e7	-1.08757295e-05
169	0xb735d3fd	-1.0837798e-05
170	0xb72e46f4	-1.0387728e-05
171	0xb24dab08	-1.19714585e-08
172	0xb1ab9e81	-4.994775e-09
173	0xb210ee81	-8.436133e-09
174	0xb8b55c5c	-8.647956e-05
175	0xb8b2e361	-8.530054e-05
176	0xb8b0cdc4	-8.430661e-05
177	0xb83c9e72	-4.4970257e-05
178	0xb8360b71	-4.3402837e-05
179	0xb835e363	-4.3365533e-05
180	0xb8f8c531	-0.00011862291
181	0xb8edcda7	-0.000113393464
182	0xb8e5a7c3	-0.00010950819
183	0xa8613144	-1.2500692e-14
184	0xa74dc5b7	-2.8556646e-15
185	0xa8b3cedd	-1.9962705e-14
186	0xb2916780	-1.6927288e-08
187	0xb26c057f	-1.3738258e-08
188	0xb2845668	-1.5406115e-08
189	0xb0496dd2	-7.327944e-10
190	0xb0ce9613	-1.5031126e-09
191	0xb17c228a	-3.669046e-09
192	0x3cd1e44a	0.025621552
193	0x3d4d1f14	0.050078467
194	0xbda06d11	-0.07833303
195	0x033e9138	5.6002685e-37
196	0x804b5cd0	-6.920957e-39
197	0x0251e5d0	1.5420848e-37
198	0x3cf83664	0.030299373
199	0xbd78b6be	-0.06072115
200	0xbbc391e5	-0.0059683197
201	0x3c89dd69	0.01682921
202	0x3d8f44da	0.06995554
203	0x3cedb41c	0.029016547
204	0x3c9899c0	0.018628001
205	0x3da4fdaf	0.08056199
206	0x3daa7a71	0.08324135
207	0x82784208	-1.8239112e-37
208	0x834e4767	-6.0619925e-37
209	0x801dac30	-2.724999e-39
210	0x3dafcf64	0.085844785
211	0xbc8f2ce4	-0.01747746
212	0xbdfce67d	-0.1234865
213	0x3dbd0063	0.092285894
214	0x3d94ca5a	0.07265158
215	0xbd947f40	-0.072508335
216	0x02b393a0	2.6386419e-37
217	0x823ddb7c	-1.3948516e-37
218	0x0248730f	1.47267e-37
219	0x035fcbbe	6.5767695e-37
220	0x0300e381	3.787698e-37
221	0x825c0de1	-1.616703e-37
222	0x3d991b72	0.07475938
223	0x3d52a41f	0.05142605
224	0x3db735e6	0.08945827
225	0xbd050c63	-0.032482516
226	0xbc68b3e6	-0.014203047
227	0x3d4e31d0	0.050340474
228	0x0327684e	4.9196625e-37
229	0x0250b6ef	1.5333926e-37
230	0x033ef8d9	5.6121645e-37
231	0x3d2b0f60	0.04176271
232	0x3df885c0	0.12134886
233	0x3c08ae1b	0.008342291
234	0x82016c1a	-9.508447e-38
235	0x02e0e458	3.3044905e-37
236	0x80cc3984	-1.8755074e-38
237	0x3dad3e0f	0.08459102
238	0x3dc6e03c	0.09710738
239	0x3cd3f837	0.025875194
240	0x82652ba0	-1.6836783e-37
241	0x82cdcb6c	-3.0238801e-37
242	0x82d6d9bf	-3.1569454e-37
243	0x3d5d9479	0.054096673
244	0xbd4c1c80	-0.049831867
245	0x3d507dcd	0.050901223
246	0x02053e4c	9.789175e-38
247	0x82078a87	-9.957989e-38
248	0x81ee97bc	-8.764512e-38
249	0xbc0cf16b	-0.00860248
250	0xbc056f36	-0.008144191
251	0xbcf13584	-0.029444464
252	0x3d580615	0.052740175
253	0x3d061453	0.032734226
254	0x3dfd5226	0.12369184
255	0x82281f9c	-1.2351762e-37

conv2.bias f4 [32]
0	0x3d2afcca	0.041744985
1	0xb914d619	-0.00014194137
2	0x3d877df0	0.066158175
3	0x29b2f5de	7.947439e-14
4	0x02bf54b2	2.811354e-37
5	0x3e007dbf	0.12547968
6	0x02d40dcf	3.1158526e-37
7	0xa1951a53	-1.0103601e-18
8	0x8fdd8e62	-2.1847126e-29
9	0x3cb385dd	0.021914417
10	0xa5c199fa	-3.3584502e-16
11	0xae833778	-5.9670435e-11
12	0xbcc7ba3b	-0.024380794
13	0x3d6bc139	0.05755732
14	0xbcfd95b6	-0.030955177
15	0xbd1bfecf	-0.0380848
16	0x82d15002	-3.0755712e-37
17	0x3b900caa	0.004396041
18	0xbd122132	-0.03567619
19	0x3db27ee2	0.08715607
20	0x80bdb876	-1.7423081e-38
21	0x3cecdda7	0.028914286
22	0xbd7c7623	-0.0616361
23	0xbd42843a	-0.047489382
24	0xbda5c842	-0.08094837
25	0xbc094abb	-0.008379634
26	0x3d285334	0.041094974
27	0x3c49649e	0.012292055
28	0x33d19da4	9.7609956e-08
29	0x3bd574e4	0.0065141786
30	0x3c855374	0.016275145
31	0x9e54c3cb	-1.12636756e-20

fc.weight f4 [1, 32]
0	0xbe0d4307	-0.137951
1	0xbacdae33	-0.0015692174
2	0x3e1d2ee7	0.15349923
3	0x380db1f6	3.378276e-05
4	0x32cb4393	2.366304e-08
5	0x3d485800	0.04891205
6	0x029de600	2.320109e-37
7	0xb93d8857	-0.00018075235
8	0x3a34bb24	0.0006894341
9	0x3bc36a9f	0.005963638
10	0x3b02c22e	0.0019952166
11	0x309136e1	1.0565736e-09
12	0x3e4fa186	0.2027646
13	0xbca197c6	-0.019725692
14	0xbeb7ed77	-0.3592336
15	0x3e16b9c5	0.14719303
16	0xb00a2449	-5.025567e-10
17	0xbdfc3ec3	-0.12316658
18	0xbe495524	-0.19661385
19	0xbe27eb29	-0.163983
20	0xb5b2be19	-1.3317359e-06
21	0xbc233263	-0.009960744
22	0x3dd3a4ed	0.103341915
23	0xbdf94ac9	-0.12172467
24	0x3dbd5622	0.09244944
25	0x3dee7585	0.11643509
26	0xbc83c7cb	-0.01608648
27	0xbc81bdc3	-0.015837556
28	0x82a72218	-2.4558013e-37
29	0x3e8f0d7f	0.27939984
30	0xbd68abde	-0.05680453
31	0x3a7e2d42	0.0009696075
